cartpole_weights/episode_durations_482.pt (torch, 72007 bytes, 6 tensors)

layer1.weight f4 [128, 4]
0	0xbf0dea7a	-0.5543591
1	0xbefba46c	-0.4914888
2	0x3d1ce928	0.038308293
3	0xbe964e74	-0.2935673
4	0x3da92df3	0.08260717
5	0x3caf8f1c	0.021430545
6	0xbf35f368	-0.71074533
7	0x3e05cdf8	0.13066852
8	0xbf273398	-0.653131
9	0xbea82a65	-0.32844844
10	0xbeca2fca	-0.39489585
11	0xbe83a51d	-0.2571191
12	0xbdfe69bf	-0.12422513
13	0xbec2d62d	-0.38054028
14	0xbef44ad2	-0.47713333
15	0xbd908bf8	-0.07057947
16	0xbe884ad9	-0.26619604
17	0x3e030e90	0.12798524
18	0xbea596e0	-0.3234167
19	0xbf08b1a4	-0.5339606
20	0xbf0f7040	-0.56030655
21	0xbce36d55	-0.027762095
22	0x3f04a7f3	0.5181877
23	0xbe30c3c3	-0.17262177
24	0x3de2ce97	0.1107456
25	0xbd44258b	-0.047887366
26	0xbea59523	-0.32340345
27	0x3eb58257	0.35451004
28	0xbebb0698	-0.36528468
29	0x3edbfa28	0.42964292
30	0x3f0d113c	0.5510442
31	0xbe42587f	-0.18979071
32	0x3e4bab08	0.19889462
33	0x3e33157c	0.17488664
34	0x3f0846ee	0.5323323
35	0x3d861396	0.065467045
36	0x3ebdf204	0.37098706
37	0x3ebd5f46	0.3698675
38	0x3e1f888e	0.15579435
39	0xbcf4720f	-0.029839544
40	0x3c834cce	0.016027834
41	0x3ec1f16f	0.37879512
42	0xbf05d04c	-0.5227096
43	0x3e09fef3	0.13476162
44	0xbf13f83f	-0.5780067
45	0xbf3310f8	-0.6994777
46	0xbe861fdd	-0.26196185
47	0xbefbca09	-0.49177578
48	0x3eab27b7	0.33428738
49	0xbcd55db2	-0.026045654
50	0x3d1fe75a	0.039038993
51	0xbade2651	-0.0016948675
52	0x3e69a199	0.22815551
53	0x3f016044	0.50537515
54	0xbeb8944e	-0.36050647
55	0xbbf9ef40	-0.007627398
56	0xbe55f704	-0.2089501
57	0xbe6447cf	-0.22293018
58	0x3e67955c	0.2261557
59	0xbd9a7fd6	-0.07543914
60	0xbe55d7ce	-0.20883104
61	0xbf0aa069	-0.54151016
62	0xbe6d8566	-0.23195419
63	0xbe02e404	-0.12782294
64	0xbee43248	-0.44569612
65	0xbe95382c	-0.29144418
66	0x3e899746	0.26873225
67	0xbdffc666	-0.124890134
68	0x3f12f10b	0.5739905
69	0xbe95340d	-0.29141274
70	0xbe5b762e	-0.214318
71	0x3e7326f4	0.23745328
72	0x3edee238	0.43531966
73	0x3ec0cfa5	0.3765842
74	0xbdacaf2a	-0.084318474
75	0x3c8b6f07	0.017020715
76	0xbe66da7a	-0.2254428
77	0xbeab30d2	-0.33435684
78	0x3f56187b	0.83631104
79	0x3b86ab93	0.0041098087
80	0x3ea48de9	0.3213952
81	0xbeb6a3b4	-0.3567177
82	0xbe0aefbb	-0.13568012
83	0xbd0b71d4	-0.0340441
84	0xbe4fa04a	-0.20275989
85	0x3e401957	0.18759666
86	0xbd3b289b	-0.04569302
87	0x3cef6a55	0.029225508
88	0x3f1cbde4	0.6122725
89	0x3f04d030	0.5188017
90	0x3fa49aa8	1.2859697
91	0x3ebdc347	0.37063047
92	0xbecf664c	-0.40507734
93	0x3ddd9ce9	0.10820944
94	0xbf3e356c	-0.74300265
95	0xbe845bc6	-0.25851268
96	0xbe9a140b	-0.30093417
97	0xbe2c8c85	-0.16850479
98	0x3e1e8ca0	0.15483332
99	0x3e37ecb9	0.17961396
100	0xbe43f7a0	-0.1913743
101	0xbebd70d0	-0.37000132
102	0x3f07f66e	0.53110397
103	0x3e0baa29	0.1363913
104	0xbf4f77f9	-0.8104244
105	0x3ecc46ba	0.3989771
106	0xbdf42a38	-0.11922115
107	0x3e9ba517	0.3039939
108	0xbe5cacc4	-0.2155028
109	0xbec06008	-0.37573266
110	0xbe28e738	-0.16494453
111	0xbc76c432	-0.015061425
112	0x3e57d598	0.21077573
113	0x3e381575	0.17976935
114	0x3f3d87fc	0.7403562
115	0x3eb9dce3	0.36301336
116	0xbf245367	-0.6418976
117	0xbf32ce98	-0.6984649
118	0xbf2c926d	-0.6741093
119	0xbef6c25a	-0.48195153
120	0xbef8a493	-0.4856306
121	0x3deb28c1	0.114823826
122	0x3f3f46e5	0.7471755
123	0x3ebea790	0.37237215
124	0xbf0333f2	-0.5125114
125	0xbec602fe	-0.38674158
126	0x3ea0d331	0.31411126
127	0x3ebbc21d	0.36671534
128	0xbec9c165	-0.3940536
129	0x3efdbf62	0.49560076
130	0xbdb15e8e	-0.08660613
131	0xbcfc69ae	-0.03081211
132	0xbf1673a3	-0.587702
133	0x3e6a92b5	0.22907527
134	0xbd4512cb	-0.048113625
135	0x3e674436	0.22584614
136	0x3f1b34ec	0.6062763
137	0x3e562ef6	0.20916352
138	0xbec9ee96	-0.3943984
139	0xbdfd8eb7	-0.12380736
140	0xbebcdcd1	-0.3688722
141	0xbbd33980	-0.0064460635
142	0x3f38d092	0.72193253
143	0x3ee9a3f2	0.45632893
144	0xbf0ad2be	-0.5422782
145	0xbeb40159	-0.35157278
146	0xbe81dc14	-0.2536322
147	0xbd9e7aac	-0.077382416
148	0xbb367af1	-0.0027844275
149	0x3f0a36e9	0.53990036
150	0x3e173441	0.14766027
151	0x3d33e8f9	0.043923352
152	0xbea67d56	-0.325175
153	0xbed27045	-0.4110128
154	0xbf0c561c	-0.5481889
155	0x3d9b10e6	0.075715825
156	0x3e8ac372	0.27102238
157	0xbedb925e	-0.42885107
158	0x3f17373b	0.5906865
159	0x3ec81c30	0.39084005
160	0x3e066e0e	0.1312792
161	0x3e14b698	0.14522779
162	0x3f0b6857	0.54456085
163	0x3ece18ed	0.40253392
164	0x3e42bc58	0.1901716
165	0x3e002430	0.12513804
166	0x3e2c343e	0.16816804
167	0x3e9801e0	0.2968893
168	0xbd5f698f	-0.054544028
169	0xbe4a974e	-0.1978428
170	0xbe9d95e6	-0.30778426
171	0xbe221d39	-0.1583146
172	0xbd9e7d6c	-0.07738766
173	0xbde89d74	-0.11358157
174	0xbcb1d691	-0.021708759
175	0x3dbda8ed	0.09260736
176	0xbd182874	-0.037147954
177	0x3ebfba77	0.3744695
178	0x3e99ff01	0.30077365
179	0xbcf37dba	-0.029723037
180	0xbf2843e2	-0.6572858
181	0xbe49b227	-0.19696866
182	0x3ee9dc60	0.45675945
183	0xbd9f7cde	-0.077874884
184	0xbf040f5d	-0.5158594
185	0x3d8360d1	0.06414951
186	0x3e5d6226	0.21619472
187	0xbe7f97a3	-0.24960189
188	0x3c2cfc51	0.010558204
189	0xbef3c86e	-0.47613853
190	0xbfa8a393	-1.3174919
191	0xbebf42ee	-0.3735575
192	0xbdee2172	-0.11627473
193	0xbe9995a0	-0.29996967
194	0xbeed7d67	-0.46384737
195	0x3e7e66a9	0.24843849
196	0xbcde0dea	-0.027106244
197	0x3e04c9a3	0.12967543
198	0xbd779c99	-0.060452078
199	0x3e6bd02d	0.23028632
200	0x3d9b542a	0.075844124
201	0x3ef26b00	0.4734726
202	0x3f3bfb86	0.7343067
203	0x3ebe1673	0.37126502
204	0xbeb37894	-0.3505293
205	0xbee984df	-0.45609185
206	0x3e166093	0.14685278
207	0x3eb8f5e4	0.361251
208	0xbe752a21	-0.23941852
209	0xbd06ab72	-0.032878347
210	0xbcfc8d7f	-0.03082919
211	0x3ea53740	0.32268715
212	0x3dc18e63	0.09450986
213	0xbf43995e	-0.76405895
214	0xbfa5381b	-1.2907747
215	0xbf10f866	-0.56629026
216	0xbe5021ec	-0.2032544
217	0x3d99f53c	0.07517478
218	0xbe904389	-0.28176525
219	0x3e2e6baf	0.17033266
220	0x3eb3512e	0.35022873
221	0xbee6c9d0	-0.45075846
222	0xbe18261f	-0.14858292
223	0xbe235458	-0.15950143
224	0x3ee16c55	0.44027963
225	0x3e382822	0.1798406
226	0x3eb6b168	0.35682225
227	0x3e71fb9f	0.23631142
228	0xbe91c751	-0.2847238
229	0x3e9a13a4	0.3009311
230	0x3f2725b9	0.65291935
231	0x3ea0aa60	0.31379986
232	0x3e2bff75	0.16796668
233	0x3edd08db	0.4317082
234	0x3f01e798	0.5074401
235	0xbe890e0b	-0.26768526
236	0x3e9110b5	0.2833306
237	0xbea2ab84	-0.3177148
238	0xbeca9542	-0.39567
239	0xbeb41f6b	-0.3518022
240	0x3e5b1cef	0.21397756
241	0xbe628537	-0.2212113
242	0xbe5257fc	-0.20541376
243	0xbecd6b8e	-0.4012112
244	0xbf051b2f	-0.51994604
245	0xbf08a12f	-0.53370947
246	0xbcf94c7f	-0.030431984
247	0xbe17c214	-0.14820129
248	0x3ed8e16a	0.42359477
249	0xbe439e3a	-0.19103327
250	0x3e076446	0.13221845
251	0xbe23c804	-0.15994269
252	0x3f074eca	0.528546
253	0x3eea76af	0.45793673
254	0xbdea530b	-0.114416204
255	0xbd3260fb	-0.04354952

layer1.bias f4 [128]
0	0xbc6bea0f	-0.014399066
1	0x3e6cc013	0.23120145
2	0x3f11f295	0.57010776
3	0x3e93024c	0.2871269
4	0xbe654889	-0.22390951
5	0x3ecc9087	0.39954016
6	0x3f0f0bc0	0.55877304
7	0x3f113614	0.5672314
8	0x3e880756	0.26568097
9	0xbdfce89b	-0.123490535
10	0xbe1bb35a	-0.15205136
11	0xbd2268bf	-0.039650675
12	0x3e940b09	0.2891467
13	0x3dc77bc1	0.09740401
14	0x3f04eb88	0.5192189
15	0xbded5cbe	-0.11589955
16	0x3e845103	0.25843057
17	0x3e6c3c76	0.23069939
18	0x3e9a56e0	0.30144405
19	0xbf01277d	-0.5045088
20	0x3ebcf10c	0.36902654
21	0xbebc5b0c	-0.36788213
22	0x3a9de7ff	0.001204729
23	0xbe5c40db	-0.21509115
24	0xbec159d1	-0.37763837
25	0xbebc0603	-0.36723337
26	0xbe3ee8cf	-0.18643497
27	0x3f1addf3	0.6049492
28	0xbee479eb	-0.44624266
29	0xbbfdde7f	-0.007747471
30	0xbed1d26a	-0.40980846
31	0xbee5a466	-0.4485199
32	0x3f2b7e55	0.6698964
33	0x3ec440d9	0.38330725
34	0xbedb6fd9	-0.4285877
35	0xbf0f8d27	-0.56074756
36	0x3f071ea0	0.52781105
37	0x3ec400e3	0.38281927
38	0x3ef38c51	0.4756799
39	0xbebf6f20	-0.3738947
40	0xbedf9a40	-0.4367237
41	0x3f32892f	0.69740576
42	0x3f32606b	0.6967837
43	0x3f2049ff	0.6261291
44	0x3eff8547	0.4990637
45	0x3e9c1eb9	0.3049219
46	0x3eed4a66	0.46345824
47	0xbdfb2f58	-0.122648895
48	0x3ef5cf96	0.48009938
49	0x3ec23b73	0.3793598
50	0x3c9d89e1	0.019230785
51	0x3ebf9236	0.37416238
52	0xbef1d30e	-0.47231334
53	0xbd65a12b	-0.056061905
54	0x3f24e1a2	0.6440679
55	0x3f0cdee9	0.55027634
56	0x3f2ad075	0.6672433
57	0x3f1a04b8	0.6016345
58	0x3f2508d6	0.6446661
59	0x3f356543	0.7085764
60	0x3f06f467	0.5271668
61	0x3cece678	0.02891849
62	0xbea153dc	-0.31509292
63	0xbe8d3a0b	-0.27583346
64	0x3ebaf119	0.36512068
65	0x3e93a624	0.28837693
66	0x3f0471d8	0.5173621
67	0xbe959cb9	-0.29221132
68	0x3ecd93a3	0.401517
69	0x3f2e141c	0.67999434
70	0x3ef76f16	0.4832694
71	0x3f14367a	0.57895625
72	0x3e4a16cd	0.1973526
73	0x3f19ef55	0.60130817
74	0xbd5ca417	-0.053867426
75	0x3e9d2f47	0.30700132
76	0x3f05c345	0.5225108
77	0x3e1b22ed	0.15150042
78	0xbec02b00	-0.37532806
79	0xbe6bdf0a	-0.23034301
80	0xbe273824	-0.1633001
81	0x3e9fec36	0.31234902
82	0xbef097d2	-0.4699083
83	0x3bbee5f9	0.0058257547
84	0xbdad06f6	-0.08448593
85	0xbeb581c3	-0.35450563
86	0x3f04e80a	0.51916564
87	0x3e8a6893	0.2703291
88	0x3ee35dc3	0.44407472
89	0x3b5e8608	0.00339544
90	0x3ebe59da	0.37177926
91	0xbefb2f5e	-0.49059576
92	0xbf0290cc	-0.5100219
93	0x3f2fa682	0.68613446
94	0x3deff180	0.11715984
95	0x3f2673cb	0.65020436
96	0x3f228b56	0.6349386
97	0x3e6f5666	0.23372802
98	0xbe23a057	-0.15979134
99	0x3e575b29	0.21030869
100	0xbf0b8fc8	-0.5451627
101	0xbdac4408	-0.084114134
102	0x3be20b08	0.0068982877
103	0x3ead15c4	0.33805668
104	0x3ea20ca1	0.3165026
105	0x3c8d4380	0.0172441
106	0x3f05a34b	0.5220229
107	0xbeee64a1	-0.4656115
108	0xbe2bba9f	-0.16770409
109	0x3e88a186	0.26685733
110	0xbe508347	-0.20362578
111	0x3ed86f75	0.42272535
112	0x3e345b07	0.17612849
113	0x3ebd193c	0.36933315
114	0x3ec89a1b	0.39180073
115	0xbeafdd3d	-0.3434848
116	0x3ee8b4c7	0.45450422
117	0x3c944b2f	0.018102257
118	0xbebb29dd	-0.36555377
119	0xbefaca65	-0.4898254
120	0x3f134bdb	0.5753762
121	0x3e2044ec	0.15651292
122	0xbe4759f4	-0.19467908
123	0xbeb829ab	-0.3596929
124	0x3e642d0b	0.22282808
125	0x3c271c4e	0.010199619
126	0xbe11f00f	-0.14251731
127	0x3cbf0bec	0.023321114

layer2.weight f4 [128, 128]
0	0xbf199aa1	-0.6000157
1	0x3d4593ba	0.048236586
2	0x3b19a863	0.0023446314
3	0xbc66a66e	-0.014077766
4	0x3cd32567	0.02577467
5	0x3d48e71b	0.049048524
6	0x3d331210	0.043718398
7	0xbdcace73	-0.09902658
8	0x3d888a26	0.06666975
9	0xbe453a8b	-0.19260614
10	0xbe62a72f	-0.22134088
11	0xbeb5739c	-0.35439765
12	0x3e0709c1	0.13187315
13	0xbcabba14	-0.020962752
14	0x3d95f8b9	0.07322831
15	0xbe092c4c	-0.13395804
16	0xbcf39260	-0.029732883
17	0x3d707a4d	0.058710385
18	0xbd7849f6	-0.06061741
19	0xbe5e97c5	-0.21737583
20	0x3dfc4c47	0.12319236
21	0x3c9b9c4f	0.018995432
22	0xbe7a9cc9	-0.24473871
23	0xbec0787b	-0.3759192
24	0xbdc66bd9	-0.09688539
25	0xbdd0e7db	-0.10200473
26	0xbed9d269	-0.42543343
27	0x3ded88d4	0.115983635
28	0xbedbf358	-0.42959094
29	0xbee1f19d	-0.4412965
30	0xbd7e3f84	-0.062072292
31	0xbdc11c94	-0.09429279
32	0xbc588535	-0.013215353
33	0x3db71ea4	0.08941391
34	0xbe715039	-0.23565759
35	0xbd1611fe	-0.036638252
36	0x3c8806dd	0.016604835
37	0x3c08d221	0.00835088
38	0x3d8fc51e	0.07020019
39	0x3c981972	0.01856682
40	0xbec589e3	-0.38581762
41	0x3d3fe45b	0.046848636
42	0x3dbe9f76	0.093077585
43	0x3d8f2420	0.06989312
44	0x3a026906	0.0004974756
45	0x3de87dae	0.113520965
46	0xbd19fe2d	-0.037595917
47	0xbf1af803	-0.60534686
48	0xbd2848de	-0.041085117
49	0xbd282864	-0.041054145
50	0xbea7d332	-0.32778317
51	0xbd10d9d9	-0.035364006
52	0xbe3d03e7	-0.1845852
53	0xbf4bc189	-0.79592186
54	0x3d50b992	0.050958224
55	0x3e19f87e	0.15036198
56	0xbc75b7ac	-0.014997404
57	0xbd0c7f3f	-0.03430104
58	0x3c360f8d	0.011112106
59	0x3e042240	0.1290369
60	0xbc8f4587	-0.017489208
61	0xbdee2496	-0.11628072
62	0xbd950c52	-0.072777405
63	0xbdfa7f24	-0.122312814
64	0x3d8ec0d8	0.06970376
65	0xbd5b1f1b	-0.05349646
66	0xbdb6a042	-0.089172855
67	0xbe384321	-0.17994358
68	0x3ce86123	0.02836663
69	0xbd232991	-0.039834563
70	0xbe04120b	-0.12897508
71	0xbc052d6f	-0.008128508
72	0x3d80994d	0.0627924
73	0xbd96a8c3	-0.073564075
74	0xbede44df	-0.4341192
75	0xbdccee8e	-0.10006438
76	0xb8ab969f	-8.181971e-05
77	0x3e9d6e73	0.3074833
78	0xbeeac97d	-0.45856848
79	0xbda0c8ca	-0.078507975
80	0x3db72ee4	0.089444906
81	0x3d2720fc	0.04080294
82	0xbeb4a8d0	-0.35285044
83	0xbe907a6d	-0.28218403
84	0xbde6d8c5	-0.11271814
85	0xbeab9b61	-0.33516982
86	0xbd1f7f8b	-0.038939994
87	0x3d6db47c	0.05803345
88	0xbb498c29	-0.0030753708
89	0xbea900e6	-0.33008498
90	0xbd9eb226	-0.07748823
91	0xbe05ad99	-0.13054504
92	0xbe401ecd	-0.1876175
93	0xbd1fa7ea	-0.038978495
94	0xbdd02301	-0.101629265
95	0x3cb8a952	0.022541676
96	0x3db24b7f	0.08705806
97	0x3e1d3d80	0.15355492
98	0xbe4d921f	-0.20075272
99	0xbd0ff080	-0.035141468
100	0xbe2650d6	-0.16241774
101	0xbee9d2ae	-0.45668548
102	0xbe8af6a6	-0.27141303
103	0xbd2cf0dc	-0.04222189
104	0x3d335841	0.043785337
105	0xbea4f45e	-0.32217687
106	0xbc97d41c	-0.018533759
107	0xbc37d4b6	-0.011220148
108	0xbdcc52dc	-0.09976742
109	0x3c67eeaa	0.014156023
110	0xbc0cf0cd	-0.008602333
111	0xbd1dd11e	-0.038529508
112	0xbbfc0ef4	-0.0076922122
113	0xbdcc294d	-0.09968815
114	0x3d4628c6	0.04837873
115	0xbef55f02	-0.47924048
116	0x3caf8a24	0.021428175
117	0xbe1a45d0	-0.15065694
118	0xbe8b1c45	-0.27170005
119	0xbef85e3f	-0.48509404
120	0x3d9b25a5	0.075755395
121	0xbe599ee8	-0.21252024
122	0xbf663017	-0.8991713
123	0xbdbbdb32	-0.091726676
124	0xbe1a83b3	-0.15089302
125	0xbeb35061	-0.35022262
126	0xbf526e57	-0.82199615
127	0xbf073e5a	-0.52829516
128	0xbd181c0d	-0.037136126
129	0x3d21dba0	0.03951609
130	0x3d83f663	0.06443479
131	0x3bea824b	0.0071566454
132	0xbd090a6d	-0.03345721
133	0x3d2049ba	0.03913281
134	0xbc47babd	-0.012190518
135	0x3cadcadd	0.021214897
136	0xbd1c700f	-0.038192805
137	0xbda58b82	-0.0808325
138	0xbd8066f7	-0.06269639
139	0x3c7d9c87	0.015479214
140	0x3cf6c3ad	0.030122602
141	0xbc1a5d7b	-0.009421702
142	0x3c0b1924	0.008489881
143	0xbd1667a3	-0.03671993
144	0x3d040964	0.032235518
145	0xbc153a55	-0.009108146
146	0xbd83489a	-0.06410332
147	0x3d046442	0.032322176
148	0x3ca69d7c	0.020338766
149	0x3c8fc38e	0.017549302
150	0x3d1a6241	0.03769136
151	0xbd891fd9	-0.066955276
152	0x3d8ce9ce	0.06880532
153	0xbcbe8204	-0.023255356
154	0x3d19e7f4	0.037574723
155	0xbc8ea371	-0.01741192
156	0xbcd47583	-0.02593494
157	0xbd91fc03	-0.071281455
158	0x3d16b86e	0.03679698
159	0x3c6ea688	0.014566071
160	0x3d41bb9d	0.047298063
161	0xbd9311bc	-0.07181117
162	0xbd668b99	-0.056285474
163	0x3cb4b186	0.022057306
164	0xbd9c6498	-0.07636374
165	0x3d690d45	0.05689742
166	0x3d136f1d	0.035994638
167	0xbd96140b	-0.07328042
168	0x3d63c546	0.055608056
169	0xbd192b1e	-0.037394635
170	0xbd1cfc35	-0.03832646
171	0xbbf5d0f7	-0.007501717
172	0xbd2611de	-0.040544383
173	0xbc827af7	-0.015927775
174	0xbc1b58c8	-0.009481616
175	0x3ae4ee55	0.0017466048
176	0xbc7252b8	-0.0147902295
177	0x3d4cfa4c	0.05004339
178	0xbda63f84	-0.081175834
179	0x3cb11a30	0.021618932
180	0xbd5c4c24	-0.05378355
181	0xbd4e5549	-0.050374303
182	0xbd79e705	-0.061011333
183	0x3a592ce8	0.00082845846
184	0x3c8b30bc	0.016991012
185	0x3d2adac7	0.04171255
186	0xbd1b9d57	-0.037991848
187	0xbc961ebc	-0.018325202
188	0x3d334f5f	0.043776866
189	0x3b985172	0.004648381
190	0xbb6458da	-0.0034842999
191	0xbd99cf2d	-0.07510219
192	0xbc8c4e15	-0.017127076
193	0xbd6c9121	-0.057755593
194	0xbdb06cfd	-0.08614538
195	0xbc46ab77	-0.012125841
196	0xbdb23119	-0.08700771
197	0x3d8658b6	0.06559889
198	0x3d919504	0.071085006
199	0xbcec37b7	-0.02883516
200	0xbd6196d0	-0.055075467
201	0xbcd862ae	-0.026414242
202	0x3bb650f4	0.0055638496
203	0x3d76dff5	0.060272176
204	0x3d81cc95	0.06337849
205	0xbd206a55	-0.039163906
206	0xbccb1c33	-0.02479372
207	0x3d097764	0.033561125
208	0x3d6a7ec5	0.057249803
209	0x3d8e24d6	0.0694062
210	0xbd8bb461	-0.06821514
211	0xbc83efa6	-0.016105484
212	0x3d857e28	0.06518203
213	0x3d5369b0	0.051614463
214	0x3d2657da	0.040611126
215	0xbda387a1	-0.079848535
216	0xbbfd806c	-0.0077362563
217	0xbd924e42	-0.07143833
218	0xbdae985e	-0.085251555
219	0xbd4574dc	-0.04820715
220	0x3d920b02	0.07131006
221	0x3d8b858b	0.06812581
222	0xbd6bc1f5	-0.05755802
223	0xbd8eed46	-0.0697885
224	0x3d7dc600	0.061956406
225	0x3d914a99	0.070943065
226	0x3b7459fc	0.003728508
227	0xbd820955	-0.06349436
228	0xbc489ff0	-0.012245163
229	0x39c69792	0.00037878432
230	0xbd8378b7	-0.06419509
231	0x3d90a77b	0.07063194
232	0xbc85d78b	-0.01633813
233	0xbd9a3332	-0.07529296
234	0x393217da	0.00016984288
235	0xbd4926f3	-0.04910941
236	0x3c026de6	0.007960772
237	0xbd87fb25	-0.06639699
238	0xbd085cab	-0.0332915
239	0x3cba04a7	0.022707297
240	0xbcf0d2f7	-0.02939747
241	0xbd108cc9	-0.035290513
242	0xbd11a705	-0.035559673
243	0xbd669337	-0.05629274
244	0xbd744ef7	-0.05964562
245	0xbcafa102	-0.02143908
246	0xbbf27c17	-0.0074000466
247	0xbcc7295d	-0.024311716
248	0x3d1cd37d	0.03828763
249	0x3d53d54e	0.051717095
250	0xbc222e4e	-0.009898735
251	0xbcd7aaf9	-0.026326643
252	0xbd0dbd4e	-0.034604363
253	0x3d3f56e5	0.04671373
254	0xbd1cdb0e	-0.038294844
255	0x3c520c1b	0.012820269

layer2.bias f4 [128]
0	0x3bd8271c	0.006596459
1	0xbc2e621d	-0.010643509
2	0x3d3b09d3	0.045663666
3	0x3e82a75d	0.25518313
4	0x3c72902b	0.01480488
5	0xbcefa43a	-0.029253114
6	0x3c30323d	0.010754165
7	0xbc913389	-0.01772477
8	0x3cf3cacf	0.029759793
9	0x3c0cfa22	0.008604558
10	0x3a24391b	0.0006264613
11	0x3ea1b56a	0.3158372
12	0x3e6bdb91	0.23032977
13	0xbda0a073	-0.07843103
14	0x3e175cef	0.14781545
15	0x3e8fb11b	0.28064808
16	0x3e430ce5	0.19047888
17	0x3ea324b9	0.31863955
18	0x3e233b95	0.15940697
19	0xbd97f382	-0.07419492
20	0x3eb4c229	0.35304382
21	0xbe3cefe2	-0.18450883
22	0x3e683b64	0.22678906
23	0x3d486e74	0.04893346
24	0x3d725d41	0.059170965
25	0x3dd24c71	0.10268486
26	0x3e6e5996	0.23276362
27	0x3e8c14a9	0.27359512
28	0xbe2fb6ea	-0.1715962
29	0x3e8b34c7	0.27188703
30	0xbd1dd48d	-0.038532782
31	0xbbc3f682	-0.0059803138
32	0x3d0bb743	0.03411032
33	0x3cd0e3aa	0.025499184
34	0xbcb4975f	-0.022044836
35	0x3e89282a	0.26788455
36	0xbce7ead8	-0.028310224
37	0xbcbf7048	-0.02336897
38	0x3e0a4850	0.13504148
39	0x3dc74d1e	0.09731506
40	0x3e83976e	0.2570147
41	0x3bf4ab28	0.0074666925
42	0x3e87ff0c	0.26561773
43	0xbd6018a3	-0.054710995
44	0xbdf621f8	-0.12018198
45	0x3d90b030	0.07064855
46	0xbd7709d5	-0.06031211
47	0x3e719062	0.23590234
48	0x3e97148d	0.29507867
49	0x3eadb701	0.33928683
50	0x3d67909c	0.056534395
51	0x3d8b97e2	0.06816079
52	0x3ecf86a9	0.40532425
53	0x3e8d798e	0.276318
54	0xbd57e924	-0.052712575
55	0x3e0d16ee	0.13778278
56	0xbdabd6b2	-0.08390559
57	0xbd50558a	-0.050862826
58	0x3cc18b1e	0.023625907
59	0x3de5398c	0.11192617
60	0xbc8a56c0	-0.016887069
61	0x3db049ec	0.086078495
62	0xbcb44a68	-0.022008136
63	0xbd8d381b	-0.06895467
64	0x3da9966d	0.082806446
65	0x3e987aee	0.29781288
66	0xbd927d57	-0.07152813
67	0x3d68ab9e	0.056804292
68	0xba36623f	-0.0006957389
69	0xbda1f4aa	-0.07907994
70	0x3e2e6a52	0.17032745
71	0x3e19ab45	0.1500674
72	0xbc47beec	-0.012191515
73	0x3de68e33	0.11257591
74	0x3e7fbef2	0.24975184
75	0x3d21ff04	0.039549842
76	0xba23fb69	-0.00062554196
77	0x3e10675a	0.14101925
78	0x3e1be46e	0.15223858
79	0xbe30ec32	-0.17277601
80	0x3e6fcd5d	0.23418184
81	0x3ddef60d	0.10886774
82	0x3ea76535	0.32694402
83	0x3d520478	0.051273793
84	0x3df45216	0.11929719
85	0xbbe59880	-0.007006705
86	0x3c8ad2b3	0.016946172
87	0xbdf6fbed	-0.1205977
88	0x3e6fe8d5	0.23428662
89	0xbdc66af3	-0.09688368
90	0x3d363370	0.04448265
91	0xbe1d4ffd	-0.15362544
92	0xbc3eda52	-0.011648731
93	0x3d87d01b	0.0663149
94	0x3e745675	0.23861106
95	0x3eb2a9c8	0.34895158
96	0x3eb3e606	0.3513643
97	0x3e8193de	0.25308126
98	0x3d7371cb	0.059434693
99	0xbd0a9b5e	-0.033839576
100	0xbda2d3b2	-0.07950534
101	0x3e7c588d	0.24643154
102	0xbd1f9935	-0.03896447
103	0xbe6c561e	-0.23079726
104	0xbaf141d5	-0.001840646
105	0xbd89e9d2	-0.06734051
106	0x3d66cc30	0.056347072
107	0xbe2191b2	-0.15778235
108	0x3e9ce65c	0.306445
109	0x3bd36c6a	0.006452133
110	0xbd20a4fc	-0.03921984
111	0xbc1601a6	-0.009155666
112	0x3e8d9d27	0.2765896
113	0x3e269a33	0.1626976
114	0x3c1d288f	0.009592189
115	0x3c843777	0.016139729
116	0x3e921c4f	0.28537223
117	0xbc743c31	-0.014906929
118	0xbd851fc7	-0.06500202
119	0x396a59df	0.00022349459
120	0x3cd2c0b1	0.025726648
121	0x3d1f2860	0.038856864
122	0x3bb23bf1	0.0054392745
123	0x3d7e311f	0.062058564
124	0x3e93641e	0.2878732
125	0xbd9545aa	-0.07288678
126	0x3e1371d3	0.14398889
127	0x3dfc169a	0.123089984

layer3.weight f4 [2, 128]
0	0x3e9f9331	0.31166986
1	0xbd32c9d8	-0.043649524
2	0xbe8e7dea	-0.2783044
3	0x3ed9fe87	0.42577
4	0x3e940d6f	0.289165
5	0x3d990724	0.07472065
6	0xbe1c7ddb	-0.15282385
7	0x38c28b48	9.276584e-05
8	0xbe957e1f	-0.29197785
9	0x3ec12911	0.37726644
10	0xbe800d97	-0.25010368
11	0x3e8f4473	0.2798191
12	0x3e8cf513	0.27530727
13	0xbca88758	-0.02057235
14	0x3e8b3f4f	0.27196738
15	0x3ecc0fe8	0.39855886
16	0x3e9e9458	0.30972552
17	0x3e753b05	0.23948295
18	0x3ee523dc	0.4475392
19	0xbe95ba9a	-0.29243928
20	0x3ea11b1b	0.31465992
21	0xbf1afb87	-0.6054005
22	0x3e71c41e	0.23609969
23	0x3e6f8a23	0.23392539
24	0xbe5fd1be	-0.21857354
25	0x3ebfea7d	0.37483588
26	0x3eab1afd	0.33419028
27	0x3e9813ca	0.29702598
28	0xbeac9e36	-0.33714455
29	0x3ebd1352	0.36928803
30	0xbea430d3	-0.320685
31	0xbebb2755	-0.36553445
32	0x3e87faa6	0.26558417
33	0x3d0f9011	0.0350495
34	0x3ea6f2d5	0.3260714
35	0x3e785c21	0.24253894
36	0xbb250972	-0.0025182632
37	0x3e9c8e46	0.30577296
38	0x3ec0cdfe	0.3765716
39	0x3ec272b9	0.3797815
40	0x3ec3bcce	0.38229984
41	0xbd7a342b	-0.061084908
42	0x3eb92000	0.36157227
43	0xbe8d1e13	-0.27562007
44	0xbe9cf568	-0.3065598
45	0x3e45e58a	0.19325843
46	0x3d38ff28	0.04516521
47	0x3eba1d5e	0.3635053
48	0x3eaf3874	0.34222758
49	0x3eed443c	0.4634112
50	0x3ec62be8	0.38705373
51	0x3ebb8ee0	0.36632442
52	0x3ede0958	0.43366504
53	0x3e89edfb	0.26939377
54	0x3eab3e0c	0.33445776
55	0x3eaf689f	0.34259507
56	0x3e4dbb7b	0.2009105
57	0xbe79d92c	-0.24399251
58	0xbdb09330	-0.08621824
59	0x3eb7f416	0.3592841
60	0x3ebc39bc	0.36762798
61	0x3e85be4d	0.2612175
62	0xbe29f3c8	-0.16596901
63	0xbd59621d	-0.053072084
64	0x3e84cd0a	0.25937682
65	0x3ee441ab	0.4458135
66	0x3e94ddcd	0.2907547
67	0x3ec1b1a5	0.37830845
68	0x3dbadd11	0.09124196
69	0x3ce258b8	0.027630195
70	0x3ebc12b6	0.36733025
71	0x3d7756ac	0.06038539
72	0xbe67c698	-0.22634351
73	0x3ee095fb	0.43864426
74	0x3eaaf075	0.3338658
75	0x3eb3ad66	0.3509323
76	0xbddcc6e1	-0.10780121
77	0x3e4bb3e1	0.19892837
78	0x3eb2d31b	0.34926686
79	0xbea14a4e	-0.31502002
80	0x3ea98d41	0.3311558
81	0x3e6bc693	0.23024969
82	0x3edca038	0.43090987
83	0x3d8b7abc	0.06810519
84	0x3eb33530	0.35001516
85	0x3ece4c0b	0.4029239
86	0x3ea25f22	0.31713206
87	0xbed8837f	-0.42287824
88	0x3edc50d0	0.43030405
89	0xbe825a64	-0.25459588
90	0xbe5c4f8c	-0.2151472
91	0xbf34ebfb	-0.7067258
92	0xbe64187f	-0.2227497
93	0xbd64f065	-0.05589332
94	0x3ed20e9e	0.41026777
95	0x3eb5b257	0.35487625
96	0x3e87eb5f	0.2654676
97	0x3e9743ef	0.29544017
98	0x3ed165b4	0.40897906
99	0x3c809682	0.015696768
100	0x3d8bf6bd	0.06834171
101	0x3eb6440a	0.35598785
102	0x3ec4fba2	0.3847323
103	0xbe4c2eea	-0.19939771
104	0x3e3b070a	0.18264404
105	0xbc868fd5	-0.016426006
106	0x3e937208	0.28797936
107	0xbea35a37	-0.31904766
108	0x3ee1c979	0.44099024
109	0xbd5fc3fe	-0.054630272
110	0xbc488698	-0.012239121
111	0xbe3361b9	-0.17517747
112	0x3eebfdcb	0.46092066
113	0x3e2fafc8	0.17156899
114	0xbe9ca744	-0.30596364
115	0x3ede0779	0.43365076
116	0x3ed56a0d	0.41682473
117	0xbc3b01d9	-0.011414015
118	0x3c2bfc8a	0.010497222
119	0xbd602395	-0.054721434
120	0xbe32c6f4	-0.17458707
121	0x3e5cb409	0.21553053
122	0xbe91d47c	-0.28482425
123	0xbc9c55ad	-0.019083822
124	0x3ea174fb	0.31534562
125	0x3edc6458	0.43045306
126	0x3cd00027	0.025390698
127	0x3eb1928c	0.3468212
128	0x3eb58684	0.3545419
129	0x3b041731	0.0020155425
130	0xbe99d6d1	-0.30046704
131	0x3eefee3a	0.4686144
132	0xbda3ad99	-0.079920955
133	0x3d9d9817	0.076950245
134	0xbe2d1bf4	-0.16905195
135	0xbd22aa84	-0.039713398
136	0xbf06893e	-0.52553165
137	0x3e960fcd	0.2930893
138	0xbdf44cdf	-0.119287245
139	0x3e9db8de	0.30805105
140	0x3ea35eba	0.31908208
141	0xbc283793	-0.010267156
142	0x3ea455f2	0.3209682
143	0x3ebc7834	0.36810458
144	0x3ec77624	0.38957322
145	0x3ea6b17f	0.32557294
146	0x3eacabd0	0.33724833
147	0xbe9497ca	-0.29022056
148	0x3ee140ed	0.43994847
149	0xbe49ce43	-0.19707589
150	0x3ec3f209	0.38270596
151	0x3eac85f7	0.33695957
152	0xbce350f9	-0.027748572
153	0x3e492cc0	0.19645977
154	0x3ec429e9	0.38313225
155	0x3e8ba3e3	0.27273473
156	0xbf3b9ecd	-0.73289186
157	0x3eb7e8c4	0.35919774
158	0xbd4001ab	-0.04687659
159	0xbe332869	-0.17495884
160	0x3e9df87f	0.3085365
161	0xbe188b9c	-0.14897007
162	0x3eba20ba	0.36353093
163	0x3eb1ce44	0.3472768
164	0x3d1b6234	0.03793545
165	0xbe8b2ad8	-0.27181125
166	0x3ea39fdc	0.319579
167	0x3ea465e1	0.32108977
168	0x3e8b2226	0.2717449
169	0x3d1018ee	0.035180025
170	0x3e52f554	0.20601398
171	0xbe4a99e0	-0.19785261
172	0xbe8f1c77	-0.27951404
173	0xbcd2905e	-0.025703605
174	0xbca3ace6	-0.019979905
175	0x3ea876a1	0.32903007
176	0x3ed2541e	0.410798
177	0x3e9e6562	0.30936724
178	0x3e946e32	0.28990322
179	0x3eba97ac	0.3644384
180	0x3eb3285e	0.34991735
181	0x3eabfaa0	0.3358965
182	0x3ed330e6	0.41248244
183	0x3e8e95f3	0.27848777
184	0xbe7e73b8	-0.2484883
185	0xbddb6dca	-0.107143
186	0xbe92cf89	-0.28673962
187	0x3e82fc3a	0.2558306
188	0x3eab307e	0.33435434
189	0x3e98b292	0.29823738
190	0x3dc3d22d	0.09561572
191	0xbcb319c8	-0.02186288
192	0x3eacdd22	0.3376246
193	0x3e9abf65	0.30224147
194	0x3ed6eb4a	0.41976386
195	0x3ec2e905	0.38068405
196	0x3eef9d0d	0.46799508
197	0xbcb95e50	-0.02262798
198	0x3e8c013a	0.27344686
199	0x3e54c55d	0.20778413
200	0xbe88bbcb	-0.26705775
201	0x3ee26bfc	0.4422301
202	0x3ea7cffb	0.32775864
203	0x3eccec90	0.40024233
204	0x3e486c16	0.19572482
205	0x3e859c0c	0.26095617
206	0x3edfecc9	0.4373534
207	0xbf111dcd	-0.566861
208	0x3ed7393d	0.42035857
209	0xbe465438	-0.19368064
210	0x3e8e41dd	0.27784625
211	0x3d42acec	0.047528192
212	0x3ebb9fee	0.36645454
213	0x3ea94305	0.33058944
214	0x3e9b9d3b	0.30393395
215	0xbe95622e	-0.29176468
216	0x3ed04f66	0.40685576
217	0xbe110f7c	-0.14166063
218	0x3d219719	0.03945074
219	0xbebf29b1	-0.37336496
220	0xbeefbb95	-0.468228
221	0x3d9cc975	0.076556124
222	0x3eae2a00	0.34016418
223	0x3eb7f2e3	0.35927495
224	0x3ea3560a	0.3190158
225	0x3ebfb5b1	0.37443307
226	0x3ee4bb2c	0.4467405
227	0x3f27bbd4	0.6552098
228	0xbda37bfa	-0.07982631
229	0x3ebc3320	0.36757755
230	0x3ed3b059	0.4134548
231	0xbf03368a	-0.51255095
232	0xbea842e5	-0.32863536
233	0xbd9388bc	-0.072038144
234	0x3e90eac8	0.28304124
235	0xbeb23d38	-0.3481233
236	0x3ea5e889	0.32403973
237	0xbd20d656	-0.039266907
238	0xbf01ebe4	-0.50750566
239	0xbdd46352	-0.10370506
240	0x3ea119c5	0.31464973
241	0x3e9016be	0.2814235
242	0x3d58339a	0.052783586
243	0x3ec12d0e	0.37729686
244	0x3ea6efd0	0.32604837
245	0xbd2a9f9c	-0.04165612
246	0xbc0cf977	-0.008604399
247	0x3c030b9a	0.0079983715
248	0x3e65355b	0.22383635
249	0x3d6ea1a9	0.05825964
250	0xbdd0aa41	-0.10188723
251	0xbd6ce42a	-0.05783478
252	0x3e9bcd84	0.30430233
253	0x3ecbd8ca	0.39813834
254	0x3e987651	0.29777768
255	0x3e7bf960	0.24606848

layer3.bias f4 [2]
0	0x3e10f3d6	0.14155516
1	0x3de7e3ce	0.11322747
