cartpole_weights/episode_durations_500.pt (torch, 72007 bytes, 6 tensors)

layer1.weight f4 [128, 4]
00000000: 16ad 0cbf fdb4 fabe 62a2 0f3d 4ad5 94be
00000010: 07fe a93d 82bc a53c 3d0d 37bf df41 033e
00000020: 3c93 27bf 4493 a9be 6656 d1be 59e4 81be
00000030: b89c ecbd 02ab c3be 58b3 f8be 69f8 88bd
00000040: dace 88be 1024 fb3d 43fb a4be 69e1 06bf
00000050: a647 0fbf ab36 00bd 5495 003f 20b3 29be
00000060: f4d1 e23d 5fba 49bd ca2e a9be c577 b33e
00000070: cd82 bfbe f3e0 d73e d486 093f 5541 3dbe
00000080: 31fa 4b3e 018c 303e 3367 053f c2aa 813d
00000090: bc61 bd3e 350e bc3e 308f 1f3e cf7c e2bc
000000a0: 1a6d a83c e63b c13e 1423 05bf 866c 0d3e
000000b0: dcbd 12bf 8179 32bf 909b 86be 8104 f9be
000000c0: aa14 ab3e cc75 e0bc 42a0 fa3c 0a66 5fbb
000000d0: 1b25 6e3e be4a fd3e 9937 c8be 1813 dd3a
000000e0: d1a0 3ebe fd09 5ebe d47f 5f3e 8641 a5bd
000000f0: 3e5b 54be 6462 0abf 67ee 6cbe 7e20 fbbd
00000100: 6028 e5be 4ffa 95be f064 813e f0e1 00be
00000110: c901 133f 2b25 95be be81 67be 3988 6d3e
00000120: 4434 df3e 76d8 be3e ad41 c9bd b444 5b3c
00000130: 06f5 65be 8e88 aabe 5342 553f e721 863b
00000140: dc32 a43e 3b9e b6be e81a 13be 9ed5 16bd
00000150: 22ca 4ebe 7b52 3f3e 0b71 3abd 9575 ee3c
00000160: 7744 1a3f 1e82 043f 912b a73f 6346 bc3e
00000170: 946c cebe 655c df3d be3c 3dbf 0acb 84be
00000180: 217d 99be 881b 2cbe 3ed0 1d3e 6261 373e
00000190: 7905 43be 8c93 bcbe 957a 073f 420d 0b3e
000001a0: c731 4ebf 0fb5 cb3e 5935 f3bd 8503 9b3e
000001b0: 71aa 3fbe bf50 bcbe e448 2fbe be6b 9abc
000001c0: eed3 5e3e 7fbf 3c3e 50c5 3b3f 7ab3 b53e
000001d0: fa00 23bf 5d2c 32bf 48be 2cbf e75e f4be
000001e0: 3aad f7be 0134 ea3d 0980 3e3f b4e0 bd3e
000001f0: 45a0 02bf 3e3e c5be 421f a03e 0408 bb3e
00000200: de16 c3be db1d fd3e 34ef c2bd 1eb7 15bd
00000210: 52ad 16bf 24f2 673e 4207 76bd 0249 653e
00000220: c2ec 193f 44a6 543e 86fd cabe 5d0c fbbd
00000230: e618 bcbe 5863 d2bb 0219 383f d5ba e83e
00000240: ac2f 0bbf 60e1 b3be 5a55 88be 73cd a2bd
00000250: dcea 0dbb 7d01 093f b38c 0a3e 9fcf 223d
00000260: 603a a3be b0e5 d2be 9a08 0ebf 2057 a03d
00000270: 5851 853e c94a dcbe a386 123f 1b5e c73e
00000280: 3efb 043e e1a7 133e b33c 0a3f fb50 cd3e
00000290: b375 423e d80c fc3d c98b 233e 914f 963e
000002a0: 7aa8 5bbd 25ec 4abe 7db7 a0be 4fd0 23be
000002b0: aa6b 9dbd 824e eabd 9498 ebbc 5416 b83d
000002c0: 54dc 15bd 7609 be3e e100 953e e71b 09bd
000002d0: 6f18 29bf d0e8 4cbe 46cd e13e 0f90 9cbd
000002e0: a6a9 00bf 11f6 803d 2e41 523e 6d2d 73be
000002f0: 2333 2c3c 8bcb f2be 1afe a7bf de9d bebe
00000300: 9663 d1bd cfee 98be 72eb eebe 403c 7e3e
00000310: 9a12 ddbc ee72 023e dc8c 8abd 2a6a 673e
00000320: 2ac0 953d 047b f13e 74c0 3c3f 21c2 bd3e
00000330: b34b adbe a397 e5be 6f4d 123e ec2f af3e
00000340: 6135 74be c621 06bd 7389 fbbc fc8e a43e
00000350: c30d be3d 06c0 42bf a66b a4bf 84c9 10bf
00000360: 6aef 4ebe 80d1 963d 134e 93be ac8e 2b3e
00000370: 51f7 b23e 7786 e6be c1aa 1fbe 681a 25be
00000380: 6ce9 e03e 448b 353e ed09 b13e 9c47 6f3e
00000390: cd59 91be 81bb 983e 62e3 243f 3dcf 9e3e
000003a0: 699a 2c3e 80d4 da3e ac26 fd3e 2179 89be
000003b0: 4fd5 903e 4b90 a2be 65df cdbe 7991 b4be
000003c0: 8f23 5b3e 51e6 62be f725 5abe 3bed cebe
000003d0: 2530 04bf e82a 08bf 364a f7bc f24b 13be
000003e0: 635b dc3e 65f8 3dbe 9bb1 c93d 7593 0ebe
000003f0: 1181 063f 653d e93e 09aa e7bd edc1 2dbd
-0.5495161 -0.48966208 0.03506697 -0.29068977 0.08300405 0.02023149 -0.71504575 0.12818097
-0.65459037 -0.33120167 -0.4088623 -0.25369528 -0.11553329 -0.38216406 -0.48574328 -0.066880055
-0.26720315 0.12262738 -0.32222947 -0.526877 -0.559687 -0.031302135 0.50227857 -0.16572237
0.11075202 -0.049250003 -0.3304351 0.35052314 -0.3740448 0.4216381 0.53721356 -0.18481953
0.19919659 0.17240907 0.52110595 0.063313976 0.36988628 0.3672959 0.15581965 -0.027647404
0.020559836 0.3774101 -0.5200665 0.1381093 -0.5732095 -0.6971665 -0.2629056 -0.4863625
0.33414203 -0.02739992 0.030593995 -0.003408792 0.23256342 0.49471086 -0.39104918 0.0016866652
-0.18616034 -0.21683498 0.21826106 -0.08069138 -0.20737931 -0.5405638 -0.23137818 -0.12262057
-0.44757366 -0.29292533 0.25272322 -0.12586188 0.574246 -0.2912992 -0.22608086 0.23196496
0.43594563 0.37274522 -0.0982698 0.013383079 -0.2245675 -0.33307308 0.8330433 0.004093397
0.32070053 -0.35667595 -0.14365733 -0.036824815 -0.20194295 0.18683808 -0.045517962 0.029108802
0.6026072 0.51761043 1.306017 0.3677245 -0.40317214 0.10906295 -0.7392081 -0.25936157
-0.29978278 -0.16807377 0.1541147 0.17908242 -0.19045056 -0.3683132 0.5292142 0.13579276
-0.80544704 0.39786574 -0.1187541 0.30276123 -0.18717362 -0.36780354 -0.1711765 -0.018850204
0.21760532 0.18432425 0.7334795 0.35488492 -0.63673365 -0.69598943 -0.67477846 -0.47728655
-0.4837435 0.114357 0.74414116 0.37085497 -0.510258 -0.3852405 0.31273848 0.36529553
-0.38103384 0.4943684 -0.095182806 -0.036551587 -0.58858216 0.22650963 -0.060065515 0.22391132
0.6012689 0.2076655 -0.39646548 -0.122582175 -0.36737746 -0.006420534 0.7191316 0.45455042
-0.54369617 -0.35132885 -0.26627618 -0.079493426 -0.002165488 0.53517896 0.13530235 0.039748784
-0.31880474 -0.41190863 -0.55481875 0.07829118 0.26038623 -0.43025807 0.5723669 0.38938984
0.12986466 0.1441951 0.5399887 0.40100846 0.18990211 0.12307137 0.15971293 0.2935758
-0.05362747 -0.19816644 -0.3138999 -0.15997432 -0.07686551 -0.114407554 -0.028759278 0.08988634
-0.036587074 0.37116593 0.29102233 -0.033473875 -0.6605291 -0.20010686 0.44101924 -0.076446645
-0.5025886 0.062969334 0.20532677 -0.23747797 0.010510239 -0.47420916 -1.3124421 -0.37229818
-0.10224073 -0.29869696 -0.46664006 0.24827671 -0.026986409 0.12739155 -0.06765148 0.22599092
0.07312043 0.47164166 0.7373116 0.3706217 -0.33846816 -0.44842252 0.14287351 0.3421625
-0.23848487 -0.032747053 -0.03070519 0.32140338 0.092799686 -0.76074255 -1.2845352 -0.5655749
-0.20208517 0.07364178 -0.28770503 0.16753644 0.34954312 -0.45024464 -0.15592481 -0.16123354
0.43928087 0.17728907 0.34577885 0.2336716 -0.28388825 0.29830554 0.6440946 0.31017485
0.16855778 0.4274025 0.49443567 -0.26850227 0.28287742 -0.31750712 -0.402095 -0.35267237
0.21400283 -0.22158171 -0.21303545 -0.40415367 -0.5163596 -0.5319047 -0.030186754 -0.1438444
0.43038473 -0.18551786 0.09848329 -0.13923438 0.5254069 0.45554653 -0.113117285 -0.04242127

layer1.bias f4 [128]
00000000: d466 b0bc ef34 6e3e 8d11 103f 1fcb 923e
00000010: 76b1 6abe 1add c93e eb27 0f3f 27ad 103f
00000020: b9ac 883e ddef fbbd d5d9 18be 9540 3fbd
00000030: ba97 943e 1509 d53d 6955 063f 66d8 e8bd
00000040: 64f9 803e 8640 6e3e 1a96 9b3e d19d 00bf
00000050: 984f bd3e 1da1 bbbe 8796 293b 7e47 5abe
00000060: 6870 c0be 866f bbbe ec1b 45be 1891 1c3f
00000070: 479a e1be 2846 4fbc 42fc d0be 4ad8 e4be
00000080: 8735 2c3f 9026 c13e 9481 dfbe dff6 0ebf
00000090: 515f 053f c428 c53e 69f4 f23e fbea bfbe
000000a0: 93c1 debe c37a 323f 1f33 323f a12e 203f
000000b0: f5ec ff3e 53e8 963e e74b ef3e 1df1 f9bd
000000c0: f915 f73e d304 c33e ce72 e23c c347 c43e
000000d0: 4ede f0be 0160 6abd 9ece 243f 29df 0c3f
000000e0: 0fd4 2a3f 4502 1a3f 7f3d 253f 0844 353f
000000f0: f31f 073f b4ad 053d f8ba a5be de6d 8ebe
00000100: cc88 bb3e 89bb 943e 6ec9 043f 4946 95be
00000110: 0b5e cf3e 91f0 2d3f 3bdc f83e 65c8 143f
00000120: 5b37 4e3e 9b99 193f b4e9 72bd 7e3d 9f3e
00000130: 81d6 053f e35f 1b3e 6fca bfbe 7595 5fbe
00000140: af68 42be 1d1d 9d3e 8016 f0be 313d 5a3b
00000150: 32ad b1bd 87c0 b7be 3773 053f 8c09 873e
00000160: 25e4 de3e fa3a d83b aab1 be3e d42b fabe
00000170: a23b 03bf 3385 2f3f 7151 e83d 1774 263f
00000180: 2271 223f f4b1 703e 578d 30be 3cc0 593e
00000190: afff 0abf 7d60 c5bd 17f9 513c dea4 ad3e
000001a0: 3952 9c3e 3895 c93c 62f3 053f 09b2 ebbe
000001b0: 4824 26be 7f0e 8a3e 0810 69be c024 d93e
000001c0: 57ff 2e3e 0881 b83e e8b4 c83e b21f afbe
000001d0: 6056 e93e adf4 9b3a 530a bdbe bde0 fbbe
000001e0: 7257 133f 39a5 243e 9784 44be 1910 b9be
000001f0: 22b7 653e ebaa ab3b 1757 11be eb73 a23c
-0.021533407 0.2326238 0.5627678 0.28670594 -0.22919258 0.394265 0.55920285 0.5651421
0.26694277 -0.1230161 -0.14926846 -0.04669245 0.29022008 0.10402123 0.52474076 -0.113694
0.2519027 0.23266801 0.30387956 -0.5024081 0.36974788 -0.36646357 0.0025877075 -0.21316335
-0.3758576 -0.36608523 -0.19248933 0.61158895 -0.44063017 -0.012651004 -0.40817457 -0.44696265
0.67269176 0.37724733 -0.43653548 -0.55845445 0.52098566 0.38507664 0.47452095 -0.37483963
-0.4350706 0.6971857 0.69609255 0.6257115 0.4998547 0.29474124 0.46737596 -0.12204192
0.4825895 0.38089618 0.027642634 0.38336 -0.47044605 -0.057220463 0.6437777 0.55028015
0.66729826 0.60159713 0.6454696 0.7080693 0.52783126 0.03263636 -0.32369208 -0.27818197
0.36627805 0.29049328 0.5186986 -0.29155186 0.40501437 0.679452 0.48605523 0.5811828
0.20138304 0.6000001 -0.059304908 0.31101602 0.5228043 0.15173297 -0.37459132 -0.21834357
-0.18985246 0.30686274 -0.46892166 0.0033300633 -0.086756125 -0.35889074 0.5212893 0.2637447
0.43533435 0.0065988274 0.37244922 -0.48861563 -0.5126287 0.6856262 0.11343659 0.6502089
0.63453877 0.23505384 -0.17241417 0.21264738 -0.5429639 -0.09637544 0.012815735 0.33914846
0.3053148 0.024607286 0.523245 -0.46034268 -0.16224778 0.26964185 -0.22760022 0.4241085
0.17089592 0.36035943 0.3920052 -0.3420387 0.4557371 0.0011898481 -0.3692194 -0.491949
0.57555306 0.16078652 -0.19191204 -0.36145094 0.22433141 0.005238881 -0.14193378 0.019830665

layer2.weight f4 [128, 128]
00000000: c0bd 18bf 7799 4b3d 1fcc b53a 185f 6bbc
00000010: 8f9e d93c ec56 3f3d f282 2e3d 2d49 cebd
00000020: 0997 853d ecd9 43be bbc1 61be 2971 b4be
00000030: 7c5c 073e db34 94bc 42b5 923d ca9d 08be
00000040: 17c0 00bd d5fe 753d 98fc 70bd 51b2 5dbe
00000050: 58c8 fb3d 5703 9b3c 4473 79be 2689 bfbe
00000060: fda4 c5bd a8bc cfbd 41fc d8be a095 ea3d
00000070: e40d dbbe f7ba e0be 783b 7dbd b878 c0bd
00000080: 89a7 6cbc ba70 b13d 795b 70be 0679 15bd
00000090: 87de 7b3c a68e 003c 9658 8d3d 272a 9c3c
000000a0: b2cb c4be 50bc 393d 84fb bc3d f951 8c3d
000000b0: 6e0a 21ba 892e e33d f1c9 1fbd c85f 1abf
000000c0: c3a6 2bbd 077d 2ebd 2373 a8be 628a 19bd
000000d0: 0b3d 3cbe e2f2 4abf 716f 4b3d a87f 193e
000000e0: 08cc 7dbc 5e01 19bd 2680 313c 0c01 043e
000000f0: 4ffb 89bc 2f31 ecbd 5a73 94bd a511 f9bd
00000100: a966 8d3d d8a7 57bd 90b5 b3bd 517f 37be
00000110: 9575 d43c ecb1 2bbd 9299 04be 761f 1cbc
00000120: 8aed 7f3d cb30 9abd b225 ddbe 2436 cebd
00000130: b950 0fba 3def 9e3e bdd4 e9be 7aee 9dbd
00000140: 8497 f43d 09de 1e3d 40f1 b3be d4dc 8fbe
00000150: bd91 e0bd 1df3 aabe 0828 1dbd ffa2 673d
00000160: 426a 90bb aa25 a8be 83f8 9dbd 91d5 04be
00000170: f157 3fbe b592 23bd d679 d8bd 7bf1 aa3c
00000180: 3ec5 b03d 0501 1f3e 5aa0 4cbe 3021 1bbd
00000190: 92a8 25be c174 e8be 3322 8abe 3244 2fbd
000001a0: 21d1 2b3d c95a a6be 7f7b a1bc 8b28 31bc
000001b0: 52c5 cabd 5ccf 7d3c efd8 983c cc59 26bd
000001c0: 59a2 0fbc c40d cebd 084a 3b3d 426a f4be
000001d0: 9111 b33c 1275 14be 9992 8abe 7f69 f7be
000001e0: 3763 993d 94bf 5abe a34a 65bf 1862 babd
000001f0: fe8b 18be 5d0d b4be 2f98 51bf 3484 06bf
00000200: 1583 17bd 5c33 213d b76c 833d 8b8d e93b
00000210: c180 08bd 76a1 1f3d e1f3 46bc 7515 ad3c
00000220: 17d7 1bbd 3ee3 a4bd 72be 7fbd 7b98 7c3c
00000230: edce f53c 83c4 19bc 788f 0a3c abce 15bd
00000240: b87f 033d 5da1 14bc eebe 82bd 96da 033d
00000250: 38f5 a53c 962a 8f3c 49c9 193d 2d96 88bd
00000260: 2260 8c3d 28bb bdbc fc4e 193d c519 8ebc
00000270: 5b9f d3bc 0b63 91bd 761f 163d c8b1 6d3c
00000280: c1f4 403d c478 92bd 25a6 65bd f6f9 b33c
00000290: a0cb 9bbd d127 683d 25d6 123d 137b 95bd
000002a0: d2df 623d 2692 18bd 3d63 1cbd 37dc f4bb
000002b0: 9a69 25bd 4bf1 81bc d0bf 1abc e108 e43a
000002c0: f85d 71bc 2424 4c3d 4097 a5bd a062 b03c
000002d0: b066 5bbd 217f 4dbd f9e2 78bd c056 583a
000002e0: 10a7 8a3c 8332 2a3d 5f04 1bbd c485 95bc
000002f0: cf97 323d 7ab8 973b 6673 63bb 3536 99bd
00000300: 69c4 8bbc 619c 6bbd 6db5 afbd 9be4 45bc
00000310: 8979 b1bd 0acf 853d 0cfc 903d f742 ebbc
00000320: 5cb1 60bd 868c d7bc 6499 b53b 35eb 753d
00000330: e942 813d 11c2 1fbd 5755 cabc b8ed 083d
00000340: 058a 693d 2a9b 8d3d b52a 8bbd fa65 83bc
00000350: 7cf4 843d 8893 523d 96af 253d 5ddf a2bd
00000360: 607c fcbb 4ab5 91bd cee0 adbd 00ae 44bd
00000370: 0a72 913d dffb 8a3d 35cd 6abd 9a63 8ebd
00000380: f4c1 7c3d a1b1 903d 3c65 733b a97f 81bd
00000390: 14d9 47bc b6d0 c539 0bef 82bd 830e 903d
000003a0: df4d 85bc 3a9a 99bd 4a60 3139 1760 48bd
000003b0: 3ae4 013c 7971 87bd ffd2 07bd 174d b93c
000003c0: 37de efbc d1f3 0fbd 0d0e 11bd c3ad 65bd
000003d0: 375a 73bd 72e9 aebc 5787 f1bb 8162 c6bc
000003e0: 853a 1c3d 26ff 523d 0a86 21bc d1d4 d6bc
000003f0: a233 0dbd 0990 3e3d 1642 1cbd f335 513c
-0.59664536 0.049706902 0.0013870037 -0.014365934 0.026564864 0.046713755 0.042605348 -0.10072551
0.06522948 -0.191261 -0.22046559 -0.35242584 0.13218874 -0.01809161 0.071634784 -0.13341442
-0.03143319 0.06005748 -0.058834642 -0.21650054 0.12294072 0.018922491 -0.24360377 -0.37409323
-0.0965061 -0.10143405 -0.42379954 0.1145432 -0.42784035 -0.43892643 -0.061824292 -0.09398025
-0.01444424 0.08664079 -0.23472394 -0.03649237 0.015372879 0.00784651 0.06901662 0.019063069
-0.38436657 0.045345604 0.0922766 0.068515725 -0.0006143217 0.1109286 -0.039010946 -0.603024
-0.041907083 -0.042599704 -0.32900342 -0.037485488 -0.18382661 -0.7927686 0.049666826 0.14990103
-0.015490539 -0.03735482 0.010833776 0.12891024 -0.016843466 -0.115328185 -0.07248564 -0.121615686
0.069043465 -0.052650303 -0.08774865 -0.17919661 0.025934974 -0.041917726 -0.12949207 -0.009528985
0.062482394 -0.07528838 -0.43192822 -0.1006892 -0.00054670457 0.310419 -0.4567012 -0.077115014
0.11942962 0.038785968 -0.35144997 -0.28098166 -0.10965297 -0.33388606 -0.038368255 0.05655193
-0.004407198 -0.32841235 -0.077134155 -0.12972094 -0.1868589 -0.039934833 -0.10570113 0.0208671
0.08631371 0.15527733 -0.19983044 -0.037873447 -0.16177586 -0.45401576 -0.26979217 -0.042789645
0.041947488 -0.3249114 -0.019712208 -0.010812889 -0.09900917 0.015491333 0.01865813 -0.04061298
-0.008766734 -0.10061219 0.0457249 -0.47737318 0.021858962 -0.14497784 -0.2706497 -0.48322675
0.07489627 -0.21362144 -0.8956701 -0.09100741 -0.14897153 -0.35166445 -0.8187284 -0.52545476
-0.036990244 0.03935562 0.0641722 0.007127469 -0.033325914 0.03897234 -0.012143106 0.021128396
-0.038046923 -0.080511555 -0.062437482 0.015417214 0.030005896 -0.009385231 0.008457057 -0.036574047
0.032104224 -0.009071675 -0.06384073 0.03219088 0.020258531 0.017476361 0.037545476 -0.06669269
0.068542734 -0.023160532 0.03742884 -0.017346272 -0.025832823 -0.07098969 0.036651097 0.014507718
0.047108416 -0.071519405 -0.05606665 0.021969777 -0.07607198 0.056678597 0.035848755 -0.07298865
0.055389233 -0.037248753 -0.03818058 -0.0074725407 -0.040383913 -0.015862128 -0.009445146 0.0017397666
-0.014731877 0.049839154 -0.08085489 0.021531403 -0.053564727 -0.050170068 -0.060763333 0.0008252673
0.016925365 0.041552078 -0.037845965 -0.018252261 0.043601807 0.0046301456 -0.0034706234 -0.07481042
-0.01706143 -0.05752218 -0.08579526 -0.01207843 -0.08665759 0.0653363 0.07079324 -0.028718455
-0.054856643 -0.026312124 0.005541967 0.060038764 0.0631159 -0.039003436 -0.024698896 0.03342983
0.05701639 0.06914361 -0.06795255 -0.016039837 0.06491944 0.051410228 0.040450655 -0.079527594
-0.0077052563 -0.07114656 -0.08490144 -0.0480175 0.07101829 0.06786322 -0.057324607 -0.06952591
0.061708406 0.0706513 0.0037139198 -0.06323177 -0.012197752 0.0003773027 -0.0639325 0.07034018
-0.016272483 -0.075001195 0.00016915906 -0.048919763 0.007927949 -0.0661344 -0.033160206 0.022619767
-0.029280765 -0.03514463 -0.03541379 -0.056073915 -0.059412207 -0.02135155 -0.00737087 -0.024216892
0.038141746 0.05151286 -0.009858618 -0.026224526 -0.03447307 0.04652408 -0.038148962 0.01276921

layer2.bias f4 [128]
00000000: 50a9 ba3b 8daa 2dbc 4352 3a3d 486b 833e
00000010: 662b 3a3c 7aaf eebc ad7a 2f3c 919a 90bc
00000020: 29d0 e93c 14f3 7a3b a1c2 9cbb 2b81 a23e
00000030: 3d49 6d3e d278 9fbd 1826 193e 2771 903e
00000040: f299 443e 80f3 a33e 9f67 253e 8a5a 97bd
00000050: 4764 b53e 802a 3cbe 632f 6a3e 6d33 513d
00000060: bebb 5f3d 7d0a ca3d 8703 703e 13df 8c3e
00000070: 5aff 2ebe 0008 8c3e b556 14bd f6c2 78bb
00000080: 0f0d 093d 4bc6 e13c 8496 c5bc dbd3 893e
00000090: 6405 e7bc 3793 bcbc dc17 0c3e a049 cb3d
000000a0: 893f 843e 68b6 f33b e3a5 883e a323 61bd
000000b0: 382d f5bd 795d 8d3d 1515 76bd 9b47 733e
000000c0: 6dd7 973e ca56 ae3e 4ddb 6f3d ee56 8f3d
000000d0: 2e07 d03e 6263 8e3e b780 5bbd 94f3 0e3e
000000e0: a317 aebd 9c31 51bd d51a ca3c 3bbe e83d
000000f0: 1103 b5bc 0775 b43d 581f b7bc 6fae 8cbd
00000100: b283 ab3d 943e 993e b678 99bd 1f1b 613d
00000110: acc9 ba3a 664c a1bd 040f 303e 0c19 1d3e
00000120: ddcf 43bc 589b e93d b687 803e e54c 1c3d
00000130: a545 7fb8 8cdb 153e b09f 1d3e a234 30be
00000140: 628b 713e 9b21 bf3d 771f a83e 502e 513d
00000150: 6219 f83d cf1a 98bb 124d 823c 6c80 efbd
00000160: 51a0 713e d7dd c9bd fe92 2d3d 05b7 1cbe
00000170: 4c6d 4abc 6f46 873d b81f 763e 7952 b33e
00000180: d6a3 b43e 1344 823e e37e 6f3d a356 05bd
00000190: 6e2b a2bd 2c10 7e3e 93b6 1ebd 5e61 6bbe
000001a0: 154d f0ba 990a 90bd 312b 613d 6ee9 20be
000001b0: 27a9 9d3e 4296 d23b 099f 2abd ca35 5dbc
000001c0: 116d 8e3e 2ccd 293e ad13 fb3b 2ce6 8c3c
000001d0: 2be0 923e 7147 73bc 1b96 84bd 6365 6939
000001e0: c001 ce3c 2010 243d cbd9 4a3b 132d 7d3d
000001f0: b005 943e 14de 9bbd 078f 153e ef7d 033e
0.005696453 -0.0105997445 0.045488607 0.25667787 0.011362886 -0.029136408 0.0107104005 -0.017651828
0.028541641 0.0038291859 -0.0047839438 0.31739172 0.2317247 -0.077867165 0.14955938 0.28211328
0.1919935 0.32021713 0.1615281 -0.07390316 0.35428068 -0.18375587 0.22869639 0.051074434
0.054622404 0.09865282 0.23438846 0.27513942 -0.17089596 0.27349854 -0.036215503 -0.0037958003
0.03345972 0.027560374 -0.024119623 0.26919445 -0.028200813 -0.023019416 0.13680977 0.09926152
0.25829723 0.007437516 0.26689062 -0.054965626 -0.119715154 0.06902594 -0.0600787 0.23757784
0.29656544 0.3405059 0.05855875 0.069990024 0.40630478 0.27810198 -0.05358955 0.13960105
-0.08500602 -0.0510727 0.024670998 0.113644086 -0.022096189 0.08811384 -0.022353813 -0.06869208
0.08374728 0.29930556 -0.07493727 0.054957505 0.0014250777 -0.078759 0.17193228 0.15341586
-0.011951414 0.114065826 0.2510354 0.03815927 -6.08616e-05 0.14634532 0.15392947 -0.17207578
0.23588327 0.093325816 0.32836506 0.051069558 0.121142164 -0.0046418677 0.01590589 -0.116944164
0.23596312 -0.09856766 0.04237651 -0.15304191 -0.01235516 0.06605231 0.24035537 0.3502386
0.35281247 0.25442562 0.058470618 -0.032553326 -0.0791844 0.24810857 -0.038748335 -0.22986361
-0.0018333519 -0.07033271 0.05497283 -0.15714046 0.30793115 0.0064266035 -0.041655574 -0.013501594
0.27817586 0.16582173 0.0076622576 0.017199598 0.28686652 -0.014848576 -0.06473943 0.00022258381
0.025147319 0.04005444 0.0030952569 0.061810564 0.2891059 -0.076107174 0.14605342 0.12841009

layer3.weight f4 [2, 128]
00000000: a291 9d3e 4812 32bd 3ef4 8dbe 01f1 d93e
00000010: e0cd 953e 2c6e 983d e3e4 1bbe 6cc4 c138
00000020: 23e4 94be aaa5 bf3e 6337 80be 9797 8f3e
00000030: 6fb7 8c3e 0cea abbc 9ad8 8a3e 0b0b cc3e
00000040: a759 9e3e 1417 763e 99c5 e53e a221 95be
00000050: ed4f a13e 8f62 1abf fbfa 723e 18dd 6e3e
00000060: 72f8 60be 7b71 c03e 8340 ab3e 9d1f 983e
00000070: f2f5 abbe aa07 bd3e a3dc a3be 63cc bbbe
00000080: 7a64 863e 3d19 073d 3b58 a53e 01c3 783e
00000090: 2e61 24bb c1d3 9b3e 4642 c03e 3eb8 c13e
000000a0: 9470 c33e 1f30 79bd d1e1 b83e 5d9e 8cbe
000000b0: 705c 9cbe 57f3 4a3e 9847 383d ca18 ba3e
000000c0: 643a af3e 0b01 ed3e 7f34 c53e afa4 ba3e
000000d0: c6ed dd3e 4d52 8a3e 29a9 a93e f9b4 ae3e
000000e0: b9dc 4c3e 980e 79be 97a2 b2bd 262e b73e
000000f0: b083 ba3e af17 853e aba8 28be f58b 58bd
00000100: d67d 833e 9c30 e43e 229d 933e 79d5 bf3e
00000110: 0b95 ba3d 4473 e13c 06c1 bb3e 6457 673d
00000120: 1509 67be f792 df3e ebe2 aa3e ae42 b23e
00000130: e93b dbbd ceb4 4c3e 1c65 b23e 0aa2 a0be
00000140: aead a93e a89b 7d3e e688 dc3e 10f1 8a3d
00000150: cdab b23e 5668 cd3e 4edb a03e bb0c dabe
00000160: 1f30 dc3e f918 82be 2f3e 5bbe 6b34 34bf
00000170: e78e 63be f10a 64bd 340a d23e b4c1 b53e
00000180: 7059 883e 4e3b 973e 5d5e d03e 191c 7c3c
00000190: 116d 8b3d c64a b63e 20f1 c23e c258 4bbe
000001a0: 7a4f 3a3e 8f30 5cbc bd3d 923e f3b1 a2be
000001b0: 7aa7 e13e 8ade 5ebd 41dd 4bbc 2829 6bbe
000001c0: 8ce3 eb3e 8793 313e f90d 9cbe 6b49 dc3e
000001d0: 0162 d53e 494a 3abc 4654 2b3c 213e 5fbd
000001e0: d352 32be ad7c 613e 4c44 91be b5bc 9bbc
000001f0: aa5d a13e 019f da3e 3950 da3c a3ef af3e
00000200: 18d8 b53e 858d 033b d93d 99be 33e5 ef3e
00000210: f324 9cbd 1fff 9c3d b073 2cbe 4002 22bd
00000220: 7800 06bf 451f 963e bc43 f7bd cfe1 9d3e
00000230: 7241 a33e f6c1 26bc 3b1e a43e 388e bc3e
00000240: 8355 c73e 39c0 a63e 5b44 ac3e d2fe 93be
00000250: 953f e13e 6707 49be 63ce c33e 5e29 ac3e
00000260: e184 e2bc ca6e 483e 7907 c43e 0109 8c3e
00000270: 3de7 3abf 3225 b83e 0728 3dbd 8b1a 36be
00000280: 761b 9e3e 7f68 1ebe 1a38 ba3e 32bf b13e
00000290: 3cc9 1a3d 4359 89be dfa6 a33e 2643 a43e
000002a0: 9e8e 8b3e f67f 0f3d 7bf9 533e 649f 49be
000002b0: 7391 8ebe 1f74 a9bc a204 a3bc 03dd a83e
000002c0: 4c82 d23e 4dd4 9e3e 7b35 943e 8c8e ba3e
000002d0: bf61 b33e d908 ac3e 0ef9 d23e 1cb4 8e3e
000002e0: 9c6e 7dbe 6379 dcbd e030 95be 8d0c 833e
000002f0: 1648 ab3e 6370 983e 9f02 cd3d 3862 b2bc
00000300: 5f72 ac3e fa3e 9b3e 166f d63e d618 c33e
00000310: 61b7 ed3e c0a6 b8bc b458 8c3e 4d8d 583e
00000320: cc2b 88be 0221 e23e bd08 a83e e19d cc3e
00000330: eb18 463e 1e05 883e 64a6 df3e d584 10bf
00000340: c423 d73e d00d 69be 16c8 8e3e 10e6 413d
00000350: 2369 bb3e 1d32 a93e 42c9 9b3e bc9c 96be
00000360: 1861 d03e b4d9 0fbe 75ed 133d d562 bebe
00000370: 8bc2 eebe 7d30 9c3d 2b62 ae3e 3025 b83e
00000380: d362 a33e 19c7 bf3e de03 e43e e739 283f
00000390: b6d3 a2bd b040 bc3e 1d23 d43e deac 02bf
000003a0: a19a a7be d45f acbd 55d8 903e a885 b1be
000003b0: 6e65 a63e 122e 20bd 9045 01bf 56af 11be
000003c0: 3064 a13e 66c8 943e 4201 453d 6211 c13e
000003d0: 1550 a73e 58f7 29bd cb6f 0cbc ee81 023c
000003e0: eb65 643e b4d6 7f3d c08e d9bd 6aef 6bbd
000003f0: 9d24 9c3e b0a8 cb3e 671b 983e 6568 7d3e
0.30775172 -0.043474466 -0.27725405 0.42566684 0.29258633 0.074428886 -0.15224032 9.2395436e-05
-0.29080305 0.3743108 -0.25042257 0.2804534 0.274837 -0.020985626 0.2711838 0.39852175
0.30927774 0.24032241 0.44877318 -0.29127222 0.3150629 -0.6030664 0.23728554 0.23326528
-0.21969774 0.3758658 0.33447656 0.2971162 -0.3358608 0.3691991 -0.3200427 -0.36679372
0.26248533 0.032983053 0.32293877 0.24293138 -0.0025082338 0.30434993 0.37550563 0.37835878
0.38171828 -0.060836907 0.36109784 -0.27464572 -0.30539274 0.1981939 0.044990152 0.36347038
0.34224236 0.46289858 0.38516614 0.3645377 0.4334547 0.27015916 0.3313687 0.34122446
0.20006074 -0.24321973 -0.08722418 0.35777396 0.36428595 0.25994632 -0.16470592 -0.05286785
0.25681943 0.44568336 0.2883082 0.37467554 0.09110459 0.027520783 0.36670703 0.056479827
-0.22562058 0.43666813 0.3337625 0.34816498 -0.10704786 0.19990847 0.34842765 -0.31373626
0.3314032 0.2476641 0.43073195 0.0678426 0.348967 0.40118665 0.31417316 -0.42587838
0.43005463 -0.25409678 -0.2141044 -0.70392483 -0.22222482 -0.055674497 0.4102341 0.35499346
0.26630735 0.29537433 0.40696993 0.015387558 0.06807912 0.35603923 0.3807459 -0.19858077
0.1819438 -0.013439312 0.28562728 -0.3177639 0.44073087 -0.05441145 -0.012442888 -0.22964919
0.46072042 0.17341433 -0.3047941 0.43024763 0.41676334 -0.01137025 0.010457104 -0.05450261
-0.17414407 0.22020216 -0.2837242 -0.019010881 0.31516773 0.42699435 0.026649581 0.34362516
0.3551643 0.0020073366 -0.2993 0.46854553 -0.07624235 0.07665848 -0.16841006 -0.039552927
-0.52344465 0.29320732 -0.12073466 0.3083634 0.31885868 -0.01017808 0.32054314 0.36827254
0.38932428 0.3256853 0.336459 -0.2890535 0.43993822 -0.1963173 0.38243398 0.3362531
-0.027651252 0.19573513 0.3828695 0.2735062 -0.7300909 0.35965878 -0.04618075 -0.17783563
0.30880326 -0.1546955 0.36370927 0.34716183 0.03778957 -0.26825914 0.3196325 0.3208248
0.27257246 0.035034142 0.20700638 -0.19689709 -0.27845344 -0.020685254 -0.01989967 0.3298112
0.41115034 0.31021348 0.28947052 0.3643688 0.35035512 0.336005 0.4120564 0.27871788
-0.24749225 -0.1076534 -0.2913885 0.25595513 0.33453435 0.29773244 0.100102656 -0.02177535
0.33681008 0.30321485 0.41881627 0.38104886 0.4642897 -0.02254045 0.27411425 0.21147652
-0.26595914 0.44165808 0.32819167 0.39964202 0.19345443 0.26566404 0.43681633 -0.56452686
0.42019475 -0.22759175 0.27887028 0.047338545 0.3660365 0.33046046 0.30426985 -0.29416454
0.40699077 -0.14047891 0.03611513 -0.37184778 -0.466328 0.07626436 0.3405927 0.35965872
0.31911334 0.37456587 0.445342 0.6571335 -0.07950537 0.36768103 0.4143304 -0.51045024
-0.3273516 -0.08416715 0.28290048 -0.34672284 0.3249926 -0.039106436 -0.5049677 -0.14227042
0.3152175 0.29059142 0.048096903 0.37708575 0.32678285 -0.04149565 -0.008571575 0.007965548
0.22304504 0.062460616 -0.106229305 -0.05760137 0.30496684 0.39777136 0.29708406 0.24746855

layer3.bias f4 [2]
00000000: f1ba 103e 018c e73d
0.14133812 0.113060005
