cartpole_weights/episode_durations_454.pt (torch, 72007 bytes, 6 tensors)

layer1.weight f4 [128, 4]
-0.57987076 -0.5135996 0.09611749 -0.28474742 0.08041824 -0.010439764 -0.74110174 0.10858678
-0.6334353 -0.29552767 -0.38180214 -0.31082854 -0.10310196 -0.4112723 -0.48184878 -0.03738347
-0.24973513 0.14491385 -0.32999 -0.5339631 -0.55884814 0.00909143 0.5433373 -0.29682016
0.109002374 -0.08378108 -0.35288513 0.33450618 -0.3802094 0.42045915 0.55561584 -0.28150097
0.20038657 0.14667678 0.5272309 0.054284167 0.37105134 0.38080382 0.13491772 -0.077136494
0.031028708 0.40524983 -0.5315029 0.15348151 -0.60307795 -0.71339333 -0.21689326 -0.5319789
0.33556372 -0.06171254 0.024794558 -0.011774678 0.18888535 0.47719252 -0.4036885 -0.190511
-0.18723457 -0.23018605 0.22225796 -0.09656442 -0.21036099 -0.55436325 -0.23294298 -0.13724239
-0.4255979 -0.29023042 0.3023929 -0.10715353 0.5775332 -0.3535437 -0.2626968 0.20728348
0.414342 0.33302703 -0.113045394 -0.027133582 -0.17342137 -0.32715958 0.87142766 0.012476503
0.32462075 -0.4027192 -0.15912047 -0.06326596 -0.20774686 0.19222742 -0.046828806 0.029937932
0.6245754 0.55178833 1.1331612 0.41578075 -0.4148568 0.11935386 -0.7631308 -0.27564108
-0.2709287 -0.17256995 0.17948817 0.21093419 -0.17046343 -0.3737442 0.5577666 0.1518276
-0.8448411 0.39991432 -0.071460985 0.32357037 -0.17602302 -0.38191193 -0.17411922 -0.026475485
0.25148347 0.22170654 0.78756464 0.35547855 -0.6682967 -0.7158394 -0.6344527 -0.5095711
-0.4973904 0.11616055 0.7751604 0.39687738 -0.5287194 -0.402691 0.32218292 0.3829664
-0.39322546 0.48097897 -0.10328585 -0.08023424 -0.60191536 0.23414789 -0.04156909 0.21325357
0.63319534 0.22252157 -0.3844793 -0.07865136 -0.3885556 -0.023027692 0.74868023 0.489973
-0.5160207 -0.35796565 -0.24252267 -0.065658845 -0.006554573 0.5104324 0.12253383 0.00014991326
-0.29684362 -0.4438868 -0.55840605 0.11305941 0.23862612 -0.42803636 0.646321 0.370216
0.17183164 0.18337327 0.5718724 0.38728258 0.19104987 0.0959756 0.1521851 0.27939168
-0.05704848 -0.23314077 -0.33150932 -0.1841901 -0.079496875 -0.1446852 -0.03886124 0.07169998
-0.031459883 0.3541375 0.28858352 -0.072134376 -0.646715 -0.18968078 0.4941581 -0.07398718
-0.54370546 0.08103117 0.22337559 -0.3678059 0.009477221 -0.4835249 -1.3478386 -0.395209
-0.09714906 -0.31417233 -0.5036024 0.24557008 -0.03437867 0.098596156 -0.08673622 0.19560839
0.07512877 0.4740187 0.73646134 0.44552833 -0.31557295 -0.474753 0.14450732 0.4503217
-0.24580204 -0.036424346 -0.028913748 0.33624887 0.107453965 -0.78815514 -1.3317975 -0.5675826
-0.2087254 0.049177118 -0.3046211 0.15139924 0.3563819 -0.49497807 -0.16919026 -0.18706033
0.46713522 0.15809087 0.34613028 0.22530843 -0.29782978 0.28156725 0.6496229 0.29828092
0.15834452 0.40342957 0.4988133 -0.32017514 0.28664902 -0.35745803 -0.42289472 -0.38406965
0.2151865 -0.2676855 -0.23303556 -0.45834666 -0.53034574 -0.56232435 0.0035065257 -0.11711555
0.39413854 -0.17770576 0.18710676 -0.13364533 0.54162186 0.4781076 -0.12579022 -0.06734328
00000000: 6972 14bf 437b 03bf 3fd9 c43d 6aca 91be
00000010: 51b2 a43d 8b0b 2bbc d8b8 3dbf bf62 de3d
00000020: d128 22bf 674f 97be 927b c3be eb24 9fbe
00000030: 1f27 d3bd 4892 d2be e2b4 f6be 691f 19bd
00000040: 91ba 7fbe 4c64 143e 73f4 a8be ceb1 08bf
00000050: ac10 0fbf 39f4 143c 2718 0b3f d0f8 97be
00000060: a33c df3d 6a95 abbd 5cad b4be 6544 ab3e
00000070: ceaa c2be 6c46 d73e d73c 0e3f e520 90be
00000080: 2332 4d3e 7032 163e 9bf8 063f 1359 5e3d
00000090: 71fa bd3e b8f8 c23e df27 0a3e bdf9 9dbd
000000a0: eb2f fe3c e87c cf3e 9310 08bf 422a 1d3e
000000b0: 5163 1abf f2a0 36bf 4419 5ebe c52f 08bf
000000c0: 02cf ab3e 4ac6 7cbd f51d cb3c 94ea 40bc
000000d0: 296b 413e 9452 f43e 42b0 cebe 5115 43be
000000e0: 6bba 3fbe e4b5 6bbe 9797 633e 91c3 c5bd
000000f0: df68 57be c0ea 0dbf 9b88 6ebe 4589 0cbe
00000100: f8e7 d9be 1599 94be 3ed3 9a3e 4f73 dbbd
00000110: 37d9 133f ae03 b5be 3280 86be 1f42 543e
00000120: a224 d43e 8582 aa3e 5884 e7bd 3f47 debc
00000130: 5f95 31be 7681 a7be e215 5f3f 3f6a 4c3c
00000140: b134 a63e 3631 cebe 7af0 22be 9591 81bd
00000150: 98bb 54be 44d7 443e 90cf 3fbd 6540 f53c
00000160: 2ce4 1f3f 0042 0d3f 6d0b 913f 37e1 d43e
00000170: 1c68 d4be cc6f f43d 8a5c 43bf d420 8dbe
00000180: 2bb7 8abe 2db6 30be bfcb 373e 22ff 573e
00000190: f78d 2ebe 665b bfbe cbc9 0e3f b278 1b3e
000001a0: 8247 58bf 92c1 cc3e 235a 92bd 04ab a53e
000001b0: 613f 34be f689 c3be 4f4c 32be 1ee3 d8bc
000001c0: 71c2 803e 0a07 633e d69d 493f 4901 b63e
000001d0: 7e15 2bbf 4041 37bf 7e6b 22bf 4073 02bf
000001e0: f4a9 febe 95e5 ed3d e970 463f 8333 cb3e
000001f0: 285a 07bf 842d cebe 29f5 a43e 2c14 c43e
00000200: d954 c9be e042 f63e 8887 d3bd d951 a4bd
00000210: 2017 1abf 77c4 6f3e 5a44 2abd 255f 5a3e
00000220: 1719 223f b2dc 633e 79da c4be f713 a1bd
00000230: c2f0 c6be 92a4 bcbc 82a9 3f3f bedd fa3e
00000240: ef19 04bf 4647 b7be dd57 78be 2578 86bd
00000250: bec7 d6bb b3ab 023f 04f3 fa3d 0932 1d39
00000260: e3fb 97be 2145 e3be b3f3 0ebf b18b e73d
00000270: 685a 743e 9527 dbbe 4b75 253f f48c bd3e
00000280: a2f4 2f3e 34c6 3b3e 3b66 123f e749 c63e
00000290: 94a2 433e db8e c43d 69d6 1b3e 6d0c 8f3e
000002a0: abab 69bd 74bc 6ebe 97bb a9be 549c 3cbe
000002b0: 42cf a2bd 5b28 14be f72c 1fbd 70d7 923d
000002c0: 14dc 00bd 8351 b53e 38c1 933e 30bb 93bd
000002d0: 1d8f 25bf ae3b 42be 4a02 fd3e 9786 97bd
000002e0: 4830 0bbf acf3 a53d 92bc 643e 0e51 bcbe
000002f0: 5946 1b3c 9390 f7be fa85 acbf d658 cabe
00000300: 16f6 c6bd 32db a0be 16ec 00bf b976 7b3e
00000310: a6d0 0cbd c8ec c93d c2a2 b1bd 914d 483e
00000320: 1ddd 993d 94b2 f23e bb88 3c3f 4a1c e43e
00000330: c792 a1be d312 f3be baf9 133e 9190 e63e
00000340: 88b3 7bbe b231 15bd 86dc ecbc d028 ac3e
00000350: d310 dc3d 89c4 49bf 5778 aabf 184d 11bf
00000360: 1cbc 55be f26d 493d 4cf7 9bbe 6708 1b3e
00000370: b077 b63e c46d fdbe 3640 2dbe be8c 3fbe
00000380: 592c ef3e 93e2 213e fd37 b13e 41b7 663e
00000390: 257d 98be 9529 903e b04d 263f 47b8 983e
000003a0: 1125 223e 528e ce3e 7564 ff3e ffed a3be
000003b0: a9c3 923e bd04 b7be a885 d8be c7a4 c4be
000003c0: da59 5c3e 130e 89be e0a0 6ebe 6aac eabe
000003d0: bdc4 07bf 7df4 0fbf bdcd 653b 47da efbd
000003e0: 87cc c93e 80f8 35be ea98 3f3e 52da 08be
000003f0: bba7 0a3f 85ca f43e 27cf 00be 46eb 89bd

layer1.bias f4 [128]
-0.017590793 0.22385843 0.58759356 0.27779782 -0.2543951 0.39288267 0.5562166 0.55524206
0.27471653 -0.13447769 -0.12299879 -0.04166846 0.2991361 0.064232476 0.53161675 -0.1283082
0.26318192 0.21976453 0.32657206 -0.53231275 0.3653926 -0.37714365 -0.04811988 -0.20502087
-0.37046808 -0.38152206 -0.13051338 0.621959 -0.42857084 -0.0148311835 -0.38419506 -0.4354622
0.66721463 0.3770303 -0.43722528 -0.5295777 0.54507965 0.3736238 0.4700423 -0.44378176
-0.43057504 0.7014889 0.7013426 0.6288199 0.49427968 0.3171295 0.43419147 -0.114594534
0.48059702 0.36953664 -0.03572116 0.36932623 -0.46553135 -0.03711556 0.6465429 0.55105895
0.67069024 0.6010604 0.6477867 0.71199214 0.5206637 0.033239935 -0.41078267 -0.27661145
0.37490466 0.30315235 0.5100075 -0.2779518 0.3848869 0.68451715 0.4548399 0.5673292
0.16992429 0.60827357 -0.05845131 0.2670632 0.51987064 0.16454099 -0.33276314 -0.2632361
-0.34965158 0.33109483 -0.5070955 -0.05443565 -0.1196869 -0.33260864 0.5209685 0.28202343
0.46825543 -0.03870231 0.35790274 -0.47867548 -0.4761098 0.68968385 0.039448444 0.65049934
0.63797885 0.23745018 -0.16018076 0.2063638 -0.55325186 -0.050238132 -0.044412553 0.3106919
0.332401 -0.017741235 0.5071257 -0.43692318 -0.18106093 0.29464465 -0.35296717 0.42005
0.18751946 0.36260903 0.3894268 -0.3326212 0.4350845 0.06627952 -0.3700341 -0.49624172
0.58632994 0.118547335 -0.21603367 -0.40680134 0.21095297 -0.018143663 -0.13244405 0.027416656
00000000: 911a 90bc 253b 653e 886c 163f 843b 8e3e
00000010: 1340 82be eb27 c93e 3664 0e3f 5824 0e3f
00000020: a5a7 8c3e 85b4 09be cae6 fbbd 8cac 2abd
00000030: 5e28 993e 518c 833d 0918 083f 3a63 03be
00000040: c8bf 863e f409 613e 7434 a73e a645 08bf
00000050: bd14 bb3e f918 c1be 5a19 45bd fef0 51be
00000060: fead bdbe dc56 c3be 4da5 05be b438 1f3f
00000070: a36d dbbe 7efe 72bc 37b5 c4be e7f4 debe
00000080: 94ce 2a3f 1e0a c13e fedb dfbe 6792 07bf
00000090: 578a 0b3f 9e4b bf3e 62a9 f03e 5d37 e3be
000000a0: 5574 dcbe c794 333f 308b 333f 57fa 203f
000000b0: 3a12 fd3e cc5e a23e 584e de3e 8ab0 eabd
000000c0: d010 f63e e833 bd3e 5a50 12bd 5418 bd3e
000000d0: 205a eebe 7c06 18bd d683 253f 3312 0d3f
000000e0: 5bb2 2b3f 18df 193f 59d5 253f 1e45 363f
000000f0: 374a 053f 9926 083d 1b52 d2be 04a0 8dbe
00000100: 81f3 bf3e c936 9b3e da8f 023f b34f 8ebe
00000110: e50f c53e 843c 2f3f c6e0 e83e 7d3c 113f
00000120: a200 2e3e d1b7 1b3f a46a 6fbd 82bc 883e
00000130: 3e16 053f 6f7d 283e ee5f aabe e2c6 86be
00000140: 8805 b3be 4385 a93e 03d1 01bf ebf7 5ebd
00000150: 681e f5bd ae4b aabe 315e 053f 6065 903e
00000160: 2dbf ef3e 5086 1ebd 073f b73e f414 f5be
00000170: aac4 f3be 1f8f 303f b194 213d 2087 263f
00000180: 9552 233f 2426 733e 6d06 24be 0851 533e
00000190: eaa1 0dbf 80c6 4dbd f0e9 35bd 0213 9f3e
000001a0: 7730 aa3e 1156 91bc fdd2 013f 65b4 dfbe
000001b0: 0968 39be aadb 963e 1db8 b4be cb10 d73e
000001c0: 1a05 403e e4a7 b93e f362 c73e 534d aabe
000001d0: 65c3 de3e 8fbd 873d 1c75 bdbe 6513 febe
000001e0: b819 163f f2c8 f23d ee37 5dbe 4448 d0be
000001f0: 0e04 583e 05a2 94bc 6a9f 07be e598 e03c

layer2.weight f4 [128, 128]
-0.6172923 0.09204463 0.01146089 -0.003248877 0.0067370003 0.06380975 0.09281366 -0.06899947
0.11933094 -0.19808544 -0.2274293 -0.36457983 0.18923193 0.0043998384 0.09628628 -0.13978784
-0.023420667 0.11404542 -0.025920942 -0.22271901 0.16230217 0.01945462 -0.21589056 -0.39295685
-0.10008695 -0.1082646 -0.42632288 0.13918777 -0.4397303 -0.44991586 -0.06438376 -0.10078414
0.019854117 0.111481585 -0.24097052 -0.038373638 0.028866975 0.047105964 0.08691047 0.00959447
-0.39298707 0.10668012 0.119188026 0.10258927 0.043450132 0.1240415 -0.02400688 -0.61978227
-0.01622282 0.012161699 -0.30782932 -0.018486591 -0.18921596 -0.82038903 0.083609805 0.18372029
0.03624611 0.012499511 0.047942467 0.15896975 0.006460637 -0.12225517 -0.07455847 -0.12651435
0.12163709 -0.049276095 -0.05341791 -0.1816176 0.06350117 0.004815454 -0.07826296 0.026865313
0.07917588 -0.038798682 -0.4420932 -0.07308226 0.028410062 0.34795693 -0.46996728 -0.09663888
0.08170261 0.05285209 -0.36139953 -0.2540281 -0.10575147 -0.35036772 -0.0036216616 0.07142805
0.005451559 -0.2960822 -0.03350567 -0.13377857 -0.19956113 -0.011544784 -0.101909705 0.06430488
0.1134078 0.19833176 -0.20371905 0.015844418 -0.16743925 -0.47493783 -0.24744183 -0.029075416
0.052680813 -0.28486767 0.022311276 -0.014726177 -0.0912362 0.044899642 -0.048399303 -0.0012560883
0.003535415 -0.094682515 0.10038023 -0.49100816 0.04809595 -0.09491473 -0.27802977 -0.4969055
0.12664258 -0.21490306 -0.92112935 -0.11022838 -0.11067064 -0.31235862 -0.84194404 -0.5396526
-0.038026657 0.040495675 0.066037744 0.0073347515 -0.034258686 0.040112395 -0.012485468 0.021749215
-0.039131377 -0.08279166 -0.064299345 0.015871376 0.030866537 -0.009644334 0.00869025 -0.03761046
0.033036996 -0.009330778 -0.065706275 0.033123653 0.020828558 0.017994568 0.03858189 -0.06855823
0.07046998 -0.0238342 0.038465254 -0.017851483 -0.026558312 -0.07306252 0.03768751 0.014922284
0.048455752 -0.07359223 -0.05766367 0.022591624 -0.078238696 0.058316413 0.03688517 -0.07506148
0.056943852 -0.038285166 -0.0392784 -0.0076858923 -0.041523967 -0.016328514 -0.009709601 0.0017888524
-0.015146442 0.051290132 -0.083135 0.02215325 -0.055119347 -0.051621046 -0.06252672 0.00084900943
0.01739175 0.042729653 -0.038910326 -0.018770467 0.044845503 0.0047596972 -0.003568201 -0.07688325
-0.017534992 -0.059180442 -0.08828265 -0.012415816 -0.08914498 0.067201845 0.07286607 -0.029547585
-0.056411263 -0.027064987 0.005697429 0.06176173 0.064981446 -0.04014349 -0.025415365 0.034362603
0.058674652 0.07113762 -0.069818094 -0.016506223 0.066784985 0.052861206 0.04159071 -0.0818077
-0.0079321405 -0.07321939 -0.08738883 -0.04936484 0.07309112 0.06972876 -0.058982868 -0.07156241
0.06352738 0.07272413 0.0038191988 -0.06509732 -0.012544317 0.00038783462 -0.065798044 0.072413005
-0.01673887 -0.07707402 0.00017401724 -0.050315928 0.008161142 -0.067999944 -0.034092978 0.023263589
-0.030109895 -0.036181044 -0.036450204 -0.05767142 -0.061096013 -0.021973398 -0.0075781527 -0.024896283
0.03923568 0.052963838 -0.010143631 -0.02697113 -0.035459105 0.04787142 -0.03924362 0.013131955
00000000: de06 1ebf e581 bc3d 75c6 3b3c 1ceb 54bb
00000010: 0ec2 dc3b b0ae 823d 1715 be3d 984f 8dbd
00000020: c863 f43d e9d6 4abe 3ae3 68be 35aa babe
00000030: 04c6 413e 852c 903b be31 c53d 8b24 0fbe
00000040: b3dc bfbc a590 e93d 2858 d4bc 7410 64be
00000050: 8a32 263e 4c5f 9f3c 6a12 5dbe a431 c9be
00000060: 63fa ccbd d5b9 ddbd fe46 dabe 3d87 0e3e
00000070: 5424 e1be 5f5b e6be a2db 83bd ea67 cebd
00000080: 1aa5 a23c 7550 e43d fac0 76be ad2d 1dbd
00000090: 6f7a ec3c 2ff2 403d 1efe b13d 2032 1d3c
000000a0: 9a35 c9be 1b7b da3d da18 f43d 531a d23d
000000b0: c4f8 313d 7809 fe3d 14aa c4bc 0daa 1ebf
000000c0: b8e5 84bc dd41 473c ce9b 9dbe 3171 97bc
000000d0: d4c1 41be 0405 52bf 9e3b ab3d 2c21 3c3e
000000e0: cd76 143d c0ca 4c3c 525f 443d f7c8 223e
000000f0: c0b3 d33b eb60 fabd 1cb2 98bd fa8c 01be
00000100: de1c f93d bbd5 49bd bdcc 5abd f7f9 39be
00000110: e70c 823d f5ca 9d3b 5548 a0bd a514 dc3c
00000120: f726 a23d 5eeb 1ebd 0a5a e2be 27ac 95bd
00000130: 38bc e83c 6927 b23e 8d9f f0be 9bea c5bd
00000140: b353 a73d 6f7b 583d 5c09 b9be f90f 82be
00000150: 3a94 d8bd 6663 b3be 6659 6dbb df48 923d
00000160: fea2 b23b 1698 97be 3e3d 09bd 40fd 08be
00000170: c159 4cbe 5526 3dbc 09b6 d0bd 47b2 833d
00000180: 5942 e83d 7b17 4b3e ba9b 50be 27cc 813c
00000190: 3275 2bbe 0d2b f3be 6461 7dbe 912f eebc
000001a0: d6c7 573d 2dda 91be 23c6 b63c 1046 71bc
000001b0: 0bda babd b0e8 373d 593e 46bd 54a3 a4ba
000001c0: 6cb2 673b e8e8 c1bd 2694 cd3d 6c65 fbbe
000001d0: 4200 453d a762 c2bd eb59 8ebe 666a febe
000001e0: 98ae 013e 8c0f 5cbe 22cf 6bbf 6bbf e1bd
000001f0: 4aa7 e2bd 78ed 9fbe a589 57bf ac26 0abf
00000200: d7c1 1bbd cbde 253d cc3e 873d 5b58 f03b
00000210: d652 0cbd e54c 243d d98f 4cbc 692b b23c
00000220: 3948 20bd ad8e a9bd 60af 83bd b004 823c
00000230: d2db fc3c 4503 1ebc 8d61 0e3c 6d0d 1abd
00000240: cd51 073d 1fe0 18bc 0391 86bd abac 073d
00000250: a7a0 aa3c 5869 933c 0b08 1e3d 4268 8cbd
00000260: 9152 903d f13f c3bc be8d 1d3d 463d 92bc
00000270: d190 d9bc cda1 95bd 385e 1a3d 987c 743c
00000280: 8a79 463d 86b7 96bd be30 6cbd 1212 b93c
00000290: 9c3b a0bd 31dd 6e3d e714 173d d5b9 99bd
000002a0: f53d 693d e8d0 1cbd 63e2 20bd f0d9 fbbb
000002b0: 0915 2abd 60c3 85bc 0515 1fbc ed77 ea3a
000002c0: c828 78bc 9a15 523d af42 aabd bc7a b53c
000002d0: d3c4 61bd 9770 53bd 020e 80bd 0f90 5e3a
000002e0: 2579 8e3c 4a05 2f3d 6f60 1fbd 86c4 99bc
000002f0: ebaf 373d 3cf7 9b3b 7bd8 69bb f774 9dbd
00000300: 8ba5 8fbc 3167 72bd 89cd b4bd b56b 4bbc
00000310: a591 b6bd 1fa1 893d ce3a 953d c70d f2bc
00000320: 7f0f 67bd 64b7 ddbc 80b1 ba3b def9 7c3d
00000330: fe14 853d 806d 24bd e233 d0bc cdbf 0c3d
00000340: d554 703d 9ab0 913d cafc 8ebd 0f38 87bc
00000350: 91c6 883d fe84 583d 055b 2a3d cc8a a7bd
00000360: cff5 01bc 0cf4 95bd eaf8 b2bd c932 4abd
00000370: ccb0 953d f4cd 8e3d 0598 71bd 508f 92bd
00000380: a51a 823d 63f0 943d 864b 7a3b be51 85bd
00000390: ae86 4dbc 4856 cb39 20c1 86bd 454d 943d
000003a0: f41f 89bc fcd8 9dbd 6678 3639 1318 4ebd
000003b0: 4fb6 053c 8e43 8bbd 14a5 0bbd 4893 be3c
000003c0: 07a9 f6bc 9332 14bd cf4c 15bd de38 6cbd
000003d0: d03f 7abd 8e01 b4bc 2752 f8bb 4af3 cbbc
000003e0: 98b5 203d 9cf0 583d 7931 26bc 8ff2 dcbc
000003f0: 913d 11bd d214 443d ebbd 20bd 6927 573c

layer2.bias f4 [128]
0.04329676 -0.010910668 0.06626148 0.24052429 -0.014474914 -0.029965539 0.011409856 -0.018170035
0.040336445 0.032230563 0.0037624538 0.30054617 0.23884015 -0.08035634 0.15048143 0.26569974
0.17547113 0.30332506 0.14112096 -0.027034516 0.34003964 -0.19541481 0.20943797 0.05117515
0.0740097 0.13961402 0.2174176 0.2590043 -0.18296714 0.25662273 -0.017411184 -0.011578966
0.055866722 0.02783195 0.014582137 0.25247312 -0.029010488 -0.023164961 0.13865677 0.09683743
0.23910399 0.007648679 0.251191 -0.040284574 -0.088760324 0.061702013 -0.06180416 0.22021854
0.28049955 0.32579073 0.057563093 0.0732982 0.3938925 0.25987372 -0.020453451 0.14715773
-0.074869215 -0.040789623 0.01041565 0.12216361 0.018965844 0.09088828 -0.022896012 -0.07063592
0.10677514 0.28335518 -0.040999413 0.08312255 -0.0018105509 -0.08103911 0.15381896 0.13562833
-0.0038711138 0.117063284 0.23205502 0.06112098 -0.0040283673 0.096783 0.1476315 -0.16121939
0.21823734 0.081737086 0.3128398 0.052520536 0.12515128 -0.009390821 0.037366007 -0.12487351
0.21852404 -0.0719268 0.052634507 -0.16351832 -0.005067401 0.06791785 0.2224612 0.3355586
0.3369499 0.23957466 0.09246982 -0.023993611 -0.08146451 0.23045991 -0.017612416 -0.23330404
0.009090372 -0.06884654 0.0782535 -0.15454373 0.29197297 0.006607976 0.016947463 -0.00895372
0.26157278 0.09306104 0.014700693 0.047891956 0.2706013 -0.015269248 -0.06660497 0.0002290604
0.01942268 0.05475346 0.00605602 0.06363555 0.27524775 -0.04624548 0.12751296 0.12752405
00000000: f257 313d a9c2 32bc 19b4 873d 004c 763e
00000010: 3128 6dbc 4a7a f5bc 68f0 3a3c 53d9 94bc
00000020: d437 253d 3204 043d 8093 763b 30e1 993e
00000030: 8392 743e dd91 a4bd ce17 1a3e cc09 883e
00000040: b4ae 333e 6c4d 9b3e 0382 103e 7d77 ddbc
00000050: ad19 ae3e d21a 48be e876 563e 099d 513d
00000060: 6692 973d faf6 0e3e b8a2 5e3e 369c 843e
00000070: bd5b 3bbe 0e64 833e e6a1 8ebc b4b5 3dbc
00000080: 81d4 643d d4ff e33c eae9 6e3c 2844 813e
00000090: 67a7 edbc 72c4 bdbc 0afc 0d3e b452 c63d
000000a0: add7 743e c5a1 fa3b 1b9c 803e 7001 25bd
000000b0: f9c7 b5bd 40bb 7c3d 5c26 7dbd f880 613e
000000c0: a39d 8f3e 0bce a63e 47c7 6b3d 5e1d 963d
000000d0: 47ac c93e 2b0e 853e ff8d a7bc 84b0 163e
000000e0: 0855 99bd 0513 27bd 67a6 2a3c ea30 fa3d
000000f0: 425e 9b3c a223 ba3d 6b90 bbbc 91a9 90bd
00000100: edac da3d ee13 913e 00ef 27bd 283c aa3d
00000110: 0250 edba d5f7 a5bd b882 1d3e 27e2 0a3e
00000120: 83b2 7dbb e0be ef3d d59f 6d3e fe59 7a3d
00000130: 6500 84bb 2a36 c63d b62c 173e b216 25be
00000140: 9c79 5f3e c665 a73d 8a2c a03e c61f 573d
00000150: a827 003e f5db 19bc 190d 193d afbd ffbd
00000160: c4c4 5f3e 5c4e 93bd 4897 573d 5971 27be
00000170: 710c a6bb 8418 8b3d decc 633e 56ce ab3e
00000180: b384 ac3e 0f53 753e d160 bd3d 408e c4bc
00000190: ddd6 a6bd affd 6b3e ea47 90bc 41e7 6ebe
000001a0: c9ef 143c 6aff 8cbd 5f43 a03d b640 1ebe
000001b0: 7b7d 953e b887 d83b 68d5 8a3c a0b2 12bc
000001c0: deec 853e c996 be3d 2ddb 703c 5b2a 443d
000001d0: 418c 8a3e de2b 7abc 3068 88bd ef2f 7039
000001e0: 501c 9f3c 2a45 603d 9471 c63b 5b53 823d
000001f0: 46ed 8c3e e76b 3dbd c292 023e aa95 023e

layer3.weight f4 [2, 128]
0.32819152 -0.04471816 -0.26508284 0.41335982 0.26852065 0.07650171 -0.14514154 9.502695e-05
-0.3029994 0.38964897 -0.26002333 0.26350564 0.2850803 -0.021062277 0.28445703 0.38594142
0.3126328 0.21937868 0.42670277 -0.2796326 0.29891732 -0.5789805 0.21493413 0.24624036
-0.23635888 0.3731265 0.31987223 0.28408635 -0.30762577 0.3563048 -0.32635835 -0.34962034
0.27677223 0.037111726 0.34205112 0.22955537 -0.0025794872 0.31923577 0.38911653 0.3958686
0.37539643 -0.06260462 0.3655938 -0.28016555 -0.3089059 0.16897091 0.04625701 0.3509113
0.32805783 0.45423847 0.4012934 0.38065803 0.42240062 0.25063008 0.35233817 0.35612106
0.19810048 -0.2476522 -0.077275924 0.37224266 0.3837172 0.27317235 -0.16817053 -0.05439097
0.27506638 0.43348777 0.3089898 0.39353934 0.096930906 0.028298093 0.36375615 0.050490588
-0.2270032 0.45440117 0.32748106 0.36720604 -0.123977385 0.18736292 0.36129743 -0.2632338
0.31612548 0.16837986 0.41985324 0.069708146 0.36289173 0.41808665 0.33134797 -0.40626267
0.41765714 -0.257955 -0.23002948 -0.6421205 -0.19186321 -0.057245374 0.39767915 0.34068397
0.2476262 0.28452238 0.4274226 0.020829858 0.06995486 0.3431704 0.39878604 -0.19760345
0.185869 -0.018178187 0.29764965 -0.29434973 0.4294867 -0.055966068 -0.008526978 -0.12611465
0.45089895 0.14836247 -0.31422386 0.45188084 0.4031003 -0.011697192 0.010757779 -0.05605723
-0.16775024 0.20431726 -0.29538262 -0.01955185 0.3053829 0.4499787 -0.004873929 0.36801025
0.36318016 0.0020656348 -0.3310892 0.4590397 -0.094146445 0.07888385 -0.16022332 -0.04069298
-0.53746825 0.2996545 -0.16105853 0.29191163 0.33322892 -0.010512052 0.33281168 0.35565796
0.3978479 0.309187 0.3074746 -0.3219301 0.4294491 -0.15817037 0.3664462 0.34995165
-0.06745548 0.19171369 0.37117937 0.2595645 -0.68703085 0.34632728 -0.08805804 -0.14863311
0.3153656 -0.06723341 0.36957034 0.3380135 0.03884829 -0.2607063 0.33493602 0.33286193
0.2641846 0.036070555 0.20984632 -0.23299164 -0.30176693 -0.05044075 -0.020469697 0.3186601
0.40063548 0.29948246 0.30140722 0.38045385 0.33811137 0.31946802 0.41740555 0.29437792
-0.26827675 -0.11285443 -0.27348176 0.26742443 0.34362116 0.31157005 0.09503662 -0.022397198
0.34638324 0.28839546 0.42244175 0.3878401 0.47035214 -0.023177663 0.2714982 0.18265967
-0.27341306 0.45983595 0.32623312 0.405617 0.17181848 0.2526752 0.4542226 -0.54438597
0.40774223 -0.11328872 0.26482728 0.048685882 0.38259518 0.3471288 0.31479976 -0.27771598
0.39456105 -0.17264065 0.005656936 -0.28228045 -0.44622558 0.07845032 0.32634875 0.34694344
0.3025295 0.3669453 0.45219618 0.6879281 -0.08178548 0.35654807 0.42201218 -0.47596845
-0.3333433 -0.02413719 0.2909929 -0.33875433 0.31154975 -0.04024649 -0.5077275 -0.1176533
0.30080605 0.2648373 0.030068768 0.3888176 0.31146833 -0.042668097 -0.008812897 0.008198741
0.22185504 0.05331767 -0.14719 -0.05925963 0.2958661 0.40426242 0.26440275 0.26845607
00000000: b808 a83e 642a 37bd f0b8 87be e6a3 d33e
00000010: 8a7b 893e eeac 9c3d fc9f 14be 3549 c738
00000020: bd22 9bbe 1280 c73e c721 85be 36ea 863e
00000030: 0cf6 913e cc8a acbc 5aa4 913e 1d9a c53e
00000040: 6811 a03e cea4 603e c978 da3e 012c 8fbe
00000050: b10b 993e 1138 14bf b117 5c3e 6f26 7c3e
00000060: 1008 72be 700a bf3e 4bc6 a33e c473 913e
00000070: 2081 9dbe 956d b63e 7118 a7be 7001 b3be
00000080: 17b5 8d3e 7702 183d 5321 af3e 9010 6b3e
00000090: 9d0c 29bb df72 a33e 483a c73e 4aaf ca3e
000000a0: f633 c03e da36 80bd 1c2f bb3e dc71 8fbe
000000b0: ea28 9ebe b606 2d3e fe77 3d3d a5aa b33e
000000c0: 32f7 a73e f291 e83e 5476 cd3e 9ce5 c23e
000000d0: e544 d83e 9652 803e ab65 b43e 8055 b63e
000000e0: dada 4a3e 8a98 7dbe d742 9ebd 9796 be3e
000000f0: 9576 c43e 3fdd 8b3e e534 2cbe 11c9 5ebd
00000100: 80d5 8c3e 1cf2 dd3e e933 9e3e fd7d c93e
00000110: b683 c63d 67d1 e73c 3f3e ba3e 38cf 4e3d
00000120: 8773 68be 45a7 e83e 99ab a73e 6e02 bc3e
00000130: dbe7 fdbd 11dc 3f3e fafb b83e 95c6 86be
00000140: 33db a13e c56b 2c3e 01f7 d63e 25c3 8e3d
00000150: f2cc b93e 740f d63e 71a6 a93e a901 d0be
00000160: 28d7 d53e ae12 84be d98c 6bbe 0262 24bf
00000170: ca77 44be 207a 6abd 9a9c cb3e 216e ae3e
00000180: b991 7d3e ebac 913e 23d7 da3e 61a3 aa3c
00000190: 7e44 8f3d 08b4 af3e af2d cc3e 8f58 4abe
000001a0: 7154 3e3e 6cea 94bc 8965 983e 02b5 96be
000001b0: aee5 db3e ad3c 65bd bdb4 0bbc 3324 01be
000001c0: 3adc e63e 55ec 173e f3e1 a0be ed5c e73e
000001d0: 2a63 ce3e 94a5 3fbc 6541 303c 449c 65bd
000001e0: b8c6 2bbe 8b38 513e 643c 97be 342b a0bc
000001f0: 265b 9c3e 9c63 e63e 7bb5 9fbb d76b bc3e
00000200: c0f2 b93e 9a5f 073b 8684 a9be 4007 eb3e
00000210: dacf c0bd db8d a13d 9511 24be afad 26bd
00000220: 8597 09bf 516c 993e 87ec 24be 7175 953e
00000230: fb9c aa3e be3a 2cbc 4b66 aa3e cd18 b63e
00000240: b8b2 cb3e c24d 9e3e 506d 9d3e 06d4 a4be
00000250: c1e0 db3e 6af7 21be d69e bb3e dd2c b33e
00000260: 1926 8abd 9850 443e 390b be3e a3e5 843e
00000270: 41e1 2fbf cf51 b13e c657 b4bd 4733 18be
00000280: 9a77 a13e acb1 89bd 5338 bd3e 1b10 ad3e
00000290: 621f 1f3d 4c7b 85be bc7c ab3e e16c aa3e
000002a0: 3443 873e b8be 133d f4e1 563e 5c95 6ebe
000002b0: 3281 9abe f69a 4ebd 11b0 a7bc 6b27 a33e
000002c0: 1820 cd3e c455 993e 0c52 9a3e d9ca c23e
000002d0: ef1c ad3e 5091 a33e 2eb6 d53e b4b8 963e
000002e0: 925b 89be 3920 e7bd cd05 8cbe dbeb 883e
000002f0: 1def af3e 1c86 9f3e 8fa2 c23d 547a b7bc
00000300: 2559 b13e 92a8 933e 494a d83e fa92 c63e
00000310: ffd1 f03e 15df bdbc d001 8b3e 230b 3b3e
00000320: ccfc 8bbe 9e6f eb3e 0708 a73e 08ad cf3e
00000330: 2ff1 2f3e a55e 813e dd8f e83e e15c 0bbf
00000340: 97c3 d03e eb03 e8bd 7197 873e d96a 473d
00000350: 84e3 c33e deba b13e 6f2d a13e ca30 8ebe
00000360: e803 ca3e b6c8 30be d25d b93b 1087 90be
00000370: ae77 e4be 90aa a03d 2f17 a73e 92a2 b13e
00000380: 26e5 9a3e 41e0 bb3e 4286 e73e 0e1c 303f
00000390: 257f a7bd 788d b63e fb11 d83e 23b2 f3be
000003a0: f9ab aabe 5bbb c5bc 05fd 943e 3571 adbe
000003b0: 7383 9f3e 81d9 24bd 6efa 01bf 37f4 f0bd
000003c0: 4003 9a3e c198 873e c752 f63c 1a13 c73e
000003d0: c778 9f3e bec4 2ebd f863 10bc 0354 063c
000003e0: f82d 633e a163 5a3d fab8 16be 3aba 72bd
000003f0: c37b 973e 7cfb ce3e cc5f 873e 1373 893e

layer3.bias f4 [2]
0.14214733 0.11361909
00000000: 128f 113e 20b1 e83d
