cartpole_weights/episode_durations_466.pt (torch, 72007 bytes, 6 tensors)

layer1.weight f4 [128, 4]
-0.5799516 -0.5195297 0.1051936 -0.28259438 0.083222084 -0.0065316632 -0.7481772 0.112120606
-0.6358378 -0.29305044 -0.38865843 -0.31137145 -0.10228911 -0.4082552 -0.4887106 -0.036355752
-0.21668483 0.17238897 -0.31537038 -0.54017526 -0.55919045 0.013107818 0.5419244 -0.29460347
0.11053184 -0.080793165 -0.35955888 0.33981532 -0.37968472 0.4252225 0.5541324 -0.27760616
0.18971977 0.14739144 0.52441585 0.05525965 0.37265477 0.38400033 0.13512054 -0.08287585
0.031154165 0.4069029 -0.5336283 0.1540719 -0.6028182 -0.7158671 -0.21008018 -0.5421874
0.32897583 -0.06196881 0.02071374 -0.00940259 0.18727307 0.4862099 -0.411025 -0.20825781
-0.18832995 -0.2278148 0.21806632 -0.09546053 -0.20785038 -0.5576996 -0.23301567 -0.1363025
-0.426234 -0.2879172 0.29851735 -0.10462849 0.5809183 -0.35023487 -0.27042657 0.20933461
0.40757376 0.33870175 -0.11736011 -0.03159198 -0.15073898 -0.32234657 0.88764596 0.016594857
0.32774168 -0.40000564 -0.16609006 -0.059030607 -0.2085734 0.19299492 -0.04702068 0.03005601
0.62746453 0.5541968 1.1370018 0.41746622 -0.4153112 0.11941525 -0.7656462 -0.27783453
-0.26261833 -0.17307866 0.19245665 0.2175388 -0.15808439 -0.3705593 0.5694226 0.15506925
-0.8408242 0.39972025 -0.060347684 0.3260382 -0.17636208 -0.37965298 -0.17961103 -0.025186252
0.25254616 0.22259212 0.79063463 0.35689548 -0.66817963 -0.7193272 -0.6287457 -0.51742333
-0.5028625 0.11292742 0.78355 0.40131703 -0.5293444 -0.4059174 0.3229885 0.3859883
-0.39229417 0.4868552 -0.10644572 -0.076222956 -0.604451 0.23767309 -0.045879304 0.21564402
0.63579303 0.22340715 -0.3860143 -0.07897607 -0.37659696 -0.0212048 0.76927084 0.5011139
-0.51779056 -0.35574302 -0.24814034 -0.06467661 -0.009674662 0.51286995 0.12174821 0.011102425
-0.2966188 -0.44140565 -0.5654063 0.11514391 0.2367049 -0.4316299 0.6478391 0.37212622
0.1725401 0.18410325 0.57423395 0.38881758 0.20561223 0.10609161 0.15308033 0.28680778
-0.057959396 -0.23072079 -0.3384414 -0.18383338 -0.08015966 -0.14198545 -0.04418741 0.07375112
-0.02932947 0.35989296 0.28719392 -0.06672478 -0.6493513 -0.18747051 0.49165317 -0.07241993
-0.54328334 0.08484611 0.22012657 -0.36422822 0.010969654 -0.48403516 -1.3529063 -0.407205
-0.09680043 -0.31156945 -0.5111788 0.24784371 -0.03512258 0.10155172 -0.09223321 0.19899648
0.0754804 0.47460794 0.73919517 0.44984847 -0.31485182 -0.4707771 0.1388322 0.44927454
-0.22759616 -0.03360608 -0.012667104 0.34587082 0.11074325 -0.7915932 -1.3331803 -0.57758456
-0.21006468 0.052586865 -0.31075883 0.15319519 0.3567841 -0.49330026 -0.17604324 -0.18662663
0.4603628 0.15832311 0.3427772 0.23019697 -0.29989508 0.28489223 0.64742863 0.3014859
0.15844692 0.4074729 0.50144905 -0.307891 0.28660828 -0.35556248 -0.43122557 -0.38503945
0.21619621 -0.26360393 -0.24082206 -0.45971504 -0.52583194 -0.56761116 0.009527222 -0.109021194
0.39567354 -0.17841423 0.18787426 -0.13417667 0.5438815 0.48059064 -0.12696606 -0.06981154
00000000: b577 14bf e6ff 04bf be6f d73d 36b0 90be
00000010: 5770 aa3d 9007 d6bb 8a88 3fbf 7d9f e53d
00000020: 44c6 22bf b50a 96be 3dfe c6be 146c 9fbe
00000030: f47c d1bd d306 d1be 4738 fabe c5e9 14bd
00000040: a1e2 5dbe bc86 303e 3a78 a1be ed48 0abf
00000050: 1b27 0fbf 2cc2 563c 8fbb 0a3f 44d6 96be
00000060: 845e e23d e376 a5bd 1a18 b8be 46fc ad3e
00000070: 0966 c2be c3b6 d93e 9fdb 0d3f 6522 8ebe
00000080: e645 423e c8ed 163e 1e40 063f f157 623d
00000090: 9bcc be3e b19b c43e 0a5d 0a3e d0ba a9bd
000000a0: 0537 ff3c 9455 d03e dd9b 08bf 06c5 1d3e
000000b0: 4b52 1abf 1143 37bf 421f 57be cbcc 0abf
000000c0: 856f a83e 02d3 7dbd dcaf a93c 520d 1abc
000000d0: 83c4 3f3e 81f0 f83e de71 d2be 8941 55be
000000e0: 91d9 40be 4848 69be c74c 5f3e cf80 c3bd
000000f0: bbd6 54be 67c5 0ebf a99b 6ebe e292 0bbe
00000100: 583b dabe e269 93be 44d7 983e 7647 d6bd
00000110: 10b7 143f fc51 b3be 5a75 8abe d05b 563e
00000120: 82ad d03e 516a ad3e 7f5a f0bd 9866 01bd
00000130: 525b 1abe 9c0a a5be c43c 633f f0f1 873c
00000140: c2cd a73e 8acd ccbe 8313 2abe 14ca 71bd
00000150: 4494 55be 76a0 453e c298 40bd 0538 f63c
00000160: 84a1 203f d7df 0d3f 4689 913f 22be d53e
00000170: aba3 d4be fc8f f43d 6401 44bf 5440 8ebe
00000180: e975 86be 883b 31be 5b13 453e 7ec2 5e3e
00000190: e0e0 21be f3b9 bdbe aec5 113f 79ca 1e3e
000001a0: 4140 57bf 22a8 cc3e 222f 77bd 7bee a63e
000001b0: 4398 34be e061 c2be f4eb 37be 6653 cebc
000001c0: bb4d 813e 30ef 633e 0867 4a3f 01bb b63e
000001d0: d20d 2bbf d425 38bf 7af5 20bf db75 04bf
000001e0: 99bb 00bf 7e46 e73d bc96 483f 6d79 cd3e
000001f0: 1d83 07bf 68d4 cfbe c05e a53e 42a0 c53e
00000200: c8da c8be 1645 f93e 3700 dabd c81a 9cbd
00000210: 4dbd 1abf 9360 733e f0eb 3bbd c9d1 5c3e
00000220: 55c3 223f d8c4 643e aba3 c5be 35be a1bd
00000230: 51d1 c0be b0b5 adbc efee 443f 0049 003f
00000240: ec8d 04bf f323 b6be 8018 7ebe 2c75 84bd
00000250: 7982 1ebc 724b 033f 2057 f93d f2e6 353c
00000260: 6bde 97be ecff e1be 78be 10bf 92d0 eb3d
00000270: c562 723e 98fe dcbe c9d8 253f 5487 be3e
00000280: 5aae 303e 9085 3c3e ff00 133f 1913 c73e
00000290: 038c 523e 8f46 d93d 17c1 1c3e 78d8 923e
000002a0: d566 6dbd 1242 6cbe 3148 adbe d13e 3cbe
000002b0: bf2a a4bd a264 11be dcfd 34bd d40a 973d
000002c0: 5b44 f0bc e443 b83e 150b 933e 00a7 88bd
000002d0: e33b 26bf 45f8 3fbe f7b9 fb3e e650 94bd
000002e0: 9e14 0bbf ccc3 ad3d dc68 613e 1f7c babe
000002f0: 10ba 333c 75d3 f7be 092c adbf 2c7d d0be
00000300: 4e3f c6bd 0886 9fbe 9ddc 02bf beca 7d3e
00000310: b2dc 0fbd 59fa cf3d c4e4 bcbd bcc5 4b3e
00000320: 7895 9a3d d0ff f23e e53b 3d3f 8a52 e63e
00000330: 4234 a1be b209 f1be 072a 0e3e 5007 e63e
00000340: f80e 69be 87a6 09bd af89 4fbc fb15 b13e
00000350: 5bcd e23d daa5 4abf a7a5 aabf 95dc 13bf
00000360: 321b 57be 5365 573d c81b 9fbe 33df 1c3e
00000370: 68ac b63e da91 fcbe ae44 34be 0d1b 3fbe
00000380: acb4 eb3e 741f 223e 7e80 af3e c1b8 6b3e
00000390: d98b 99be 65dd 913e e2bd 253f 5c5c 9a3e
000003a0: e93f 223e 4aa0 d03e f75e 003f e4a3 9dbe
000003b0: 52be 923e 490c b6be 99c9 dcbe e423 c5be
000003c0: 8a62 5d3e 18f7 86be 0f9a 76be c55f ebbe
000003d0: ec9c 06bf f74e 11bf 1118 1c3c 8146 dfbd
000003e0: b995 ca3e 38b2 36be 1c62 403e 9c65 09be
000003f0: d13b 0b3f fa0f f63e 6403 02be 5af9 8ebd

layer1.bias f4 [128]
-0.027490525 0.22161266 0.585934 0.2751292 -0.25396875 0.3908683 0.5543677 0.5542684
0.2825751 -0.12904364 -0.123500615 -0.052267063 0.30544847 0.05153675 0.5309934 -0.13247758
0.2594809 0.2135502 0.33382598 -0.53726953 0.3628925 -0.37867865 -0.044409014 -0.20580402
-0.3656356 -0.39008507 -0.15416674 0.6211698 -0.430342 -0.025248256 -0.37271026 -0.43477294
0.66554165 0.37592605 -0.43899643 -0.5251773 0.54365456 0.37644264 0.46720397 -0.4418929
-0.4323462 0.69783443 0.7011857 0.628159 0.49370864 0.3157858 0.4318579 -0.11501081
0.47741726 0.36665148 -0.030361895 0.36541182 -0.46273097 -0.045490436 0.6460699 0.55045795
0.67883873 0.60028327 0.65085965 0.71178937 0.5184615 0.020666366 -0.41243574 -0.27560723
0.38167018 0.28839657 0.5098147 -0.27680457 0.3822957 0.6844356 0.45043454 0.5678661
0.16816953 0.60743135 -0.06764001 0.26489973 0.51832044 0.16573921 -0.3301135 -0.26112702
-0.3510685 0.3291058 -0.5092209 -0.050583344 -0.11680372 -0.33423626 0.52319753 0.278224
0.46605843 -0.036955636 0.35250002 -0.4763789 -0.47880617 0.6891608 0.011387027 0.6495682
0.6374553 0.23654872 -0.16083018 0.20211658 -0.54518926 -0.053278 -0.042915933 0.305861
0.3288819 -0.016146569 0.50322956 -0.42682448 -0.1792828 0.30209592 -0.3543841 0.41894802
0.16940723 0.35420653 0.3885933 -0.32870764 0.43312287 0.059766565 -0.3715691 -0.49824902
0.5954455 0.100832045 -0.22109942 -0.40912387 0.20231725 -0.014957717 -0.11998973 0.02272573
00000000: cf33 e1bc 6eee 623e c5ff 153f bcdd 8c3e
00000010: 3108 82be e41f c83e 0beb 0d3f 89e4 0d3f
00000020: afad 903e 0424 04be e4ed fcbd fd15 56bd
00000030: be63 9c3e 3318 533d 2fef 073f 34a8 07be
00000040: aeda 843e e7ac 5a3e 3deb aa3e 7f8a 09bf
00000050: 0ccd b93e 2be2 c1be 3ae6 35bd 4abe 52be
00000060: 9734 bbbe 3bb9 c7be e3dd 1dbe fc04 1f3f
00000070: c955 dcbe 6ed5 cebc e1d3 bebe 8f9a debe
00000080: f060 2a3f 6179 c03e 24c4 e0be 0572 06bf
00000090: f22c 0b3f 17bd c03e 5c35 ef3e c93f e2be
000000a0: 7b5c ddbe 47a5 323f e880 333f 07cf 203f
000000b0: 61c7 fc3e adae a13e 7b1c dd3e ca8a ebbd
000000c0: 0970 f43e beb9 bb3e 82b9 f8bc 4217 bb3e
000000d0: 13eb ecbe 2e54 3abd d664 253f d0ea 0c3f
000000e0: 60c8 2d3f 2aac 193f bd9e 263f d437 363f
000000f0: e5b9 043f 834c a93c c72a d3be 641c 8dbe
00000100: 466a c33e b7a8 933e 3783 023f 54b9 8dbe
00000110: 43bc c33e 2c37 2f3f 5b9f e63e ac5f 113f
00000120: a234 2c3e 9f80 1b3f d886 8abd f0a0 873e
00000130: a6b0 043f 8ab7 293e a304 a9be 71b2 85be
00000140: 40bf b3be 8e80 a83e 4d5c 02bf 7b30 4fbd
00000150: ca36 efbd 0421 abbe 46f0 053f 6073 8e3e
00000160: 369f ee3e cb5e 17bd e27a b43e efe7 f3be
00000170: 1526 f5be d86c 303f a790 3a3c 1a4a 263f
00000180: 4530 233f d439 723e abb0 24be a6f7 4e3e
00000190: 8691 0bbf 083a 5abd 9ec8 2fbd d099 9c3e
000001a0: 3563 a83e cf45 84bc a7d3 003f bd88 dabe
000001b0: e995 37be 51ac 9a3e d571 b5be 5b80 d63e
000001c0: 1779 2d3e 8f5a b53e b3f5 c63e 5e4c a8be
000001d0: 48c2 dd3e c9cd 743d 4e3e bebe 7f1a ffbe
000001e0: 1e6f 183f 0881 ce3d e367 62be af78 d1be
000001f0: 412c 4f3e 3611 75bc 2dbd f5bd 4f2b ba3c

layer2.weight f4 [128, 128]
-0.61532956 0.09975327 0.017854208 0.001643831 0.005374523 0.07144218 0.10034262 -0.059232682
0.12308084 -0.19984743 -0.22833979 -0.3624991 0.19334272 0.0074874815 0.10287256 -0.14028805
-0.017506639 0.11255361 -0.024823757 -0.22360459 0.16692623 0.019535799 -0.21679538 -0.3956504
-0.100406736 -0.1080765 -0.41238895 0.1456722 -0.44150144 -0.44729617 -0.064675055 -0.09951912
0.029968265 0.12119425 -0.24191514 -0.038450878 0.03520599 0.053507857 0.09307433 0.009466004
-0.39452207 0.11462252 0.12584971 0.109756365 0.051392887 0.13112958 -0.016429223 -0.6226982
-0.010118204 0.021436373 -0.30910262 -0.012906279 -0.18998346 -0.82359385 0.09159908 0.18881987
0.040603105 0.022309244 0.05395796 0.16484278 0.01173466 -0.11845402 -0.07485366 -0.12712443
0.1253274 -0.04412229 -0.04818768 -0.18186104 0.07206225 0.014053973 -0.07317932 0.035250362
0.08428057 -0.02920108 -0.4395541 -0.067331225 0.035265226 0.34667766 -0.47186828 -0.0984526
0.08202732 0.061157715 -0.36281645 -0.2550944 -0.106395036 -0.35191 0.00042556188 0.07711509
0.010947476 -0.29727054 -0.029093726 -0.13412023 -0.20038767 -0.005097621 -0.09543066 0.07340971
0.119509 0.20284002 -0.20454559 0.018744983 -0.16808867 -0.470701 -0.24844633 -0.022356836
0.059427526 -0.28608346 0.028179748 -0.014798177 -0.09175122 0.04524321 -0.048591178 0.010235064
0.00893478 -0.08806391 0.11188218 -0.49305692 0.055358615 -0.09824185 -0.27909246 -0.4989128
0.13065273 -0.20797686 -0.9249078 -0.110684164 -0.11218227 -0.3137146 -0.8452165 -0.5373237
-0.038174253 0.04065803 0.06630342 0.0073642707 -0.034391522 0.04027475 -0.012537126 0.021837773
-0.039293732 -0.083116375 -0.06456502 0.015937794 0.030991994 -0.009684283 0.008723459 -0.037758056
0.033169832 -0.009367677 -0.06597195 0.03325649 0.020909736 0.018068366 0.03874214 -0.068823904
0.070765175 -0.023930138 0.038613845 -0.017925281 -0.026662145 -0.07335771 0.037835106 0.014981322
0.048647627 -0.07388742 -0.057899825 0.022680182 -0.07856341 0.058552567 0.037032764 -0.07535667
0.057177246 -0.038432762 -0.039440755 -0.0077172564 -0.041686323 -0.016394932 -0.00975019 0.0017962322
-0.015207984 0.051496767 -0.08345971 0.022241808 -0.05534074 -0.05182768 -0.06279239 0.0008524687
0.017458169 0.04290677 -0.03907268 -0.018844265 0.045022618 0.0047781467 -0.0035829607 -0.07717844
-0.01760879 -0.059416596 -0.08863688 -0.012467475 -0.08949921 0.06746752 0.07316126 -0.029665662
-0.056632657 -0.027175684 0.0057195686 0.062012643 0.06524712 -0.040305845 -0.025518682 0.03449544
0.058910806 0.071432814 -0.07010942 -0.016572641 0.06705066 0.05306784 0.041753065 -0.082132414
-0.00796535 -0.07351458 -0.08774306 -0.049556714 0.07338631 0.07001016 -0.05921902 -0.0718576
0.063793056 0.07301932 0.003834881 -0.06536299 -0.012595976 0.00038944895 -0.06606372 0.0727082
-0.016805287 -0.07738555 0.0001747091 -0.050522562 0.008194351 -0.06826562 -0.034225814 0.023359526
-0.030227972 -0.03632864 -0.0365978 -0.057907574 -0.061346926 -0.022061955 -0.0076092314 -0.0249996
0.039398037 0.053170472 -0.01018422 -0.027081827 -0.0356067 0.048063293 -0.039405975 0.013183613
00000000: 3d86 1dbf 714b cc3d fd42 923c d175 d73a
00000010: c41c b03b 4750 923d 6e80 cd3d f89d 72bd
00000020: cf11 fc3d cea4 4cbe e8d1 69be 7b99 b9be
00000030: a2fb 453e 8c59 f53b d9ae d23d aca7 0fbe
00000040: 156a 8fbc 8282 e63d 315b cbbc 9af8 64be
00000050: b6ee 2a3e 8a09 a03c 9cff 5dbe b092 cabe
00000060: 0ca2 cdbd 3657 ddbd a524 d3be 182b 153e
00000070: 7a0c e2be 0104 e5be 5b74 84bd aed0 cbbd
00000080: 0280 f53c b134 f83d 9ab8 77be ab7e 1dbd
00000090: 2834 103d 0e2b 5b3d c19d be3d 4c17 1b3c
000000a0: ccfe c9be 36bf ea3d bfde 003e f2c7 e03d
000000b0: 5981 523d d546 063e 9496 86bc 2669 1fbf
000000c0: d3c6 25bc 559b af3c b342 9ebe dc74 53bc
000000d0: 068b 42be 0cd7 52bf 4c98 bb3d ff59 413e
000000e0: 714f 263d e0c1 b63c 0603 5d3d 8ccc 283e
000000f0: bb42 403c 0598 f2bd e04c 99bd e82c 02be
00000100: d355 003e 93b9 34bd 7260 45bd c839 3abe
00000110: 5f95 933d a342 663c 0adf 95bd af62 103d
00000120: 4b9b ac3d 1a37 efbc 3c0d e1be f4e4 89bd
00000130: 4572 103d bc7f b13e b898 f1be 84a1 c9bd
00000140: f1fd a73d 8380 7a3d 14c3 b9be bc9b 82be
00000150: a4e5 d9bd 8c2d b4be f31d df39 84ee 9d3d
00000160: 0b5d 333c d833 98be f755 eebc d056 09be
00000170: 6d32 4dbe f209 a7bb 2671 c3bd d457 963d
00000180: 22c1 f43d 4bb5 4f3e 6674 51be 148f 993c
00000190: 701f 2cbe b9ff f0be b768 7ebe af25 b7bc
000001a0: 476a 733d 8879 92be 37d9 e63c 0e74 72bc
000001b0: 10e8 bbbd f250 393d 8b07 47bd f8b0 273c
000001c0: 2f63 123c da5a b4bd 7c22 e53d f571 fcbe
000001d0: b7bf 623d 0633 c9bd 35e5 8ebe 8071 ffbe
000001e0: d4c9 053e e3f7 54be c2c6 6cbf 61ae e2bd
000001f0: d1bf e5bd 339f a0be 1c60 58bf 0c8e 09bf
00000200: 9b5c 1cbd 0989 263d 16ca 873d fb4f f13b
00000210: 20de 0cbd 23f7 243d 8568 4dbc 21e5 b23c
00000220: 77f2 20bd eb38 aabd aa3a 84bd fa8f 823c
00000230: ece2 fd3c d4aa 1ebc d7ec 0e3c 31a8 1abd
00000240: 17dd 073d e37a 19bc 4d1c 87bd f537 083d
00000250: e54a ab3c 1c04 943c 14b0 1e3d 8cf3 8cbd
00000260: 55ed 903d 2309 c4bc 8d29 1e3d 0ad8 92bc
00000270: 926a dabc 913c 96bd fcf8 1a3d 3874 753c
00000280: bc42 473d 4a52 97bd 5e28 6dbd cacb b93c
00000290: dae5 a0bd d1d4 6f3d abaf 173d 9954 9abd
000002a0: b032 6a3d ac6b 1dbd a18c 21bd 0ae1 fcbb
000002b0: 47bf 2abd aa4e 86bc 43bf 1fbc 8d6f eb3a
000002c0: e82a 79bc 46ee 523d edec aabd 7434 b63c
000002d0: f9ac 62bd 4349 54bd 4c99 80bd 3578 5f3a
000002e0: 6f04 8f3c 02bf 2f3d ad0a 20bd 4a5f 9abc
000002f0: a369 383d 0092 9c3b 1bd0 6abb bb0f 9ebd
00000300: 4f40 90bc d15e 73bd 4187 b5bd 6144 4cbc
00000310: 5d4b b7bd 692c 8a3d 92d5 953d 6705 f3bc
00000320: a5f7 67bd 8a9f debc 386b bb3b f800 7e3d
00000330: 48a0 853d be17 25bd 8e0c d1bc 174b 0d3d
00000340: 754c 713d 5e4b 923d 8795 8fbd 59c3 87bc
00000350: db51 893d aa5d 593d 4305 2b3d 0a35 a8bd
00000360: 1981 02bc d08e 96bd a2b2 b3bd fbfb 4abd
00000370: 904b 963d 7d61 8f3d a58f 72bd 142a 93bd
00000380: efa5 823d 278b 953d a052 7b3b 08dd 85bd
00000390: 5a5f 4ebc f42e cc39 6a4c 87bd 09e8 943d
000003a0: 3eab 89bc 517c 9ebd 1e32 3739 bff0 4ebd
000003b0: 9941 063c d8ce 8bbd 5e30 0cbd 7a5c bf3c
000003c0: a7a0 f7bc 57cd 14bd 93e7 15bd 7e30 6dbd
000003d0: ea46 7bbd 46bb b4bc dc56 f9bb f6cb ccbc
000003e0: d65f 213d 48c9 593d b7db 26bc b5da ddbc
000003f0: 55d8 11bd 04de 443d 2968 21bd 1500 583c

layer2.bias f4 [128]
0.050685976 -0.010954947 0.06911929 0.2349651 -0.026587525 -0.030083615 0.016321834 -0.018243833
0.04131888 0.03703474 0.004914855 0.29473412 0.24489178 -0.08068105 0.1523907 0.26013806
0.17761922 0.29749957 0.13498746 -0.018452177 0.3346826 -0.19930045 0.20330745 0.05410991
0.07785072 0.14481743 0.21183349 0.2536411 -0.1799583 0.25099933 -0.013705951 -0.008545047
0.06066356 0.027942646 0.021662427 0.24404424 -0.029128565 -0.021262476 0.14578556 0.09803655
0.23399144 0.007680043 0.2529364 -0.037648365 -0.08619412 0.064124145 -0.062055074 0.21454948
0.27486283 0.3205115 0.06639476 0.08041493 0.38885072 0.25395992 -0.012987446 0.15051694
-0.076544374 -0.038804762 0.008356266 0.1311109 0.026925666 0.09801112 -0.02516346 -0.070931114
0.11441547 0.27790174 -0.033819553 0.08897551 0.00028206248 -0.08136382 0.14968574 0.13001865
-0.0024479844 0.12166452 0.22788891 0.06562497 -0.004971628 0.07705863 0.15252729 -0.15371785
0.2124493 0.0820618 0.30739605 0.05272717 0.12963814 -0.003326451 0.04117668 -0.12369953
0.21280837 -0.07014212 0.05780029 -0.15740126 0.000728949 0.06818353 0.2166538 0.33011547
0.3312448 0.23393054 0.09887744 -0.017732901 -0.08178922 0.22464219 -0.013264206 -0.23299582
0.0037644072 -0.06911221 0.082354195 -0.15088436 0.28652045 0.006633805 0.017013881 -0.008990619
0.25604647 0.07926084 0.013684681 0.05601733 0.26504675 -0.015331976 -0.066870645 0.00022998288
0.013483328 0.05781298 0.012469026 0.06390122 0.26536968 -0.039938558 0.12231114 0.13363834
00000000: 199c 4f3d 617c 33bc 6a8e 8d3d b19a 703e
00000010: 15ce d9bc ea71 f6bc 5eb5 853c 1774 95bc
00000020: fc3d 293d bdb1 173d cb0c a13b 64e7 963e
00000030: e9c4 7a3e 1b3c a5bd 4f0c 1c3e d130 853e
00000040: d0e1 353e dd51 983e 273a 0a3e 0529 97bc
00000050: 855b ab3e 6b15 4cbe d42f 503e 5aa2 5d3d
00000060: 3370 9f3d 054b 143e e1ea 583e 3fdd 813e
00000070: fd46 38be fc82 803e ed8e 60bc 8600 0cbc
00000080: 5a7a 783d fae7 e43c 6775 b13c bce6 793e
00000090: 079f eebc a52e aebc cf48 153e 63c7 c83d
000000a0: 749b 6f3e dfa8 fb3b e180 813e 2c35 1abd
000000b0: 8b86 b0bd 8553 833d 762d 7ebd dcb2 5b3e
000000c0: d2ba 8c3e 151a a43e faf9 873d 95b0 a43d
000000d0: 7117 c73e 0907 823e 4cc9 54bc 1d21 1a3e
000000e0: 4cc3 9cbd bef1 1ebd b8e8 083c f041 063e
000000f0: 3793 dc3c 0eba c83d 9a23 cebc 5544 91bd
00000100: a852 ea3d 2349 8e3e 5f86 0abd cb38 b63d
00000110: c9e1 9339 13a2 a6bd 3847 193e 9c23 053e
00000120: 5d6e 20bb 3f2b f93d b65b 693e 6266 863d
00000130: 0ae9 a2bb ead0 9d3d 1d30 1c3e 3668 1dbe
00000140: 4f8c 593e 0410 a83d 0463 9d3e 72f8 573d
00000150: dcbf 043e 9600 5abb e1a8 283d 2e56 fdbd
00000160: 70ea 593e aca6 8fbd ffbf 6c3d cc2d 21be
00000170: f016 3f3a cea3 8b3d 7eda 5d3e e504 a93e
00000180: eb98 a93e 7d8b 6f3e 4180 ca3d 9744 91bc
00000190: 1b81 a7bd 9a08 663e 1d52 59bc 7596 6ebe
000001a0: 46b4 763b b48a 8dbd 51a9 a83d 6e81 1abe
000001b0: cfb2 923e 6460 d93b b260 8b3c 644d 13bc
000001c0: 8618 833e 8253 a23d b635 603c 6e72 653d
000001d0: 35b4 873e f832 7bbc 7af3 88bd 8f27 7139
000001e0: 2de9 5c3c 4ecd 6c3d e34a 4c3c a5de 823d
000001f0: 89de 873e 9d96 23bd 437e fa3d 7dd8 083e

layer3.weight f4 [2, 128]
0.33029896 -0.044895276 -0.26445413 0.40800455 0.26730946 0.076796904 -0.14055085 9.540171e-05
-0.30587667 0.3919599 -0.26008826 0.2578336 0.28796244 -0.021143796 0.28872943 0.3806735
0.3179188 0.2126112 0.42042628 -0.2795128 0.29287332 -0.5709797 0.20804003 0.25056335
-0.23750362 0.37521473 0.31458434 0.27943242 -0.29253054 0.35087144 -0.32632428 -0.34064817
0.2783947 0.03725932 0.34406167 0.2300527 -0.0025896344 0.32039177 0.3936446 0.4008706
0.37704584 -0.062870294 0.37115687 -0.27988574 -0.30921644 0.15768223 0.046448886 0.34582627
0.32205686 0.4490097 0.40354213 0.38363793 0.41734204 0.24382111 0.3545739 0.36054996
0.19805583 -0.24915326 -0.07712887 0.37560862 0.38604608 0.27622223 -0.16571897 -0.054612365
0.2773249 0.42815593 0.310876 0.39560378 0.101791106 0.02840879 0.36603186 0.044606403
-0.22857818 0.45878777 0.32943338 0.36917982 -0.12744902 0.18402484 0.3653385 -0.23840082
0.3104715 0.16902928 0.41476905 0.06998725 0.3657905 0.42164826 0.33334866 -0.39840224
0.4122519 -0.25863838 -0.23186597 -0.61269397 -0.18123628 -0.057481527 0.39210844 0.3349555
0.24158761 0.2804208 0.42975467 0.02139392 0.07025005 0.337575 0.40093264 -0.19224632
0.17700364 -0.018251985 0.29945943 -0.28057432 0.42406964 -0.056187462 -0.008560187 -0.126646
0.44610894 0.14109121 -0.31299976 0.45453823 0.39726907 -0.01174516 0.010802058 -0.056278624
-0.16747813 0.20306057 -0.29570875 -0.019633029 0.30397686 0.4523466 -0.012368972 0.37322
0.3650616 0.002073937 -0.3270783 0.45376563 -0.10086052 0.07920856 -0.15509824 -0.040855337
-0.54254687 0.30079132 -0.15905116 0.28628734 0.33710966 -0.010552641 0.3348396 0.35031658
0.4011353 0.30321485 0.30172208 -0.31903148 0.42401356 -0.13966113 0.36049527 0.35193706
-0.06516743 0.19209194 0.36613023 0.25416398 -0.6691083 0.34065682 -0.08132371 -0.13270955
0.31687975 -0.067499086 0.37139684 0.33908516 0.039010644 -0.26292342 0.33799088 0.33442086
0.26508674 0.03621815 0.21136771 -0.23003043 -0.29823807 -0.057347868 -0.020550875 0.3132259
0.39483923 0.29336217 0.30247226 0.38226318 0.33251587 0.31336787 0.41950095 0.2960442
-0.26753777 -0.11327866 -0.27374667 0.26862013 0.34527978 0.31365177 0.09622824 -0.022485755
0.34835482 0.28196216 0.42451972 0.3893809 0.47332543 -0.0232736 0.2737175 0.17732355
-0.27335197 0.46238434 0.32837036 0.4077698 0.17047049 0.24507858 0.45818645 -0.5342287
0.40241936 -0.11373151 0.25873402 0.048877757 0.3865237 0.34876546 0.31606528 -0.26572964
0.38881975 -0.16929792 0.006812382 -0.22619042 -0.4252146 0.07877503 0.32022607 0.34116378
0.29661497 0.36247453 0.45421782 0.68987024 -0.08211019 0.3508146 0.42379734 -0.4614082
-0.3066407 -0.024233127 0.29220745 -0.33303607 0.30526572 -0.040408846 -0.5098529 -0.11812561
0.29490748 0.25782168 0.034296524 0.3906452 0.30520487 -0.042845212 -0.008849796 0.00823195
0.2189219 0.053392377 -0.14340878 -0.059495784 0.29333973 0.4062069 0.25836298 0.27117524
00000000: f21c a93e 1ce4 37bd 8866 87be f9e5 d03e
00000010: c9dc 883e b247 9d3d 90ec 0fbe 6712 c838
00000020: de9b 9cbe f8ae c83e 4a2a 85be c402 843e
00000030: d06f 933e c135 adbc 58d4 933e a3e7 c23e
00000040: 41c6 a23e c0b6 593e 1d42 d73e 4d1c 8fbe
00000050: 7ef3 953e ba2b 12bf 7208 553e d749 803e
00000060: 2634 73be 251c c03e 3311 a13e c411 8f3e
00000070: 90c6 95be 6ca5 b33e fa13 a7be 7069 aebe
00000080: c089 8e3e 3b9d 183d da28 b03e ef92 6b3e
00000090: dbb6 29bb 640a a43e c98b c93e e93e cd3e
000000a0: 270c c13e 24c2 80bd 4608 be3e 2f4d 8fbe
000000b0: 9e51 9ebe 7377 213e 3041 3e3d 2410 b13e
000000c0: a3e4 a43e 99e4 e53e 139d ce3e 316c c43e
000000d0: dbad d53e 3eac 793e b68a b53e 019a b83e
000000e0: 26cf 4a3e 0822 7fbe bef5 9dbd c64f c03e
000000f0: d5a7 c53e 006d 8d3e 3cb2 29be 37b1 5fbd
00000100: 87fd 8d3e 4137 db3e 242b 9f3e 948c ca3e
00000110: db77 d03d 8db9 e83c 8768 bb3e 34b5 363d
00000120: 6610 6abe 3be6 ea3e 7eab a83e 2305 bd3e
00000130: ff81 02be 0271 3c3e a60d bb3e 581f 74be
00000140: 1ff6 9e3e 0316 2d3e 9c5c d43e 7a55 8f3d
00000150: e448 bb3e 48e2 d73e adac aa3e 61fb cbbe
00000160: ae12 d33e 406c 84be 466e 6dbe 83d9 1cbf
00000170: 0196 39be c071 6bbd 70c2 c83e 4a7f ab3e
00000180: be62 773e 5193 8f3e ce08 dc3e 4d42 af3c
00000190: 42df 8f3d a1d6 ac3e 0b47 cd3e 38dc 44be
000001a0: 7140 353e 3085 95bc bf52 993e 70a7 8fbe
000001b0: a81f d93e d324 66bd 0740 0cbc 7daf 01be
000001c0: 6468 e43e 377a 103e 8141 a0be 3cb9 e83e
000001d0: da66 cb3e c66e 40bc 1dfb 303c 6a84 66bd
000001e0: 637f 2bbe 1cef 4f3e 2367 97be 72d5 a0bc
000001f0: dba2 9b3e f999 e73e 3ba7 4abc b116 bf3e
00000200: 5be9 ba3e e4ea 073b cf76 a7be f853 e83e
00000210: f68f cebd 1938 a23d 13d2 1ebe ed57 27bd
00000220: 5ae4 0abf 5201 9a3e 4fde 22be 4194 923e
00000230: a399 ac3e fce4 2cbc 1970 ab3e b25c b33e
00000240: 9b61 cd3e fa3e 9b3e 517b 9a3e 1858 a3be
00000250: 4e18 d93e 5403 0fbe d692 b83e 1831 b43e
00000260: 8076 85bd c0b3 443e 6c75 bb3e c821 823e
00000270: ae4a 2bbf 926a ae3e 0c8d a6bd 03e5 07be
00000280: 103e a23e f63c 8abd ba27 be3e 929c ad3e
00000290: a0c9 1f3d e69d 86be 240d ad3e 3639 ab3e
000002a0: 73b9 873e 7c59 143d c770 583e 198d 6bbe
000002b0: a9b2 98be 99e5 6abd 4f5a a8bc 255f a03e
000002c0: 5e28 ca3e 9133 963e a5dd 9a3e 00b8 c33e
000002d0: 853f aa3e c171 a03e d4c8 d63e 1b93 973e
000002e0: b6fa 88be a4fe e7bd 8628 8cbe 9488 893e
000002f0: 83c8 b03e f796 a03e 5013 c53d 0c34 b8bc
00000300: 905b b23e 585d 903e a65a d93e ef5c c73e
00000310: b657 f23e 47a8 bebc b324 8c3e 4e94 353e
00000320: caf4 8bbe a4bd ec3e 2920 a83e 34c7 d03e
00000330: d18f 2e3e e1f5 7a3e 6a97 ea3e 36c3 08bf
00000340: e909 ce3e 11ec e8bd c978 843e 0b34 483d
00000350: 6fe6 c53e 6391 b23e 4fd3 a13e b70d 88be
00000360: 6213 c73e 6f5c 2dbe 673a df3b 769e 67be
00000370: bab5 d9be ce54 a13d acf4 a33e 05ad ae3e
00000380: ebdd 973e 4396 b93e 3d8f e83e 569b 303f
00000390: 6329 a8bd f99d b33e f7fb d83e b23d ecbe
000003a0: 0300 9dbe 8d84 c6bc 379c 953e b483 aabe
000003b0: ca4b 9c3e bf83 25bd b885 02bf d7eb f1bd
000003c0: 1dfe 963e 3401 843e 837a 0c3d a602 c83e
000003d0: d043 9c3e 767e 2fbd bcfe 10bc 4ddf 063c
000003e0: 102d 603e f7b1 5a3d c0d9 12be dab1 73bd
000003f0: a030 963e 5afa cf3e 2748 843e 7bd7 8a3e

layer3.bias f4 [2]
0.14183104 0.113304876
00000000: 283c 113e 630c e83d
