cartpole_weights/episode_durations_472.pt (torch, 72007 bytes, 6 tensors)

layer1.weight f4 [128, 4]
0	0xbf1455e8	-0.5794358
1	0xbf0322d9	-0.5122505
2	0x3dc050fc	0.093904465
3	0xbe922f5c	-0.28551757
4	0x3da415df	0.08011984
5	0xbc344527	-0.011002815
6	0xbf3d2af0	-0.7389364
7	0x3dde0b82	0.10842039
8	0xbf220e15	-0.6330274
9	0xbe976ee1	-0.2957678
10	0xbec28292	-0.37990242
11	0xbe9efce9	-0.3105233
12	0xbdd4790d	-0.10374651
13	0xbed2d0db	-0.4117497
14	0xbef5b858	-0.47992206
15	0xbd1952df	-0.037432548
16	0xbe80b321	-0.25136665
17	0x3e125237	0.14289175
18	0xbea9f3ba	-0.3319376
19	0xbf08853c	-0.533283
20	0xbf0f13fb	-0.5588986
21	0x3c09b1be	0.008404193
22	0x3f0b3c28	0.54388666
23	0xbe97fef7	-0.2968671
24	0x3ddf428c	0.10901365
25	0xbdac4693	-0.084118985
26	0xbeb3a609	-0.35087612
27	0x3eab0fb3	0.33410415
28	0xbec2c909	-0.38044003
29	0x3ed6be8f	0.4194226
30	0x3f0e5db8	0.55611753
31	0xbe903336	-0.2816407
32	0x3e4f709d	0.20257802
33	0x3e165751	0.14681746
34	0x3f073fee	0.52831924
35	0x3d5c20ef	0.053742345
36	0x3ebdc97b	0.3706778
37	0x3ec2a44e	0.3801598
38	0x3e0a048e	0.134783
39	0xbd9c04b3	-0.07618084
40	0x3cfdef5f	0.03099793
41	0x3ecf47c0	0.40484428
42	0xbf07ee67	-0.5309815
43	0x3e1d044a	0.15333667
44	0xbf1a4a16	-0.60269296
45	0xbf3677cf	-0.71276563
46	0xbe5face0	-0.2184329
47	0xbf078ab8	-0.52946043
48	0x3eac0a59	0.33601645
49	0xbd7cdd54	-0.061734512
50	0x3cd60a70	0.026128024
51	0xbc4df812	-0.012571352
52	0x3e4048e3	0.18777804
53	0x3ef30856	0.47467297
54	0xbecd9a09	-0.40156582
55	0xbe408759	-0.18801631
56	0xbe3fab6d	-0.18717737
57	0xbe6bfd3e	-0.23045823
58	0x3e64eaaf	0.2235515
59	0xbdc5c57e	-0.09656809
60	0xbe5810cb	-0.21100156
61	0xbf0dbc59	-0.5536552
62	0xbe6ebed6	-0.23314986
63	0xbe0d16ff	-0.13778304
64	0xbed9e4ee	-0.42557472
65	0xbe94b172	-0.2904163
66	0x3e9b639d	0.30349436
67	0xbddb8e8d	-0.10720549
68	0x3f135998	0.57558584
69	0xbeb55f3b	-0.35424218
70	0xbe854914	-0.26032317
71	0x3e52fbb5	0.20603831
72	0x3ed4e08c	0.41577566
73	0x3ea9f0cc	0.33191526
74	0xbde39a48	-0.11113411
75	0xbcd75f29	-0.026290493
76	0xbe3788b0	-0.17923236
77	0xbea8083a	-0.32818776
78	0x3f5e3299	0.86795956
79	0x3c39c4e9	0.011338451
80	0x3ea6130e	0.32436413
81	0xbece43ba	-0.40286046
82	0xbe20be44	-0.1569758
83	0xbd818981	-0.06325055
84	0xbe548670	-0.20754409
85	0x3e44a5e8	0.19203913
86	0xbd3f9e34	-0.046781734
87	0x3cf503a5	0.029908964
88	0x3f1fba68	0.6239381
89	0x3f0d1fa3	0.551264
90	0x3f90e382	1.131943
91	0x3ed4a727	0.41533777
92	0xbed4873e	-0.41509432
93	0x3df44785	0.11927704
94	0xbf4346c0	-0.7627983
95	0xbe8d6903	-0.2761918
96	0xbe8c2514	-0.27372038
97	0xbe30124f	-0.17194484
98	0x3e34cff1	0.17657448
99	0x3e555237	0.20832144
100	0xbe31a283	-0.1734715
101	0xbebf6af6	-0.37386292
102	0x3f0e2afa	0.5553433
103	0x3e19e1a7	0.15027486
104	0xbf587be6	-0.84564054
105	0x3eccabcf	0.3997483
106	0xbd97f58b	-0.074198805
107	0x3ea5237a	0.3225363
108	0xbe346c65	-0.17619474
109	0xbec3aa74	-0.38215983
110	0xbe30a193	-0.17249136
111	0xbcd9938b	-0.026559612
112	0x3e80a045	0.25122276
113	0x3e62ce16	0.22148928
114	0x3f496c7a	0.7868115
115	0x3eb5d3b9	0.35513094
116	0xbf2af5b4	-0.66781163
117	0xbf36f987	-0.714745
118	0xbf22c0fe	-0.6357573
119	0xbf02337c	-0.5085981
120	0xbefdfd06	-0.49607104
121	0x3def8173	0.11694612
122	0x3f45fad8	0.7733588
123	0x3eca5ba6	0.39523047
124	0xbf0741e5	-0.5283492
125	0xbecdc1f3	-0.40187034
126	0x3ea4d485	0.3219339
127	0x3ec3ae5b	0.3821896
128	0xbec97fab	-0.39355215
129	0x3ef5a7fb	0.4797972
130	0xbdd1547e	-0.10221194
131	0xbda4eab8	-0.080525815
132	0xbf19fa42	-0.6014749
133	0x3e6f1e06	0.23351297
134	0xbd25398f	-0.040338095
135	0x3e5a0fbc	0.21295065
136	0x3f21ef53	0.63255805
137	0x3e63a3be	0.22230431
138	0xbec4a91d	-0.38410273
139	0xbda0ea33	-0.0785717
140	0xbec8172c	-0.3908018
141	0xbcb8b9bc	-0.022549503
142	0x3f3ebc71	0.7450629
143	0x3ef96548	0.48710084
144	0xbf040859	-0.5157524
145	0xbeb76437	-0.35818645
146	0xbe76ad5e	-0.24089572
147	0xbd8676e0	-0.06565642
148	0xbbf18e6c	-0.0073717143
149	0x3f027d44	0.5097239
150	0x3dfbc895	0.12294117
151	0xbb3f1421	-0.0029156285
152	0xbe982c1b	-0.2972115
153	0xbee370a8	-0.44421887
154	0xbf0e77b6	-0.55651414
155	0x3de7198d	0.1128417
156	0x3e742d27	0.23845349
157	0xbedb03a4	-0.42776215
158	0x3f253d81	0.6454697
159	0x3ebd6f31	0.36998895
160	0x3e2fc712	0.17165783
161	0x3e3b98a4	0.18319947
162	0x3f124043	0.57129306
163	0x3ec6188b	0.386906
164	0x3e432111	0.19055583
165	0x3dc31880	0.095261574
166	0x3e1d25a1	0.15346386
167	0x3e8ed4d7	0.2789676
168	0xbd69c8cd	-0.057076264
169	0xbe6f0629	-0.23342194
170	0xbea8bb57	-0.3295543
171	0xbe3c711d	-0.18402524
172	0xbda2e8fb	-0.07954594
173	0xbe1483da	-0.14503422
174	0xbd18d42d	-0.03731172
175	0x3d926e4a	0.07149942
176	0xbd053194	-0.032517985
177	0x3eb49498	0.35269618
178	0x3e9428cf	0.28937384
179	0xbd948df4	-0.07253638
180	0xbf25702b	-0.6462428
181	0xbe427b9e	-0.18992469
182	0x3efd6fd0	0.4949937
183	0xbd97bd00	-0.07409096
184	0xbf0b3874	-0.54383016
185	0x3da46497	0.080269985
186	0x3e65b60f	0.22432731
187	0xbebc360a	-0.3675998
188	0x3c25ee78	0.010127656
189	0xbef7582e	-0.48309463
190	0xbfac6636	-1.3468692
191	0xbec94d0b	-0.39316592
192	0xbdc74805	-0.097305335
193	0xbea0f453	-0.31436405
194	0xbf00624c	-0.5014999
195	0x3e7b2220	0.24524736
196	0xbd0c1606	-0.03420069
197	0x3dc908f8	0.09816164
198	0xbdae6876	-0.08516018
199	0x3e482346	0.19544706
200	0x3d99c079	0.07507414
201	0x3ef2a731	0.47393182
202	0x3f3c591f	0.7357349
203	0x3ee37de4	0.44431984
204	0xbea18a03	-0.31550607
205	0xbef3390c	-0.4750446
206	0x3e1574fd	0.14595409
207	0x3ee6ebd3	0.45101795
208	0xbe7b2c27	-0.24528562
209	0xbd115e3a	-0.035490252
210	0xbcfc2452	-0.030779038
211	0x3eab6ae3	0.33479986
212	0x3ddb278f	0.107009046
213	0xbf49962e	-0.7874478
214	0xbfaa6855	-1.331309
215	0xbf10bc4f	-0.56537336
216	0xbe559c05	-0.20860298
217	0x3d474418	0.048648924
218	0xbe9b1267	-0.30287477
219	0x3e1ad438	0.15120018
220	0x3eb63bc8	0.35592484
221	0xbefd797c	-0.49506748
222	0xbe2b3f27	-0.1672331
223	0xbe3f6d5f	-0.18694066
224	0x3eeedf7c	0.4665488
225	0x3e2106fc	0.1572532
226	0x3eb1a2e3	0.34694585
227	0x3e65c771	0.22439362
228	0xbe983ff4	-0.29736292
229	0x3e8fe520	0.28104496
230	0x3f267c7c	0.650337
231	0x3e9884da	0.29788858
232	0x3e20cda4	0.15703446
233	0x3ece0f50	0.40246058
234	0x3eff507b	0.4986609
235	0xbea530da	-0.32263833
236	0x3e929dd7	0.28636047
237	0xbeb717f4	-0.35760462
238	0xbed75943	-0.4206029
239	0xbec46f2f	-0.38366076
240	0x3e5bf92c	0.2148177
241	0xbe8943f0	-0.26809645
242	0xbe6c5d47	-0.23082457
243	0xbeea6fa6	-0.45788306
244	0xbf07d78b	-0.5306327
245	0xbf0f89d8	-0.5606971
246	0x3af6771c	0.0018803808
247	0xbdf511a3	-0.119662546
248	0x3ec99b2b	0.39376196
249	0xbe35caf0	-0.17753196
250	0x3e3f678e	0.18691847
251	0xbe08b826	-0.13351497
252	0x3f0a8578	0.5410991
253	0x3ef48a17	0.47761604
254	0xbe00a792	-0.12563923
255	0xbd8992f8	-0.06717485

layer1.bias f4 [128]
0	0xbc7bdf51	-0.015373067
1	0x3e65992b	0.2242171
2	0x3f167fa2	0.587885
3	0x3e8e8bf0	0.2784114
4	0xbe83de6d	-0.25755635
5	0x3ec95ebb	0.39330086
6	0x3f0e6fe3	0.55639476
7	0x3f0e391d	0.555559
8	0x3e8b85c1	0.27250484
9	0xbe0a9e3a	-0.13536921
10	0xbdfba63e	-0.122875676
11	0xbd23e684	-0.04001476
12	0x3e9874a8	0.29776502
13	0x3d8e4790	0.06947243
14	0x3f081c41	0.5316811
15	0xbe01fbd7	-0.12693726
16	0x3e872fb7	0.2640359
17	0x3e632211	0.22180964
18	0x3ea5fee5	0.32421032
19	0xbf07f8ca	-0.53113997
20	0x3ebb43de	0.36575216
21	0xbec0e79d	-0.37676707
22	0xbd45990c	-0.04824166
23	0xbe50a123	-0.20373969
24	0xbebee19a	-0.37281495
25	0xbec2dbce	-0.38058323
26	0xbe00c600	-0.12575531
27	0x3f1f3ef0	0.6220541
28	0xbedb34af	-0.42813632
29	0xbc572752	-0.013131933
30	0xbec6bb6a	-0.3881486
31	0xbedf38d5	-0.43598047
32	0x3f2ae219	0.6675125
33	0x3ec12419	0.37722853
34	0xbedfa30a	-0.43679076
35	0xbf082051	-0.5317431
36	0x3f0b996e	0.5453099
37	0x3ebf04c8	0.37308335
38	0x3ef0f63f	0.4706287
39	0xbee2acaa	-0.44272357
40	0xbedc3b61	-0.43014053
41	0x3f339350	0.70146656
42	0x3f3389cd	0.7013214
43	0x3f20fea5	0.62888557
44	0x3efd37b2	0.49456555
45	0x3ea28054	0.31738532
46	0x3ede9a2f	0.43477008
47	0xbdecda4d	-0.11565075
48	0x3ef65dd7	0.4811847
49	0x3ebd7906	0.37006396
50	0xbd189bb6	-0.037257873
51	0x3ebd9232	0.370256
52	0xbeefc48f	-0.4682965
53	0xbd11a85f	-0.03556096
54	0x3f25867c	0.6465833
55	0x3f0d1a75	0.55118495
56	0x3f2b5be9	0.6693712
57	0x3f19e428	0.60113764
58	0x3f25b2e8	0.64726114
59	0x3f3646ac	0.71201587
60	0x3f0564f2	0.52107155
61	0x3d16e14d	0.036835957
62	0xbed21cf3	-0.41037712
63	0xbe8d8ad8	-0.27644992
64	0x3ebefcdb	0.37302288
65	0x3e9d2abf	0.30696675
66	0x3f027c93	0.50971335
67	0xbe8dfe04	-0.2773286
68	0x3ec5535d	0.38540164
69	0x3f2f37c7	0.68444484
70	0x3ee95729	0.4557431
71	0x3f11478f	0.56749815
72	0x3e2e972f	0.1704986
73	0x3f1bbda7	0.6083626
74	0xbd6c00c8	-0.057617933
75	0x3e8854ec	0.2662729
76	0x3f052a0c	0.52017283
77	0x3e27fc77	0.16404901
78	0xbeabb1d6	-0.33534116
79	0xbe86da1b	-0.26338276
80	0xbeb2d7f8	-0.34930396
81	0x3ea9c91a	0.3316124
82	0xbf01aed7	-0.5065741
83	0xbd5f4435	-0.054508407
84	0xbdf5da78	-0.1200456
85	0xbeaa21ea	-0.33229
86	0x3f055000	0.52075195
87	0x3e90d019	0.28283766
88	0x3eeff57d	0.4686698
89	0xbd1d66f4	-0.038428262
90	0x3eb7f23e	0.35927004
91	0xbef5412a	-0.4790128
92	0xbef387ea	-0.47564632
93	0x3f308f28	0.6896844
94	0x3d392976	0.045205556
95	0x3f268eeb	0.65061826
96	0x3f23577d	0.6380537
97	0x3e72e816	0.23721346
98	0xbe23dca9	-0.16002144
99	0x3e535ff5	0.20642073
100	0xbf0e2fba	-0.55541575
101	0xbd52c306	-0.05145552
102	0xbd35bc60	-0.0443691
103	0x3e9fa467	0.31180117
104	0x3eaa8d14	0.3331076
105	0xbc918d92	-0.017767701
106	0x3f0203db	0.5078713
107	0xbedfdbd5	-0.43722406
108	0xbe3941ce	-0.18091509
109	0x3e965937	0.2936494
110	0xbeb48a8d	-0.35261956
111	0x3ed725cd	0.42021027
112	0x3e43e427	0.19130002
113	0x3ebaac3b	0.36459526
114	0x3ec774a7	0.38956186
115	0xbeaaeca5	-0.3338367
116	0x3edef791	0.43548253
117	0x3d7f3969	0.06231061
118	0xbebd43c0	-0.36965752
119	0xbefdd2d9	-0.49574926
120	0x3f1589b3	0.5841324
121	0x3df8ff42	0.121580616
122	0xbe5be7a0	-0.21475077
123	0xbed00bbd	-0.40633956
124	0x3e5911e4	0.21198231
125	0xbc972644	-0.018450864
126	0xbe0b08bd	-0.13577552
127	0x3ce767b0	0.028247684

layer2.weight f4 [128, 128]
0	0xbf1df972	-0.6170875
1	0x3db8ecca	0.09029539
2	0x3c2a68df	0.01040098
3	0xbb85c7ae	-0.0040826416
4	0x3bdc3a45	0.0067208135
5	0x3d8028bb	0.06257769
6	0x3dbad90e	0.09123431
7	0xbd90e4fd	-0.07074926
8	0x3df26bac	0.11836943
9	0xbe4a87b4	-0.19778329
10	0xbe68aa46	-0.22721204
11	0xbebaa024	-0.36450303
12	0x3e409848	0.1880809
13	0x3b6be869	0.0035996682
14	0x3dc2c3a5	0.095099725
15	0xbe0edb1c	-0.13950771
16	0xbcc71363	-0.024301236
17	0x3de8e0a8	0.11370975
18	0xbcd90e6d	-0.026496137
19	0xbe63d780	-0.22250175
20	0x3e252343	0.16126733
21	0x3c9f3588	0.019434705
22	0xbe5cd938	-0.21567237
23	0xbec90303	-0.3926011
24	0xbdccc53b	-0.09998556
25	0xbddd8e27	-0.10818129
26	0xbedbb913	-0.42914638
27	0x3e0d50d2	0.13800362
28	0xbee0eb60	-0.43929577
29	0xbee6615a	-0.44996148
30	0xbd83b976	-0.06431858
31	0xbdcf0798	-0.1010887
32	0x3c92dded	0.017928088
33	0x3de0da22	0.109791055
34	0xbe76843a	-0.24073878
35	0xbd1d07b5	-0.038337428
36	0x3ce3c95e	0.02780598
37	0x3d3b2c43	0.04569651
38	0x3dafc56f	0.08582579
39	0x3c1cc856	0.009569248
40	0xbec9043e	-0.3926105
41	0x3dd6ea2b	0.10493883
42	0x3df17b44	0.11791089
43	0x3dcf48f1	0.10121334
44	0x3d2b2ed8	0.04179272
45	0x3dfbc40f	0.122932546
46	0xbccec7e7	-0.025241805
47	0xbf1e7d06	-0.6190952
48	0xbc8e1eed	-0.017348731
49	0x3c286fee	0.010280592
50	0xbe9d6ff8	-0.30749488
51	0xbc9f0e42	-0.019415978
52	0xbe419078	-0.18902767
53	0xbf51c162	-0.81935704
54	0x3da8191f	0.082079165
55	0x3e3b08f8	0.1826514
56	0x3d0ff762	0.035148032
57	0x3c2eb751	0.010663823
58	0x3d3f13b5	0.046649653
59	0x3e218931	0.1577499
60	0x3bb0f270	0.0053999946
61	0xbdfafda6	-0.12255411
62	0xbd988c24	-0.07448605
63	0xbe016ace	-0.12638399
64	0x3df7091b	0.120622836
65	0xbd4d7abe	-0.050165884
66	0xbd5f9f23	-0.054595124
67	0xbe3a1574	-0.18172246
68	0x3d7dac59	0.06193194
69	0x3b4702e1	0.0030366706
70	0xbda2852a	-0.07935555
71	0x3ccf3fb0	0.025298923
72	0x3da02f61	0.07821537
73	0xbd263ce1	-0.040585402
74	0xbee25c9d	-0.44211283
75	0xbd988853	-0.07447877
76	0x3cdde1be	0.027085181
77	0x3eb20578	0.34769797
78	0xbef062cd	-0.4695038
79	0xbdc57164	-0.09640768
80	0x3da729ef	0.08162295
81	0x3d531471	0.051533166
82	0xbeb8dbcc	-0.36105192
83	0xbe81edcd	-0.2537674
84	0xbdd85857	-0.105637245
85	0xbeb335d6	-0.3500201
86	0xbb98b5b5	-0.004660333
87	0x3d90584a	0.0704809
88	0x3b9672ce	0.0045913225
89	0xbe97721e	-0.29579252
90	0xbd0d59ca	-0.034509458
91	0xbe08d97e	-0.13364217
92	0xbe4c2499	-0.19935836
93	0xbc50bad9	-0.01273986
94	0xbdd247b4	-0.102675825
95	0x3d800c08	0.06252295
96	0x3de5dbae	0.11223541
97	0x3e49daf0	0.19712424
98	0xbe506692	-0.20351627
99	0x3c784f3f	0.0151556125
100	0xbe2b4b6e	-0.16727993
101	0xbef33d15	-0.4750754
102	0xbe7d20d8	-0.2471956
103	0xbcf7d68a	-0.030253667
104	0x3d5380d5	0.051636536
105	0xbe91b394	-0.2845732
106	0x3cad374e	0.021144535
107	0xbc70bdd8	-0.0146937
108	0xbdbaa3dd	-0.09113286
109	0x3d36218c	0.044465587
110	0xbd460cfd	-0.04835223
111	0xbb5ed8ed	-0.003400381
112	0x3b284188	0.0025673825
113	0xbdc3f7f2	-0.09568776
114	0x3dc8f3bd	0.098121144
115	0xbefb21dd	-0.49049273
116	0x3d3f2127	0.046662476
117	0xbdc2125f	-0.0947616
118	0xbe8e37bf	-0.27776906
119	0xbefe29da	-0.49641305
120	0x3e009be4	0.12559468
121	0xbe5ceefb	-0.21575539
122	0xbf6b9262	-0.9202024
123	0xbde1850a	-0.11011703
124	0xbde2bcb5	-0.11071149
125	0xbe9fc2c6	-0.31203288
126	0xbf57547d	-0.84113294
127	0xbf0a249f	-0.5396213
128	0xbd1b9bdf	-0.037990447
129	0x3d25b507	0.040455844
130	0x3d871ca0	0.06597257
131	0x3bf01b9b	0.0073275096
132	0xbd0c30aa	-0.034226097
133	0x3d242321	0.040072564
134	0xbc4c5ab1	-0.012472794
135	0x3cb1fdd9	0.02172749
136	0xbd201e75	-0.039091546
137	0xbda964e9	-0.082712
138	0xbd838d34	-0.06423417
139	0x3c81e284	0.015855081
140	0x3cfc9b46	0.030835759
141	0xbc1ddd4d	-0.009635282
142	0x3c0e3f61	0.008682103
143	0xbd19e775	-0.03757425
144	0x3d072fa1	0.033004407
145	0xbc18ba27	-0.009321726
146	0xbd866ed7	-0.0656411
147	0x3d078a7f	0.033091065
148	0x3caa76e3	0.020808643
149	0x3c934360	0.017976463
150	0x3d1de213	0.03854568
151	0xbd8c4616	-0.06849305
152	0x3d902c99	0.07039756
153	0xbcc30e95	-0.023810664
154	0x3d1d67c6	0.038429044
155	0xbc92174e	-0.017833378
156	0xbcd95ba9	-0.026532965
157	0xbd957bd5	-0.0729901
158	0x3d1a3840	0.0376513
159	0x3c743fd8	0.0149078
160	0x3d46482e	0.04840868
161	0xbd96918e	-0.07351981
162	0xbd6bf3fe	-0.057605736
163	0x3cb8e482	0.022569899
164	0xbda011d8	-0.078159034
165	0x3d6ea071	0.058258478
166	0x3d16eeef	0.03684896
167	0xbd9993dd	-0.07498906
168	0x3d690501	0.056889538
169	0xbd1caaf0	-0.038248956
170	0xbd20b89f	-0.03923857
171	0xbbfb9964	-0.0076781977
172	0xbd29eb45	-0.041484136
173	0xbc85a134	-0.01631222
174	0xbc1eeb41	-0.009699644
175	0x3aea3b2d	0.0017870419
176	0xbc77ec08	-0.015131958
177	0x3d51e072	0.05123944
178	0xbdaa18eb	-0.08305534
179	0x3cb54d2c	0.022131525
180	0xbd618bdf	-0.055065032
181	0xbd533b6f	-0.051570352
182	0xbd7fd9ea	-0.06246368
183	0x3a5e571b	0.00084816077
184	0x3c8e56f9	0.017375456
185	0x3d2ed7ba	0.0426862
186	0xbd1f36ab	-0.038870495
187	0xbc999e8e	-0.018752363
188	0x3d37825b	0.04480205
189	0x3b9bd144	0.004755171
190	0xbb699bbb	-0.00356458
191	0xbd9d4eff	-0.07681083
192	0xbc8f7f93	-0.017516887
193	0xbd722a71	-0.059122507
194	0xbdb49ff9	-0.08819575
195	0xbc4b3808	-0.012403496
196	0xbdb66415	-0.08905808
197	0x3d897ef3	0.06713667
198	0x3d9514d6	0.07279365
199	0xbcf1d107	-0.029518617
200	0xbd66d68b	-0.056356948
201	0xbcdd7e70	-0.02703783
202	0x3bba83f0	0.0056919977
203	0x3d7cb952	0.061700173
204	0x3d84f2d2	0.06491627
205	0xbd2443bc	-0.04010366
206	0xbccffeba	-0.025390018
207	0x3d0c9da1	0.034330014
208	0x3d701815	0.058616716
209	0x3d918aa2	0.0710652
210	0xbd8eda9e	-0.06975292
211	0xbc8715e3	-0.016489929
212	0x3d88a465	0.06671981
213	0x3d584fd6	0.052810512
214	0x3d2a3141	0.04155088
215	0xbda76108	-0.08172804
216	0xbc01d3a3	-0.007923993
217	0xbd95ce14	-0.07314697
218	0xbdb2cb5a	-0.087301925
219	0xbd4a016d	-0.049317766
220	0x3d958ad4	0.0730187
221	0x3d8eabc8	0.069663584
222	0xbd715b45	-0.058924932
223	0xbd926958	-0.07148999
224	0x3d81f879	0.063462205
225	0x3d94ca6b	0.07265171
226	0x3b7a0afa	0.0038153515
227	0xbd852f92	-0.06503214
228	0xbc4d5186	-0.012531644
229	0x39cb2423	0.000387461
230	0xbd869ef4	-0.06573287
231	0x3d94274d	0.072340585
232	0xbc88fdc8	-0.016722575
233	0xbd9db304	-0.0770016
234	0x39364ad6	0.00017384751
235	0xbd4de2eb	-0.050265234
236	0x3c059423	0.008152994
237	0xbd8b2162	-0.06793477
238	0xbd0b82e8	-0.03406039
239	0x3cbe61ec	0.023240052
240	0xbcf66c47	-0.030080928
241	0xbd140c9b	-0.036144834
242	0xbd1526d7	-0.036413994
243	0xbd6bfc1e	-0.057613485
244	0xbd79ff44	-0.061034456
245	0xbcb3d3fe	-0.021951672
246	0xbbf81567	-0.0075709107
247	0xbccbbe22	-0.024870936
248	0x3d208bd4	0.03919585
249	0x3d58bb74	0.052913144
250	0xbc2607b5	-0.010133673
251	0xbcdcb99b	-0.026943972
252	0xbd111799	-0.035422895
253	0x3d43e376	0.047824346
254	0xbd209427	-0.03920379
255	0x3c56f241	0.013119281

layer2.bias f4 [128]
0	0x3d2b5ad9	0.041834686
1	0xbc329519	-0.010899805
2	0x3d8545c6	0.06507449
3	0x3e776b81	0.24162103
4	0xbc45a8ce	-0.012064172
5	0xbcf53d8a	-0.02993657
6	0x3c34ce0f	0.011035456
7	0xbc94b35b	-0.01815193
8	0x3d25042e	0.04028719
9	0x3d0068c8	0.031349927
10	0x3b3fa5a7	0.0029243024
11	0x3e9a7757	0.30169174
12	0x3e7298e7	0.2369114
13	0xbda46819	-0.080276676
14	0x3e194c55	0.14970525
15	0x3e8899bc	0.2667979
16	0x3e339467	0.1753708
17	0x3e9be3a0	0.30447102
18	0x3e11c557	0.14235435
19	0xbcf6f494	-0.03014592
20	0x3eae9f1a	0.3410576
21	0xbe49a743	-0.19692712
22	0x3e57b5c7	0.21065436
23	0x3d4e2b40	0.050334215
24	0x3d95e946	0.07319884
25	0x3e0d830a	0.13819519
26	0x3e5fc3d1	0.21852042
27	0x3e85274e	0.2600655
28	0xbe3ba11f	-0.18323182
29	0x3e83f5a9	0.2577336
30	0xbc92ea48	-0.01793398
31	0xbc426d45	-0.011866872
32	0x3d6154c0	0.055012465
33	0x3ce3c6e0	0.027804792
34	0x3c5460fc	0.012962576
35	0x3e82d612	0.25553948
36	0xbced6aa7	-0.02898152
37	0xbcc447cc	-0.023960017
38	0x3e0bc685	0.13649948
39	0x3dc5060a	0.096202925
40	0x3e76db9e	0.24107215
41	0x3bfa6139	0.0076409844
42	0x3e809a4b	0.25117716
43	0xbd27e1f8	-0.040986985
44	0xbdb82d4a	-0.08993013
45	0x3d7a82b7	0.061159816
46	0xbd7ce5d0	-0.061742604
47	0x3e62a8ec	0.22134751
48	0x3e902bdd	0.28158465
49	0x3ea75639	0.3268297
50	0x3d68d3c8	0.056842595
51	0x3d9390b0	0.07205331
52	0x3eca2c27	0.3948681
53	0x3e85a786	0.26104373
54	0xbcb5121b	-0.02210336
55	0x3e158637	0.1460198
56	0xbd9b5308	-0.07584196
57	0xbd2b8d1b	-0.041882616
58	0x3c16320a	0.009167204
59	0x3df650b5	0.120271124
60	0x3c8f6b19	0.017507123
61	0x3db6cd9d	0.08925936
62	0xbcba606a	-0.022751052
63	0xbd908399	-0.0705635
64	0x3dd79023	0.10525539
65	0x3e91a0dd	0.2844304
66	0xbd2e8dd8	-0.04261574
67	0x3da7ae8c	0.08187589
68	0xbb02aaec	-0.0019938303
69	0xbda5ce11	-0.08095945
70	0x3e1f0aad	0.15531416
71	0x3e0c0a0b	0.13675706
72	0xbb8c261c	-0.004277004
73	0x3ded2357	0.11579006
74	0x3e6ef136	0.23334202
75	0x3d766c05	0.06016161
76	0xbb7dccb7	-0.0038726756
77	0x3dc9359d	0.09824679
78	0x3e15df8c	0.14636058
79	0xbe272240	-0.16321659
80	0x3e60a55a	0.21938077
81	0x3da73c02	0.081657425
82	0x3ea0b8c4	0.31390965
83	0x3d56ea9e	0.052469842
84	0x3dfce2ff	0.123479836
85	0xbc284440	-0.010270178
86	0x3d17803b	0.036987524
87	0xbdff9691	-0.1247989
88	0x3e60ee4a	0.219659
89	0xbd946a22	-0.07246806
90	0x3d52d141	0.05146909
91	0xbe26a71e	-0.16274688
92	0xbbb72eab	-0.00559028
93	0x3d8af658	0.067852676
94	0x3e64fd11	0.22362162
95	0x3eac59ca	0.33662254
96	0x3ead1744	0.33806813
97	0x3e765d91	0.2405913
98	0x3dba7325	0.09103993
99	0xbccc56c0	-0.02494371
100	0xbda6ad19	-0.081384845
101	0x3e6d2a9d	0.23160787
102	0xbc9713d5	-0.018442074
103	0xbe705e8d	-0.23473568
104	0x3c19bdfb	0.009383674
105	0xbd8cdd3e	-0.06878136
106	0x3d9f3045	0.077728786
107	0xbe1fc144	-0.15601069
108	0x3e960acc	0.29305112
109	0x3bd85290	0.006601639
110	0x3c8ab33c	0.016931169
111	0xbc128ca8	-0.008944668
112	0x3e867cca	0.26267081
113	0x3dc7213f	0.09723138
114	0x3c78558d	0.015157116
115	0x3d3de3f2	0.046359964
116	0x3e8b1cda	0.2717045
117	0xbc79eb52	-0.015253859
118	0xbd884604	-0.066539794
119	0x396ff32f	0.00022883409
120	0x3ca51ba1	0.020154776
121	0x3d5f3adb	0.05449949
122	0x3bb03b34	0.0053781513
123	0x3d82312f	0.06357037
124	0x3e8d6e24	0.27623093
125	0xbd42ecea	-0.04758922
126	0x3e03a012	0.1285403
127	0x3e01016e	0.12598202

layer3.weight f4 [2, 128]
0	0x3ea7b837	0.32757732
1	0xbd36fcd4	-0.04467471
2	0xbe882706	-0.26592273
3	0x3ed4374f	0.41448447
4	0x3e89c8d9	0.26911047
5	0x3d9c86f6	0.07642929
6	0xbe1621e4	-0.14661366
7	0x38c717d9	9.4935014e-05
8	0xbe9ad6bd	-0.30241957
9	0x3ec73458	0.38907123
10	0xbe851708	-0.25994134
11	0x3e878838	0.26471114
12	0x3e917f69	0.2841752
13	0xbcac6108	-0.021042362
14	0x3e910580	0.2832451
15	0x3ec6295b	0.38703427
16	0x3e9f5e4e	0.31126636
17	0x3e622026	0.22082576
18	0x3edb18d1	0.4279237
19	0xbe8f9854	-0.28045905
20	0x3e99b5cc	0.30021513
21	0xbf15a64b	-0.5845687
22	0x3e5d9eeb	0.21642654
23	0x3e7aefe5	0.24505575
24	0xbe7199bd	-0.23593803
25	0x3ebec591	0.37260106
26	0x3ea45c50	0.3210168
27	0x3e91fae7	0.28511736
28	0xbe9fa358	-0.3117931
29	0x3eb70583	0.35746393
30	0xbea6dfb5	-0.3259255
31	0xbeb47481	-0.35245135
32	0x3e8d79f2	0.276321
33	0x3d17dc7f	0.037075516
34	0x3eaed53d	0.34147063
35	0x3e6bea76	0.23038658
36	0xbb28e2d9	-0.0025769977
37	0x3ea32242	0.31862074
38	0x3ec6a518	0.38797832
39	0x3eca02b1	0.39455178
40	0x3ec029ea	0.37531978
41	0xbd8014ae	-0.06253944
42	0x3eba78b6	0.3642022
43	0xbe8f7cc2	-0.2802487
44	0xbe9e398d	-0.30903283
45	0x3e2e6b8c	0.17033213
46	0x3d3d46a2	0.04620994
47	0x3eb437f2	0.35198933
48	0x3ea89f1e	0.32933897
49	0x3ee91da0	0.45530415
50	0x3ecd2700	0.40068817
51	0x3ec27ed5	0.3798739
52	0x3ed8ce36	0.42344826
53	0x3e811054	0.2520777
54	0x3eb41727	0.35173914
55	0x3eb5c55c	0.35502136
56	0x3e4ba7b5	0.19888194
57	0xbe7d7c22	-0.24754384
58	0xbda01c87	-0.07817941
59	0x3ebe322b	0.3714765
60	0x3ec426f0	0.38310957
61	0x3e8b75f3	0.27238426
62	0xbe2d1159	-0.16901149
63	0xbd5e901d	-0.054336656
64	0x3e8c86fa	0.2744673
65	0x3ede82e5	0.4345924
66	0x3e9df3b6	0.3085
67	0x3ec933f5	0.39297453
68	0x3dc46aa2	0.09590651
69	0x3ce79873	0.028270936
70	0x3eb9f691	0.36320928
71	0x3d5427d2	0.051795788
72	0xbe6873ed	-0.22700472
73	0x3ee82226	0.45338553
74	0x3ea77053	0.32702884
75	0x3ebbbaaa	0.3666585
76	0xbdfc3337	-0.12314456
77	0x3e407428	0.1879431
78	0x3eb85fd9	0.36010626
79	0xbe8a934a	-0.27065498
80	0x3ea2794a	0.3173316
81	0x3e2c4201	0.16822053
82	0x3ed77f41	0.42089275
83	0x3d8ea0f9	0.06964297
84	0x3eb9512c	0.36194742
85	0x3ed59cbf	0.4172115
86	0x3ea95ece	0.33080143
87	0xbed16c0d	-0.4090275
88	0x3ed66cbc	0.41879833
89	0xbe83f8e9	-0.2577584
90	0xbe6af740	-0.22945881
91	0xbf26da36	-0.65176713
92	0xbe48472b	-0.19558398
93	0xbd6a3d60	-0.057187438
94	0x3ecc31ab	0.39881644
95	0x3eaf0932	0.34186703
96	0x3e7ee6a2	0.24892667
97	0x3e92263e	0.285448
98	0x3eda84f5	0.42679563
99	0x3ca84cab	0.02054437
100	0x3d8f1e86	0.06988244
101	0x3eb0511c	0.34436882
102	0x3ecbd9d5	0.3981463
103	0xbe4c4651	-0.19948699
104	0x3e3de9f0	0.18546271
105	0xbc94c474	-0.018160082
106	0x3e98245d	0.29715243
107	0xbe98c8b8	-0.29840636
108	0x3edc76fb	0.43059525
109	0xbd6503b9	-0.055911753
110	0xbc0b9291	-0.008518831
111	0xbe010207	-0.1259843
112	0x3ee75c6d	0.45187703
113	0x3e199f3c	0.1500215
114	0xbea0ef7f	-0.3143272
115	0x3ee703cb	0.4512008
116	0x3ecf04ce	0.40433353
117	0xbc3f7438	-0.011685424
118	0x3c3013d5	0.010746916
119	0xbd656350	-0.056002915
120	0xbe2b99ae	-0.16757843
121	0x3e50792f	0.20358728
122	0xbe972da1	-0.29527
123	0xbca00170	-0.019531935
124	0x3e9cd1a4	0.30628693
125	0x3ee60f07	0.4493334
126	0xbb4888a7	-0.003059903
127	0x3ebbc444	0.36673176
128	0x3eb9971e	0.36248106
129	0x3b073d6e	0.002063598
130	0xbea9e1b5	-0.33180013
131	0x3eeb8fd7	0.4600818
132	0xbdbebc82	-0.09313299
133	0x3da16417	0.07880419
134	0xbe258aa7	-0.16166173
135	0xbd2683eb	-0.04065315
136	0xbf0962af	-0.53666204
137	0x3e991035	0.29895177
138	0xbe251aac	-0.16123456
139	0x3e9607d8	0.2930286
140	0x3ea9fb8c	0.33199728
141	0xbc2c10fa	-0.010502094
142	0x3eaa0acf	0.3321137
143	0x3eb6a426	0.3567211
144	0x3ecb2480	0.39676285
145	0x3e9eec14	0.31039488
146	0x3e9e037f	0.30862042
147	0xbea50857	-0.32232925
148	0x3edc66c7	0.43047163
149	0xbe2788f3	-0.16360836
150	0x3ebc312e	0.3675627
151	0x3eb2d212	0.34925896
152	0xbd89a995	-0.06721798
153	0x3e439ed1	0.19103552
154	0x3ebe98d2	0.37225968
155	0x3e857e50	0.2607293
156	0xbf314651	-0.6924792
157	0x3eb1e38c	0.34743917
158	0xbdb6c568	-0.08924371
159	0xbe1b5b0c	-0.1517145
160	0x3ea123b9	0.31472567
161	0xbd898f80	-0.067168236
162	0x3ebcde39	0.36888292
163	0x3ead6d85	0.3387262
164	0x3d1ef59e	0.038808458
165	0xbe8556c1	-0.2604275
166	0x3eaae411	0.33377126
167	0x3eaa1846	0.33221644
168	0x3e873314	0.26406157
169	0x3d1398c0	0.036034346
170	0x3e560f8e	0.20904371
171	0xbe6ec6e4	-0.23318058
172	0xbe9a8a02	-0.30183417
173	0xbd471b7b	-0.04861019
174	0xbca7864d	-0.020449782
175	0x3ea3b75a	0.31975824
176	0x3ecdb215	0.40174928
177	0x3e99f289	0.30067852
178	0x3e99fe12	0.30076653
179	0x3ec2691a	0.3797081
180	0x3eada8d8	0.3391788
181	0x3ea43374	0.32070506
182	0x3ed553f8	0.41665626
183	0x3e9656a2	0.2936297
184	0xbe894476	-0.26810044
185	0xbde775ac	-0.11301741
186	0xbe8bdd92	-0.27317482
187	0x3e8894e8	0.26676106
188	0x3eaf9861	0.34295943
189	0x3e9f222e	0.31080765
190	0x3dc0d132	0.09414901
191	0xbcb74cc4	-0.022375472
192	0x3eb0fd4d	0.34568253
193	0x3e944c81	0.28964618
194	0x3ed7eda4	0.42173493
195	0x3ec63911	0.38715413
196	0x3ef045c1	0.46928218
197	0xbcbdadb9	-0.023154126
198	0x3e8ad549	0.2711585
199	0x3e3c01d0	0.18360066
200	0xbe8c12ac	-0.27357996
201	0x3eeaf23c	0.45887935
202	0x3ea6e0f8	0.32593513
203	0x3ecf3f2a	0.40477878
204	0x3e304889	0.1721517
205	0x3e81e728	0.2537167
206	0x3ee7ea88	0.4529612
207	0xbf0c3c1d	-0.54779226
208	0x3ed14c1b	0.40878376
209	0xbde7caf7	-0.11318009
210	0x3e882da8	0.26597333
211	0x3d47397d	0.04863881
212	0x3ec349e4	0.38142312
213	0x3eb16139	0.34644488
214	0x3ea0d76f	0.31414363
215	0xbe8f92b0	-0.280416
216	0x3eca94ba	0.39566594
217	0xbe30c4da	-0.17262593
218	0x3bbdd3f2	0.005793088
219	0xbe965b84	-0.29366696
220	0xbee666af	-0.45000216
221	0x3da080cc	0.07837066
222	0x3ea7b4ac	0.3275503
223	0x3eb237d0	0.34808207
224	0x3e9b803e	0.3037128
225	0x3ebc5faf	0.3679175
226	0x3ee724c6	0.45145243
227	0x3f2fd039	0.686771
228	0xbda75561	-0.081705816
229	0x3eb71f52	0.35766083
230	0x3ed7a5c2	0.4211865
231	0xbef60781	-0.480526
232	0xbeaccd2b	-0.3375028
233	0xbcc589ff	-0.024113653
234	0x3e94ac3b	0.2903765
235	0xbeae4ef8	-0.34044623
236	0x3ea020d5	0.3127505
237	0xbd24afbd	-0.04020666
238	0xbf01d842	-0.5072061
239	0xbdf0b777	-0.11753743
240	0x3e9a96e7	0.30193254
241	0x3e87dd18	0.2653587
242	0x3ceeb921	0.02914101
243	0x3ec6b703	0.38811502
244	0x3ea01c69	0.31271675
245	0xbd2e972e	-0.042624645
246	0xbc103e00	-0.008803844
247	0x3c0631d7	0.008190594
248	0x3e6308ff	0.221714
249	0x3d58cce8	0.05292979
250	0xbe16faeb	-0.14744155
251	0xbd727d7a	-0.059201695
252	0x3e9808c6	0.29694194
253	0x3ece9aef	0.4035258
254	0x3e880573	0.26566657
255	0x3e88ea69	0.2674134

layer3.bias f4 [2]
0	0x3e119b1e	0.14219329
1	0x3de8c5e2	0.11365868
