cartpole_weights/episode_durations_478.pt (torch, 72007 bytes, 6 tensors)

layer1.weight f4 [128, 4]
000000 87 5f 0d bf 2d 56 fb be 92 76 1a 3d 88 93 95 be
       -0.5522389 -0.49089184 0.037710734 -0.2921412
000010 f5 02 aa 3d f6 e6 a5 3c fd bc 36 bf 7e 6a 04 3e
       0.08301345 0.020251732 -0.71382123 0.12931249
000020 23 68 27 bf af 23 a9 be 3b 5d ce be 5e 34 82 be
       -0.65393275 -0.33035037 -0.40305504 -0.25430578
000030 d5 cf f6 bd e6 ee c2 be cf a6 f6 be 8e c8 8e bd
       -0.120513596 -0.3807289 -0.4817414 -0.069718465
000040 3e d7 88 be 13 95 fe 3d 4b 63 a5 be 4a 96 07 bf
       -0.26726717 0.124307774 -0.32302317 -0.529637
000050 35 47 0f bf 88 42 ed bc a8 a9 02 3f fc 5c 2d be
       -0.5596803 -0.028962389 0.51040125 -0.16930002
000060 9d e8 e2 3d cb ed 48 bd 83 64 a7 be 4f 97 b4 3e
       0.11079524 -0.049054902 -0.32693872 0.3527169
000070 1a be bd be 50 22 da 3e 64 2e 0b 3f 25 5e 41 be
       -0.37059098 0.42604303 0.5436766 -0.1888357
000080 4a ed 4b 3e 48 97 31 3e 02 fe 06 3f 19 d6 83 3d
       0.19914737 0.17342865 0.52731335 0.0643732
000090 52 a4 bd 3e 52 b3 bc 3e 4f 6a 20 3e a4 58 eb bc
       0.3703943 0.3685556 0.15665554 -0.02872879
0000a0 bf 9d 94 3c e5 bb c1 3e ce 81 05 bf 32 c5 0b 3e
       0.018141625 0.37838665 -0.5215119 0.13649443
0000b0 2f 6d 13 bf 33 d8 32 bf a4 23 86 be 33 ae fa be
       -0.57588476 -0.69861144 -0.26199067 -0.48961028
0000c0 02 3a ab 3e 93 79 de bc 75 7d 0e 3d 7f 2a 2e bb
       0.33442694 -0.02715758 0.034787614 -0.0026575623
0000d0 ca 48 6b 3e 7f 88 ff 3e 5e a8 c0 be 11 e1 8f bb
       0.22976986 0.49908826 -0.37628454 -0.0043908437
0000e0 36 77 4a be db 2a 61 be 2d b6 63 3e b1 82 a1 bd
       -0.19772038 -0.21989004 0.22237463 -0.078862555
0000f0 c7 6f 55 be 52 86 0a bf c4 3a 6d be d7 51 01 be
       -0.20843421 -0.54111207 -0.23166949 -0.12628876
000100 79 93 e4 be a8 6a 95 be 9c 41 85 3e d8 f3 00 be
       -0.44643763 -0.29182935 0.26026618 -0.12593019
000110 56 f6 12 3f af df 95 be 06 a7 60 be 9e c7 71 3e
       0.5740713 -0.2927222 -0.21938714 0.23611304
000120 32 37 df 3e 43 99 bf 3e cb aa ba bd 9a cc 73 3c
       0.43596798 0.37421617 -0.091146074 0.014880324
000130 82 87 66 be fa f3 aa be 0b cb 55 3f cb 79 86 3b
       -0.2251263 -0.33389264 0.83512944 0.0041038743
000140 e3 7b a4 3e 29 eb b6 be c0 3a 0f be 53 13 12 bd
       0.32125768 -0.35726288 -0.13987255 -0.03566296
000150 da 52 4f be 6f d1 3f 3e 3b e6 3a bd d5 11 ef 3c
       -0.20246449 0.18732236 -0.04562972 0.029183308
000160 e0 67 1b 3f 3f a5 04 3f f0 51 a6 3f 1d 24 be 3e
       0.60705376 0.51814646 1.2993755 0.37136927
000170 27 03 cf be 21 0d df 3d 7d bf 3d bf ea bf 84 be
       -0.40432093 0.10891176 -0.7412031 -0.2592767
000180 bb dc 99 be ad 4f 2c be c8 4f 1e 3e 59 aa 37 3e
       -0.30051216 -0.16827269 0.15460122 0.17936076
000190 10 9e 43 be 1c 14 bd be 42 c9 07 3f 35 59 0b 3e
       -0.19103265 -0.36929405 0.5304147 0.13608249
0001a0 0b ed 4e bf 9a 1c cc 3e ab cf f3 bd 91 6d 9b 3e
       -0.8083045 0.3986557 -0.11904844 0.3035703
0001b0 d6 c2 4d be 5d 97 be be 79 5a 2c be 42 61 8b bc
       -0.20093855 -0.37224856 -0.16831388 -0.01701415
0001c0 40 7f 5b 3e a3 6e 3a 3e c1 71 3c 3f 6c 0b b8 3e
       0.21435261 0.18206267 0.73611075 0.35946214
0001d0 72 bf 23 bf 20 9a 32 bf b2 7d 2c bf 7a 92 f5 be
       -0.63964 -0.69766426 -0.67379296 -0.47963315
0001e0 7a 49 f8 be 41 d0 ea 3d fd fe 3e 3f a8 5f be 3e
       -0.48493558 0.114655025 0.7460783 0.37182355
0001f0 ea 05 03 bf 2d b6 c5 be be 89 a0 3e af 6c bb 3e
       -0.511809 -0.38615552 0.3135509 0.36606357
000200 a1 12 c8 be ac 31 fd 3e 7b 83 ba bd 02 57 0e bd
       -0.39076713 0.4945196 -0.09107109 -0.034750946
000210 0f a0 16 bf d2 fd 68 3e f7 2a 5f bd 44 0a 68 3e
       -0.5883798 0.22753075 -0.054484334 0.22660166
000220 4f b3 1a 3f a8 28 56 3e 91 b9 ca be e0 6f fd bd
       0.60429853 0.20913947 -0.395947 -0.12374854
000230 e9 94 bc be 10 ec d2 bb 32 8e 38 3f 51 4d e9 3e
       -0.3683236 -0.0064368322 0.7209197 0.455668
000240 cd 4e 0b bf e1 43 b4 be 90 74 85 be f3 eb 9e bd
       -0.54417115 -0.35208037 -0.26065493 -0.077598475
000250 a2 ad 26 bb 93 80 09 3f 9e d2 11 3e c0 df 2c 3d
       -0.0025433083 0.53711814 0.142405 0.042205572
000260 47 ca a5 be 24 bb d2 be af 42 0d bf d5 55 9d 3d
       -0.32380888 -0.41158402 -0.55179876 0.07682387
000270 f8 d2 84 3e 2b eb dc be e2 4d 14 3f 9e 5f c8 3e
       0.25942206 -0.4314817 0.5793134 0.3913545
000280 4b de 03 3e 1a 4e 14 3e 01 b8 0a 3f ff 64 cd 3e
       0.12877767 0.14482918 0.5418702 0.40116116
000290 2a b9 42 3e 29 73 fd 3d be 21 28 3e 2d 3a 97 3e
       0.19015947 0.12375481 0.16419122 0.29536572
0002a0 0a 5e 5d bd d2 42 4b be 57 57 9f be e2 2f 23 be
       -0.05404476 -0.19849709 -0.31121323 -0.15936235
0002b0 1f ef 9d bd 91 51 ea bd df 53 cf bc 16 b8 ba 3d
       -0.07711624 -0.11441339 -0.025308548 0.09117143
0002c0 8f 2a 17 bd a6 c0 be 3e b9 b6 97 3e f1 97 01 bd
       -0.03690582 0.37256354 0.29631594 -0.031639043
0002d0 e7 82 28 bf 1c a3 4a be 76 8b e5 3e 41 cf 9f bd
       -0.6582474 -0.19788784 0.44832963 -0.078032024
0002e0 f5 cf 02 bf a5 e4 82 3d 3e cc 57 3e 4d 89 7a be
       -0.5109857 0.06391267 0.21074006 -0.24466439
0002f0 79 bf 2c 3c ee 6f f3 be bb 66 a8 bf 06 fb be be
       0.0105436975 -0.47546333 -1.3156351 -0.3730089
000300 30 76 dd bd b7 3c 99 be e0 04 ee be 0c 34 7e 3e
       -0.10813558 -0.29929134 -0.46488094 0.24824542
000310 42 23 de bc 4f 38 03 3e d0 47 82 bd 0c e1 69 3e
       -0.027116422 0.12814449 -0.063613534 0.22839755
000320 0a 15 98 3d da 51 f2 3e 43 af 3c 3f 0f ce bd 3e
       0.07425888 0.47328073 0.7370493 0.37071273
000330 1c e4 b1 be d1 eb e7 be 39 74 14 3e 28 33 b4 3e
       -0.34744346 -0.452971 0.1449746 0.3519528
000340 a1 d1 74 be aa 79 06 bd 77 2f fc bc 68 fa a4 3e
       -0.23908092 -0.03283087 -0.030784352 0.32222295
000350 60 cb be 3d fa 54 43 bf 82 dc a4 bf 1e db 10 bf
       0.093161345 -0.7630154 -1.2879794 -0.56584346
000360 a7 94 4f be 4d a2 97 3d c0 ed 91 be d9 fa 2c 3e
       -0.2027155 0.07404003 -0.285017 0.16892566
000370 81 46 b3 3e 86 f9 e6 be 34 44 1c be 2f 88 24 be
       0.35014728 -0.45112246 -0.15260392 -0.16067575
000380 be 48 e1 3e 29 7d 36 3e b3 23 b4 3e 7a c4 70 3e
       0.4400081 0.17821182 0.35183486 0.2351245
000390 38 a7 91 be 6a 54 99 3e e7 2f 26 3f 8d d7 9f 3e
       -0.2844789 0.29947215 0.64916843 0.3121914
0003a0 0d 7c 2c 3e 50 cf db 3e 7d 5f 00 3f 45 4a 89 be
       0.16844197 0.42931604 0.50145704 -0.26814476
0003b0 ff 12 91 3e 20 eb a2 be 81 86 cc be 8f 89 b4 be
       0.28334805 -0.3182001 -0.39946368 -0.352612
0003c0 26 53 5b 3e b0 63 63 be 02 a2 56 be e5 6b ce be
       0.21418437 -0.22205997 -0.20960239 -0.40316692
0003d0 ab b5 04 bf 61 7e 08 bf 43 85 f1 bc 63 23 15 be
       -0.51839703 -0.5331784 -0.02948249 -0.1456428
0003e0 e8 6c d9 3e f4 74 3f be ff e1 f0 3d a8 8e 16 be
       0.424659 -0.18696958 0.11761855 -0.14702857
0003f0 30 03 07 3f d9 e4 e9 3e e2 1a e9 bd 9e b3 2d bd
       0.5273924 0.4568241 -0.113820806 -0.042407624

layer1.bias f4 [128]
000000 a4 26 92 bc 8f 7f 6d 3e db 4e 11 3f 4a 32 93 3e
       -0.01784069 0.23193191 0.5676095 0.28749305
000010 77 94 69 be 4d e5 cb 3e fc 20 0f 3f 65 e4 10 3f
       -0.22810541 0.3982338 0.55909705 0.565985
000020 bd 55 88 3e 30 ef fe bd 5c 5f 1a be 94 bf 32 bd
       0.26627913 -0.12447965 -0.15075439 -0.043639734
000030 0f 53 94 3e 7b 98 cf 3d 77 ad 05 3f ea 90 eb bd
       0.2896962 0.10136505 0.5221781 -0.115022495
000040 4b 86 83 3e 8d 35 6c 3e b3 df 9a 3e b5 f5 00 bf
       0.25688395 0.23067303 0.30248794 -0.5037492
000050 24 29 bd 3e 4d 16 bc be 7e 86 5e 3b 75 52 5b be
       0.3694545 -0.36735764 0.0033954675 -0.21418174
000060 e9 11 c1 be de e1 bb be 4d ca 42 be 51 cb 1b 3f
       -0.37708977 -0.3669576 -0.19022484 0.6085711
000070 31 1c e3 be f5 5c 2c bc fa 84 d1 be ad 5e e5 be
       -0.44357446 -0.01052021 -0.40921766 -0.44798794
000080 11 ae 2b 3f 2c 24 c3 3e df 87 dc be d7 55 0f bf
       0.6706248 0.38113534 -0.4307241 -0.55990356
000090 ff 55 06 3f 52 86 c4 3e b3 2f f3 3e b4 7d bf be
       0.5247497 0.38383728 0.4749733 -0.3740059
0000a0 61 38 e0 be 8f 8e 32 3f 46 5d 32 3f 44 4b 20 3f
       -0.43793014 0.6974878 0.69673574 0.62614846
0000b0 fd c2 ff 3e c2 a8 9a 3e 1b 40 ee 3e 50 d1 fa bd
       0.49953452 0.30206877 0.46533284 -0.122469544
0000c0 91 ce f6 3e bb 9b c2 3e 03 82 d5 3c 16 58 c1 3e
       0.48204473 0.38009438 0.026062971 0.37762517
0000d0 8e 7a f1 be e2 18 6a bd fd e7 24 3f 1d eb 0c 3f
       -0.47163814 -0.057152636 0.64416486 0.55046254
0000e0 88 db 2a 3f cc 0c 1a 3f 61 32 25 3f df 68 35 3f
       0.6674123 0.60175776 0.6453 0.70863146
0000f0 6a 15 07 3f 10 da fb 3c 29 80 a3 be d8 ce 8d be
       0.5276705 0.030743629 -0.31933716 -0.27696872
000100 b4 35 bb 3e 45 f3 94 3e 4c a6 04 3f a1 7f 95 be
       0.3656441 0.2909185 0.5181625 -0.29198936
000110 ec cb ce 3e 61 11 2e 3f e4 64 f8 3e 21 97 14 3f
       0.40389955 0.6799527 0.48514473 0.58043104
000120 e5 1b 4c 3e c3 b1 19 3f ae 0c 6d bd 9a 86 9e 3e
       0.19932516 0.6003687 -0.05787342 0.30962068
000130 9d d7 05 3f 60 48 1b 3e 82 16 c0 be 4b 26 67 be
       0.52282125 0.15164328 -0.37517172 -0.22573201
000140 35 4f 32 be e4 56 9e 3e 3b 6b f0 be be 7a ec 3b
       -0.17413028 0.30925667 -0.4695681 0.0072167804
000150 fb ef b0 bd 27 49 b7 be 54 27 05 3f 8a 5e 89 3e
       -0.08639523 -0.35797998 0.52013135 0.2682994
000160 da 83 e1 3e a9 af d9 3b 5b 69 be 3e 73 b6 fa be
       0.44045907 0.006643255 0.37189755 -0.48967323
000170 cf 57 03 bf 5f a6 2f 3f 5c 5f f0 3d 3d 7f 26 3f
       -0.5130586 0.6861324 0.11736938 0.650379
000180 e9 8f 22 3f a8 fe 6f 3e 09 ca 26 be ea 74 58 3e
       0.6350084 0.23436987 -0.16288008 0.21138349
000190 00 5e 0b bf 83 3b b8 bd 4d 2c 37 3c 24 a8 ad 3e
       -0.5444031 -0.08995726 0.011179996 0.33917344
0001a0 be e2 9f 3e ad ff b9 3c ff cf 05 3f 7b 60 ee be
       0.31227678 0.022704924 0.522705 -0.46557984
0001b0 b8 79 28 be bb 1a 89 3e db d2 56 be e0 46 d8 3e
       -0.16452682 0.26778206 -0.20978872 0.42241573
0001c0 5f a9 31 3e 01 ac bb 3e 7b a7 c8 3e 74 85 af be
       0.17349766 0.36654666 0.39190277 -0.34281504
0001d0 f2 1b e9 3e 50 39 03 3c 59 3b bc be 9e e3 fb be
       0.45529133 0.00800927 -0.3676403 -0.49197096
0001e0 f0 56 13 3f 59 a8 23 3e 98 a0 47 be 1f 48 ba be
       0.5755453 0.15982188 -0.19494855 -0.3638315
0001f0 e4 3b 64 3e 07 7a 56 3c bf b8 11 be 18 9f ae 3c
       0.22288471 0.013090617 -0.14230631 0.021316096

layer2.weight f4 [128, 128]
000000 a8 41 19 bf b7 93 4c 3d 79 58 07 3b 78 f5 64 bc
       -0.5986581 0.04994556 0.00206521 -0.01397454
000010 01 3a db 3c 90 97 44 3d 56 15 33 3d c2 d3 cb bd
       0.026761057 0.047996104 0.04372152 -0.09952499
000020 c7 d8 87 3d 17 7e 44 be 37 54 62 be 3f 06 b5 be
       0.06633144 -0.19188724 -0.22102438 -0.35356328
000030 19 fa 07 3e 5f c2 9a bc 6d e4 94 3d e5 ef 08 be
       0.13278998 -0.018891511 0.07270131 -0.13372763
000040 99 88 fa bc fa 04 76 3d fa 76 72 bd cd 44 5e be
       -0.030582713 0.06006334 -0.059195496 -0.21705933
000050 ed 2f fd 3d ff 64 9b 3c a8 14 7a be 46 1c c0 be
       0.12362657 0.018969057 -0.24421942 -0.3752157
000060 f1 23 c6 bd 28 63 d0 bd f9 84 d9 be 7d b8 ec 3d
       -0.09674824 -0.101751626 -0.42484263 0.11558626
000070 60 a0 db be 86 69 e1 be 7c e1 7d bd be 63 c0 bd
       -0.42895794 -0.4402582 -0.061982617 -0.09394024
000080 97 f4 59 bc 8b c4 b4 3d b9 f7 70 be ae da 15 bd
       -0.013302944 0.0882655 -0.23531999 -0.036585502
000090 5e 7d 84 3c ef c6 0d 3c 0d 18 8f 3d 14 5a 9b 3c
       0.016173061 0.0086533865 0.06987009 0.018963851
0000a0 28 49 c5 be c9 4c 3f 3d 36 b9 be 3d 7a 8b 8e 3d
       -0.38532376 0.046704087 0.0931267 0.06960197
0000b0 31 41 ff 39 1a ec e5 3d b0 11 1c bd b3 c0 1a bf
       0.00048685962 0.112266734 -0.038102806 -0.60450286
0000c0 e3 c6 28 bd 18 0c 29 bd d6 54 a8 be d9 d3 14 bd
       -0.0412053 -0.0412713 -0.32877225 -0.036334846
0000d0 ff bb 3c be ae 72 4b bf cc e4 4f 3d 1a 45 1a 3e
       -0.1843109 -0.7947186 0.050755307 0.15065423
0000e0 60 99 71 bc 54 9c 11 bd c3 a1 3c 3c f8 aa 04 3e
       -0.01474604 -0.035549477 0.011513176 0.12955844
0000f0 f3 49 88 bc 55 36 ed bd 02 d5 94 bd ab d9 f9 bd
       -0.016636824 -0.11582629 -0.072671905 -0.1219972
000100 fa 17 8f 3d 16 ef 57 bd 78 bb b3 bd 24 fb 37 be
       0.06986995 -0.052718244 -0.08775991 -0.17966896
000110 9d c1 e0 3c e4 d9 25 bd d3 e6 03 be 65 65 09 bc
       0.027436072 -0.040491 -0.12881021 -0.008385991
000120 33 38 81 3d 39 ac 97 bd 54 cb dd be af 30 cc bd
       0.06309547 -0.07405896 -0.4331919 -0.09970223
000130 11 35 1b 39 2f ac 9e 3e fd 70 ea be 73 72 9e bd
       0.0001480172 0.3099074 -0.45789328 -0.07736673
000140 c3 cb cf 3d 6b 73 23 3d 70 66 b4 be 45 35 90 be
       0.10146286 0.039904993 -0.35234404 -0.2816564
000150 16 f1 e3 bd 89 5e ab be 48 11 1c bd 66 4b 6b 3d
       -0.11129968 -0.33470562 -0.03810242 0.057444952
000160 1a b3 6f bb 22 9e a8 be 99 3e 9d bd e3 07 05 be
       -0.0036575259 -0.32933146 -0.07677955 -0.1299129
000170 e5 d6 3f be f1 59 20 bd 87 04 d4 bd be d5 b5 3c
       -0.1873432 -0.039148275 -0.10352426 0.022196647
000180 6c 6b b2 3d 06 17 1f 3e 87 33 4d be 8a 0d 15 bd
       0.08711895 0.15536126 -0.20039187 -0.036389865
000190 fe 13 26 be 03 3e e9 be 36 8f 8a be 96 26 2c bd
       -0.16218564 -0.45555124 -0.27062386 -0.042028986
0001a0 37 d3 2f 3d 25 f5 a5 be 6c b3 99 bc 38 20 30 bc
       0.04292604 -0.32413593 -0.018762313 -0.010749869
0001b0 ef 0f cb bd 9e fa 7a 3c a8 e1 cf 3b 49 49 20 bd
       -0.099151485 0.015318541 0.006344039 -0.03913239
0001c0 c8 1a ff bb d0 fa cc bd 8f f0 42 3d 82 06 f5 be
       -0.007785175 -0.10008776 0.047592696 -0.47856528
0001d0 ae ba b6 3c 6d 40 17 be 7d ea 8a be bf 05 f8 be
       0.022305813 -0.1477067 -0.27132025 -0.48441884
0001e0 81 41 9b 3d 8c 8c 5a be 1f dd 65 bf 89 a1 ba bd
       0.07580853 -0.21342677 -0.8979053 -0.09112842
0001f0 95 34 19 be 9f d9 b3 be e7 20 52 bf e3 f0 06 bf
       -0.14961465 -0.3512697 -0.82081455 -0.52711314
000200 bd e4 17 bd c8 9e 21 3d 9b c4 83 3d cb 29 ea 3b
       -0.037083376 0.039458066 0.06433984 0.0071460954
000210 a5 d8 08 bd e2 0c 20 3d d5 72 47 bc 7d 88 ad 3c
       -0.033409733 0.039074786 -0.012173374 0.021183247
000220 bf 38 1c bd aa 4e a5 bd 2f 35 80 bd 7f 3e 7d 3c
       -0.038140055 -0.080716446 -0.06260144 0.015456795
000230 2d 6b f6 3c 2b 26 1a bc 5c e7 0a 3c 53 30 16 bd
       0.030080402 -0.009408514 0.008478012 -0.03666718
000240 9c d7 03 3d 05 03 15 bc d2 16 83 bd 7a 32 04 3d
       0.032188043 -0.009094958 -0.06400837 0.0322747
000250 a4 60 a6 3c 3e 8c 8f 3c f1 2a 1a 3d 11 ee 88 bd
       0.020309754 0.017522927 0.03763861 -0.066860326
000260 06 b8 8c 3d 1c 3a be bc a4 b0 19 3d a9 71 8e bc
       0.06871037 -0.023221068 0.037521973 -0.017388182
000270 13 28 d4 bc b3 c4 91 bd 1e 81 16 3d 08 4e 6e 3c
       -0.025898015 -0.071175955 0.03674423 0.014544971
000280 b5 73 41 3d 6c da 92 bd a1 38 66 bd 26 6f b4 3c
       0.047229487 -0.07170567 -0.05620635 0.022025656
000290 48 2d 9c bd 4d ba 68 3d cd 37 13 3d bb dc 95 bd
       -0.07625824 0.056818295 0.035941888 -0.073174916
0002a0 4e 72 63 3d ce f3 18 bd e5 c4 1c bd 77 78 f5 bb
       0.05552893 -0.037341885 -0.03827371 -0.007491167
0002b0 06 d5 25 bd 2f 49 82 bc 78 21 1b bc 5d 9b e4 3a
       -0.040486358 -0.015904037 -0.009468429 0.0017441321
0002c0 38 fa 71 bc dc ac 4c 3d ac 02 a6 bd d0 d7 b0 3c
       -0.014769129 0.04996954 -0.08105978 0.021587282
0002d0 2c f9 5b bd d9 07 4e bd fd 88 79 bd 78 df 58 3a
       -0.053704426 -0.050300453 -0.060921658 0.00082730455
0002e0 f4 fe 8a 3c ef 9d 2a 3d 07 66 1b bd 6c e7 95 bc
       0.016967274 0.041654523 -0.037939098 -0.018298827
0002f0 ff 0c 33 3d 22 1a 98 3b e2 05 64 bb dd 97 99 bd
       0.043713566 0.004641787 -0.0034793545 -0.07499669
000300 4d 1c 8c bc a1 38 6c bd 9d 2a b0 bd 8f 63 46 bc
       -0.017103339 -0.057671193 -0.08601878 -0.012108698
000310 b9 ee b1 bd ee 26 86 3d b4 5d 91 3d 37 df eb bc
       -0.08688111 0.06550394 0.070979506 -0.02879296
000320 d8 43 61 bd 3e 15 d8 bc 94 0e b6 3b 75 87 76 3d
       -0.05499634 -0.026377317 0.005555937 0.060187776
000330 cd 9a 81 3d 7d 2d 20 bd 4b d4 ca bc 9c 45 09 3d
       0.06328354 -0.03910588 -0.024759432 0.03351365
000340 45 26 6a 3d 0e f3 8d 3d 99 82 8b bd de bd 83 bc
       0.057165403 0.06931125 -0.06812019 -0.016081747
000350 60 4c 85 3d 40 1c 53 3d 02 1b 26 3d c9 4a a3 bd
       0.06508708 0.051540613 0.0405531 -0.079732485
000360 64 22 fd bb f2 16 92 bd fe 55 ae bd f4 2c 45 bd
       -0.007725047 -0.07133283 -0.085124955 -0.048138574
000370 b2 d3 91 3d c3 53 8b 3d 75 69 6b bd 7e bb 8e bd
       0.07120456 0.06803086 -0.05747362 -0.06969355
000380 f8 67 7d 3d 49 13 91 3d 7c 01 74 3b 8d d7 81 bd
       0.06186673 0.070837565 0.003723233 -0.06339941
000390 08 58 48 bc aa 4f c6 39 ef 46 83 bd 2b 70 90 3d
       -0.01222802 0.00037824857 -0.06410014 0.07052644
0003a0 c3 a5 85 bc e2 fb 99 bd 7a d5 31 39 0b df 48 bd
       -0.016314393 -0.07518746 0.00016959562 -0.049040835
0003b0 1e 3c 02 3c 5d c9 87 bd e3 2a 08 bd 47 c2 b9 3c
       0.007948903 -0.06630204 -0.033244025 0.022675646
0003c0 77 7a f0 bc 79 55 10 bd b5 6f 11 bd 3f 40 66 bd
       -0.02935527 -0.035237763 -0.035506923 -0.056213614
0003d0 77 f6 73 bd a2 5e af bc 97 23 f2 bb 75 e1 c6 bc
       -0.05956122 -0.02140743 -0.0073894965 -0.024277428
0003e0 2d 9c 1c 3d de 87 53 3d 76 f1 21 bc 89 5d d7 bc
       0.03823488 0.051643245 -0.009884229 -0.026289718
0003f0 86 8b 0d bd fd 0e 3f 3d be a3 1c bd ab be 51 3c
       -0.034556888 0.046645153 -0.038242094 0.012801806

layer2.bias f4 [128]
000000 fb 12 d9 3b bd 1f 2e bc 73 c7 3a 3d 18 04 83 3e
       0.006624577 -0.010627684 0.045600366 0.2558906
000010 d8 a6 5c 3c ba 4b ef bc dd ef 2f 3c 39 fc 90 bc
       0.013467513 -0.029210914 0.01073834 -0.017698394
000020 04 a8 ed 3c 64 de e2 3b 4f 80 62 bb 69 17 a2 3e
       0.02901078 0.0069234837 -0.003456134 0.31658486
000030 3a 85 6c 3e a6 20 a0 bd ea 26 18 3e 47 12 90 3e
       0.23097697 -0.07818727 0.14858595 0.28138945
000040 e4 bc 43 3e 43 81 a3 3e dc 4a 24 3e 32 bc 97 bd
       0.19115025 0.31934556 0.16044182 -0.07408942
000050 6a 0c b5 3e fa a7 3c be f7 0a 69 3e 2f 07 4c 3d
       0.35361034 -0.18423453 0.22758089 0.04981154
000060 d1 14 6a 3d b7 70 cc 3d 37 1d 6f 3e 3b 79 8c 3e
       0.05714876 0.09982436 0.23350988 0.27436242
000070 8a 74 2f be 9c 9b 8b 3e ac 77 1b bd e3 ed b2 bb
       -0.171343 0.27267158 -0.037955925 -0.005460487
000080 87 24 0b 3d ab 70 d4 3c 94 67 b9 bc 96 73 89 3e
       0.033970382 0.02593263 -0.022632398 0.26845998
000090 e0 97 e7 bc 35 b5 b8 bc 82 24 0b 3e 55 29 c9 3d
       -0.028270662 -0.022547344 0.13588145 0.098223366
0000a0 47 f3 83 3e a8 52 f4 3b 6a 5f 88 3e df 6b 61 bd
       0.25771543 0.0074561425 0.26635295 -0.055034515
0000b0 78 c9 f5 bd d9 57 8f 3d 55 b1 76 bd 1e 67 72 3e
       -0.12001318 0.069991775 -0.06022771 0.23672149
0000c0 42 6f 97 3e 47 15 ae 3e bc 9d 6b 3d 64 42 8d 3d
       0.2957707 0.34000608 0.057523474 0.06897429
0000d0 7d d4 cf 3e 8c e2 8d 3e d4 b9 5a bd 2a fb 0d 3e
       0.40591803 0.27711904 -0.053399876 0.13865343
0000e0 a2 3a ae bd cd 2f 52 bd 1e 47 db 3c 58 ec e6 3d
       -0.08507277 -0.051315118 0.02676731 0.11275548
0000f0 56 74 9c bc 70 1a b2 3d 33 49 b7 bc 53 06 8d bd
       -0.019098442 0.08696449 -0.022373771 -0.06885972
000100 b2 ab ab 3d 4a e6 98 3e cc 1b 96 bd d9 15 67 3d
       0.08382358 0.29863197 -0.073295206 0.05641732
000110 df 8f d2 b7 d2 b7 a1 bd 8e 3d 2f 3e 77 8e 1b 3e
       -2.5100946e-05 -0.07896389 0.17113325 0.15191065
000120 43 3b 47 bc 6e f3 e7 3d d0 33 80 3e 5e 14 20 3d
       -0.012160125 0.113257274 0.2503953 0.039081924
000130 63 cb 60 ba d6 b5 13 3e 6d a5 1c 3e d2 a9 30 be
       -0.0008575229 0.14424834 0.1529748 -0.17252281
000140 99 93 70 3e 45 d4 cc 3d 29 cf a7 3e 08 b7 51 3d
       0.23493804 0.10001425 0.32775238 0.051199943
000150 db 04 f6 3d 3b 99 c2 bb a2 e8 86 3c ae 8f f3 bd
       0.12012645 -0.0059386767 0.01646835 -0.11892639
000160 4b bd 70 3e 97 60 c6 bd 8d 4a 31 3d ad 18 1d be
       0.2350971 -0.09686392 0.043283988 -0.15341444
000170 f6 bc 48 bc 53 9e 87 3d 5a 3a 75 3e 5b 00 b3 3e
       -0.012252083 0.06621995 0.2394804 0.3496121
000180 44 40 b4 3e 78 e4 81 3e 55 8f 71 3d fd 20 0a bd
       0.3520528 0.2536962 0.058974583 -0.033722866
000190 da 96 a2 bd 1e 29 7d 3e 0c 4b 1e bd 9e fd 6b be
       -0.07938929 0.24722716 -0.03864579 -0.23045966
0001a0 55 e9 f0 ba 9d 8f 8b bd 47 06 64 3d da 54 21 be
       -0.0018380085 -0.068145014 0.05567005 -0.15755025
0001b0 24 4f 9d 3e fa 1e d3 3b a0 f3 2c bd b0 93 4c bc
       0.30724442 0.0064429017 -0.042224526 -0.012486383
0001c0 93 0c 8e 3e 68 ba 29 3e 9a 30 05 3c 62 7f 8c 3c
       0.27743968 0.16575015 0.008129263 0.017150585
0001d0 d8 83 92 3e b1 e3 73 bc ff ed 84 bd 5f 01 6a 39
       0.28616214 -0.014885829 -0.06490707 0.0002231649
0001e0 c6 2b d3 3c 7d f5 20 3d 6b 18 95 3b 17 d3 7d 3d
       0.025777709 0.039296616 0.00455003 0.06196889
0001f0 93 b6 93 3e 69 17 9a bd 9f fd 13 3e 91 b8 00 3e
       0.2885023 -0.075239964 0.14452218 0.12570406

layer3.weight f4 [2, 128]
000000 35 98 9e 3e 78 87 32 bd 22 4c 8e be eb 00 da 3e
       0.309755 -0.043586224 -0.2779246 0.42578825
000010 d0 11 95 3e d4 cf 98 3d 8b 46 1c be 60 43 c2 38
       0.29115152 0.07461515 -0.15261285 9.2631904e-05
000020 3f 48 95 be 8d 70 c0 3e 2a c5 80 be 3e 68 8f 3e
       -0.29156682 0.3758587 -0.25150424 0.28009218
000030 dd dc 8c 3e 11 b6 a9 bc b4 0c 8b 3e fd 15 cc 3e
       0.27512255 -0.020716699 0.2715813 0.39860526
000040 ae 78 9e 3e 94 78 75 3e c0 56 e5 3e 4a 83 95 be
       0.30951446 0.23971778 0.44792747 -0.29201728
000050 b9 3c a1 3e 37 c4 1a bf 75 3d 72 3e 57 39 6f 3e
       0.3149164 -0.6045565 0.23656256 0.23361717
000060 8b df 61 be 64 27 c0 3e 2c 25 ab 3e c7 10 98 3e
       -0.22057931 0.37530053 0.33426797 0.297003
000070 5e 61 ac be ee 16 bd 3e ee 3d a4 be e4 59 bb be
       -0.33668035 0.36931556 -0.320785 -0.3659202
000080 6d 46 87 3e 63 de 09 3d f8 31 a6 3e 2e 75 78 3e
       0.26420918 0.03365935 0.32459998 0.2426345
000090 9a cc 24 bb e4 ef 9c 3e 8e 99 c0 3e c1 1d c2 3e
       -0.0025146366 0.30651772 0.37617153 0.37913325
0000a0 3f 97 c3 3e 23 d6 79 bd 89 0c b9 3e 29 f4 8c be
       0.3820133 -0.060995232 0.36142376 -0.2753003
0000b0 18 be 9c be be a8 48 3e c8 bc 38 3d 34 28 ba 3e
       -0.3061378 0.1959562 0.04510191 0.36358798
0000c0 38 46 af 3e 68 47 ed 3e 32 c1 c5 3e 61 30 bb 3e
       0.3423326 0.4634354 0.3862396 0.36560348
0000d0 05 0b de 3e 7e 19 8a 3e 21 7f aa 3e 30 25 af 3e
       0.43367782 0.26972574 0.33300117 0.3420806
0000e0 94 65 4d 3e de 73 79 be 08 40 b0 bd e6 a7 b7 3e
       0.2005828 -0.24360606 -0.08605963 0.35870284
0000f0 2d 6b bb 3e 20 78 85 3e 0b d1 28 be ad 14 59 bd
       0.36605206 0.2606821 -0.16485994 -0.052998234
000100 6b 16 84 3e cb 4c e4 3e a8 36 94 3e 30 e0 c0 3e
       0.25798354 0.44589838 0.2894795 0.3767104
000110 05 70 b8 3d c0 05 e2 3c d0 e5 bb 3e 54 21 6d 3d
       0.09005741 0.027590632 0.3669877 0.057893112
000120 33 95 67 be ca 21 e0 3e 97 ea aa 3e e4 06 b3 3e
       -0.22615509 0.4377578 0.33382103 0.34966195
000130 2b 3f de bd 9c 74 4c 3e 2b ab b2 3e 76 0d a1 be
       -0.10851892 0.19966358 0.34896216 -0.31455582
000140 5b 97 a9 3e 4d b4 78 3e 56 b2 dc 3e f4 48 8b 3d
       0.33123288 0.2428753 0.4310481 0.06801024
000150 c0 01 b3 3e f9 fd cd 3e a6 c1 a1 3e 0d 3f d9 be
       0.34962273 0.40232828 0.31593055 -0.42430916
000160 d0 48 dc 3e 65 67 82 be d8 55 5d be 9b a9 34 bf
       0.43024302 -0.2546951 -0.21614778 -0.705713
000170 67 15 64 be 6d 9d 64 bd eb 1c d2 3e 1a c0 b5 3e
       -0.2227379 -0.055814195 0.41037688 0.35498124
000180 dc 17 88 3e 2c 3f 97 3e 0d fc d0 3e 5f 8d 89 3c
       0.26580703 0.29540384 0.408173 0.016791044
000190 f5 c4 8b 3d 17 52 b6 3e b8 21 c4 3e 7a e1 4b be
       0.06824676 0.35609505 0.38306975 -0.19910231
0001a0 aa c4 3a 3e b5 29 6b bc b7 f8 92 3e 5f 1d a3 be
       0.18239084 -0.014353205 0.2870538 -0.31858346
0001b0 55 cd e1 3e 06 71 5f bd 87 da 4b bc 54 a5 53 be
       0.44101968 -0.054551147 -0.012442238 -0.20668536
0001c0 ab 08 ec 3e 02 e7 30 3e 3b 5b 9d be 77 2f dd 3e
       0.46100363 0.17275622 -0.30733666 0.43200275
0001d0 84 71 d5 3e 79 bf 3a bc b2 bf 2b 3c 9d d0 5f bd
       0.41688168 -0.01139819 0.010482715 -0.05464231
0001e0 e9 10 33 be aa d3 5f 3e e9 77 92 be 5d 1e 9c bc
       -0.1748692 0.21858087 -0.2860711 -0.019057447
0001f0 2c 6e a1 3e 0c 85 db 3e 55 8a cb 3c 95 dd b0 3e
       0.31529367 0.42874944 0.024846235 0.34544054
000200 01 de b5 3e 69 e5 03 3b 81 9f 99 be f8 f3 ef 3e
       0.35520938 0.0020125753 -0.30004504 0.4686582
000210 1b 63 9f bd c7 60 9d 3d 1c df 2c be ac 6d 22 bd
       -0.07782575 0.076844744 -0.16881984 -0.039655373
000220 6d 57 06 bf 5f 49 96 3e b7 18 f3 bd 07 d1 9d 3e
       -0.5247715 0.29352853 -0.11869948 0.30823538
000230 c2 28 a3 3e da cc 27 bc 20 17 a4 3e 4e 87 bc 3e
       0.31867033 -0.0102417115 0.32048893 0.3682198
000240 04 55 c7 3e b4 d6 a6 3e b5 91 ac 3e 7a 60 94 be
       0.3893205 0.3258568 0.33704916 -0.28979856
000250 d0 43 e1 3e 5b 86 49 be 7e f3 c3 3e 5a 37 ac 3e
       0.4399705 -0.19680159 0.38271707 0.3363598
000260 13 f2 db bc e6 2b 48 3e 13 21 c4 3e 71 cd 8b 3e
       -0.026848828 0.19547996 0.38306484 0.27305177
000270 6d 5c 3b bf 08 09 b8 3e 6c 6a 3d bd ae 00 34 be
       -0.73187906 0.3594439 -0.04624407 -0.17578384
000280 72 2a 9e 3e e3 59 1a be bc 51 ba 3e 17 c7 b1 3e
       0.30891758 -0.15073352 0.36390483 0.34722206
000290 e4 2a 1b 3d fc 31 8b be 11 7c a3 3e d9 2a a4 3e
       0.0378827 -0.27186573 0.31930593 0.3206394
0002a0 7b 47 8b 3e 9e e1 0f 3d 0f 23 53 3e de 2e 4a be
       0.27202973 0.035127275 0.20618843 -0.19744441
0002b0 57 e9 8e be a2 6a ba bc 0e 70 a3 bc ad 93 a8 3e
       -0.279124 -0.022755925 -0.019950893 0.32925168
0002c0 b7 6c d2 3e 98 8b 9e 3e 29 18 94 3e 92 4f ba 3e
       0.41098568 0.30965877 0.28924683 0.36388832
0002d0 5b 42 b3 3e 57 0b ac 3e 6b 38 d3 3e 89 5c 8e 3e
       0.35011563 0.33602402 0.4125398 0.27804974
0002e0 a0 14 7e be 5a d0 db bd c9 9f 93 be f5 b8 82 3e
       -0.24812555 -0.10733099 -0.28832844 0.25531736
0002f0 6d 63 ab 3e 97 5b 98 3e 9c 54 c5 3d 68 d7 b2 bc
       0.33474293 0.29757378 0.096352786 -0.02183123
000300 c6 f9 ac 3e 45 f0 9a 3e 99 d4 d6 3e bb 27 c3 3e
       0.33784312 0.30261436 0.41959074 0.3811625
000310 c3 10 ef 3e f0 1b b9 bc 13 17 8c 3e a6 6a 57 3e
       0.46692476 -0.02259633 0.27361354 0.21036777
000320 8b 84 88 be b2 14 e2 3e 68 d8 a7 3e 41 ef cc 3e
       -0.26663622 0.44156414 0.32782292 0.40026286
000330 5d 64 48 3e 4e d8 86 3e 64 a9 df 3e 7d e6 10 bf
       0.19569536 0.26336902 0.43683922 -0.566017
000340 8a 43 d7 3e b1 0a 51 be 43 74 8e 3e 04 65 42 3d
       0.42043716 -0.20414235 0.27823076 0.047459617
000350 bc 5c bb 3e 7b f4 a8 3e 7f cf 9b 3e f9 a4 95 be
       0.36594188 0.32999024 0.30431744 -0.29227427
000360 79 5c d0 3e 35 61 10 be 63 61 20 3d c9 e1 be be
       0.4069555 -0.14099582 0.039155375 -0.37281635
000370 51 5f ef be 25 92 9c 3d ba 41 ae 3e f4 0a b8 3e
       -0.46752408 0.07645062 0.3403452 0.35945857
000380 18 68 a3 3e 38 ba bf 3e ec 84 e4 3e c2 6d 27 3f
       0.31915355 0.3744676 0.4463266 0.6540185
000390 22 3f a3 bd 5b 3f bc 3e 1a 0e d4 3e c2 04 03 bf
       -0.07971026 0.36767086 0.4141701 -0.51179135
0003a0 0d 06 a8 be 62 56 97 bd 42 ff 90 3e d8 fa b1 be
       -0.32817116 -0.07389523 0.28319746 -0.3476169
0003b0 36 18 a6 3e 7e 99 20 bd 09 a1 01 bf 00 5b eb bd
       0.32440346 -0.03920888 -0.50636345 -0.11491966
0003c0 f1 35 a1 3e d1 62 92 3e fa fc 54 3d 5b 58 c1 3e
       0.31486467 0.28591016 0.05199907 0.37762722
0003d0 28 18 a7 3e c4 62 2a bd af c7 0c bc d2 d9 02 3c
       0.32635617 -0.041598096 -0.00859253 0.007986503
0003e0 e9 54 65 3e e1 0c 70 3d ee 41 d1 bd aa 8b 6c bd
       0.22395672 0.058606032 -0.10217653 -0.05775038
0003f0 da df 9b 3e 05 f4 cb 3e 58 b8 98 3e b3 23 7c 3e
       0.30444223 0.3983461 0.29828143 0.24622993

layer3.bias f4 [2]
000000 39 f5 10 3e 87 b4 e7 3d
       0.14156045 0.1131373
