cartpole_weights/episode_durations_405.pt (torch, 72007 bytes, 6 tensors)

layer1.weight f4 [128, 4]
-0.5803221 -0.51778764 0.10231115 -0.28281608 0.08160915 -0.008118505 -0.7463515 0.11000179
-0.63490546 -0.29403487 -0.38672337 -0.311498 -0.102191895 -0.4093432 -0.4867889 -0.036942404
-0.23464932 0.1592206 -0.32142285 -0.53785425 -0.55888337 0.0116922045 0.5421913 -0.29573983
0.1096816 -0.082007125 -0.35778874 0.33729076 -0.3799522 0.42345902 0.55447173 -0.2792883
0.19330987 0.14699514 0.5250476 0.05512086 0.37214386 0.3829068 0.13515536 -0.08073466
0.031114964 0.40638638 -0.53296417 0.15388742 -0.60332346 -0.7152796 -0.21235979 -0.5388212
0.33206043 -0.061792005 0.02188319 -0.009832777 0.19047745 0.48383483 -0.40849474 -0.20031187
-0.18776616 -0.22871858 0.21918839 -0.096065536 -0.20829536 -0.5562169 -0.23292111 -0.13688873
-0.42594343 -0.28890112 0.2995548 -0.10586655 0.5809382 -0.35066527 -0.2682901 0.2079972
0.40970403 0.33689445 -0.11623599 -0.030165618 -0.1558333 -0.32323796 0.8827674 0.015575642
0.3261259 -0.4012596 -0.1642818 -0.06142467 -0.20831513 0.1927551 -0.046960726 0.030019114
0.6265214 0.553459 1.1359957 0.41673535 -0.41493714 0.11982461 -0.76476604 -0.277373
-0.264797 -0.1732532 0.18852259 0.21614744 -0.16153248 -0.3717062 0.5659175 0.15453558
-0.8425985 0.39995596 -0.06342027 0.32534927 -0.17606416 -0.38054195 -0.1781095 -0.025851391
0.2522141 0.2223154 0.78967535 0.35645273 -0.66866595 -0.7185559 -0.6306387 -0.5141103
-0.5016571 0.11392892 0.7808511 0.40021056 -0.52947086 -0.40503007 0.32287708 0.38519594
-0.39246908 0.4848484 -0.10569835 -0.078139335 -0.6035163 0.2364202 -0.044673197 0.21466334
0.63498133 0.22313043 -0.38553467 -0.07887461 -0.38168767 -0.02294316 0.7617426 0.49801266
-0.51709586 -0.3566355 -0.24660224 -0.06528921 -0.0077329525 0.51178104 0.12165905 0.00880957
-0.29648343 -0.4423681 -0.56343436 0.114133745 0.23763926 -0.43027985 0.64806825 0.37158242
0.17231873 0.18386343 0.57349604 0.38833794 0.20148177 0.103031464 0.15275118 0.28394967
-0.05742161 -0.23163019 -0.33647558 -0.1842794 -0.07980941 -0.14303698 -0.042727634 0.07279407
-0.029370759 0.35825014 0.28747922 -0.06898158 -0.64833826 -0.18832314 0.49227732 -0.07315065
-0.54331976 0.08357659 0.22097401 -0.36628398 0.009952338 -0.48380715 -1.3511688 -0.4036709
-0.09683609 -0.31266436 -0.50902057 0.24683785 -0.034712855 0.10049598 -0.09068788 0.19736567
0.075326234 0.47480172 0.7385942 0.44780555 -0.3153016 -0.47247645 0.1404016 0.448764
-0.23919979 -0.03666673 -0.019252002 0.34263226 0.10941725 -0.7904786 -1.3328012 -0.57447875
-0.2094556 0.05136143 -0.3090135 0.15232226 0.35695505 -0.49399772 -0.1741169 -0.18704967
0.46393216 0.15879528 0.34386262 0.22850469 -0.29915875 0.28367645 0.6479666 0.30015892
0.15815069 0.40561837 0.5000262 -0.31177852 0.28689724 -0.35631266 -0.42883265 -0.38505235
0.21570013 -0.26558957 -0.23859823 -0.45917362 -0.5280372 -0.56628954 0.007676169 -0.11133646
0.3951939 -0.17819285 0.18763444 -0.13401064 0.54316384 0.47977746 -0.12654023 -0.068892315
00000000: fd8f 14bf bb8d 04bf 8288 d13d 45cd 90be
00000010: b322 a73d 7a03 05bc e410 3fbf 9e48 e13d
00000020: 2a89 22bf bd8b 96be 9b00 c6be aa7c 9fbe
00000030: fc49 d1bd 6f95 d1be 653c f9be eb50 17bd
00000040: e947 70be ba0a 233e 8991 a4be d1b0 09bf
00000050: fb12 0fbf a990 3f3c 0dcd 0a3f 366b 97be
00000060: bfa0 e03d 5af3 a7bd 1630 b7be 60b1 ac3e
00000070: 1889 c2be 9fcf d83e dcf1 0d3f e0fe 8ebe
00000080: 06f3 453e e585 163e 8569 063f 69c6 613d
00000090: a489 be3e 5c0c c43e 2b66 0a3e 3758 a5bd
000000a0: cfe4 fe3c e011 d03e 5770 08bf aa94 1d3e
000000b0: 6873 1abf 901c 37bf d874 59be 30f0 09bf
000000c0: d303 aa3e 9d19 7dbd 6044 b33c a819 21bc
000000d0: 850c 433e 33b9 f73e 3926 d1be 8e1e 4dbe
000000e0: c645 40be 3435 6abe ec72 603e 02be c4bd
000000f0: 614b 55be 3b64 0ebf df82 6ebe 8f2c 0cbe
00000100: 4215 dabe d9ea 93be 3f5f 993e 90d0 d8bd
00000110: 5eb8 143f 668a b3be 525d 89be 38fd 543e
00000120: bac4 d13e 6e7d ac3e 220d eebd e31d f7bc
00000130: c492 1fbe 727f a5be 0bfd 613f fa30 7f3c
00000140: f9f9 a63e e671 cdbe 7d39 28be 6f98 7bbd
00000150: 9050 55be 9861 453e e459 40bd a5ea f53c
00000160: b563 203f 7daf 0d3f 4f68 913f 565e d53e
00000170: a472 d4be 9b66 f53d b5c7 43bf d503 8ebe
00000180: 7993 87be 4969 31be 110c 413e c155 5d3e
00000190: c568 25be 4650 bebe f8df 103f 933e 1e3e
000001a0: 89b4 57bf 07c7 cc3e 7de2 81bd 2e94 a63e
000001b0: 2a4a 34be 65d6 c2be 5662 36be 4cc6 d3bc
000001c0: 3522 813e a6a6 633e 2a28 4a3f f980 b63e
000001d0: b12d 2bbf 48f3 37bf 8a71 21bf bc9c 03bf
000001e0: 9a6c 00bf 9153 e93d dce5 473f 66e8 cc3e
000001f0: 678b 07bf 1a60 cfbe 2550 a53e 6738 c53e
00000200: b5f1 c8be 0d3e f83e 6078 d8bd 8407 a0bd
00000210: 0b80 1abf 2318 723e 3efb 36bd b5d0 5b3e
00000220: 238e 223f 4e7c 643e cd64 c5be 0389 a1bd
00000230: 916c c3be 4bf3 bbbc 9001 433f 84fb fe3e
00000240: 6560 04bf ee98 b6be 4c85 7cbe 59b6 85bd
00000250: b564 fdbb 1504 033f 6128 f93d 0456 103c
00000260: adcc 97be 127e e2be 3c3d 10bf f4be e93d
00000270: b557 733e a44d dcbe cde7 253f 0d40 be3e
00000280: 5274 303e b246 3c3e a3d0 123f 3bd4 c63e
00000290: 3d51 4e3e 2902 d33d ce6a 1c3e da61 913e
000002a0: ec32 6bbd 7730 6dbe 8746 acbe bdb3 3cbe
000002b0: 1e73 a3bd 4978 12be 2c03 2fbd 0f15 953d
000002c0: f29a f0bc 906c b73e 7a30 933e 3746 8dbd
000002d0: 7ff9 25bf c8d7 40be c60b fc3e 02d0 95bd
000002e0: 0117 0bbf 342a ab3d 0347 623e 9389 bbbe
000002f0: 220f 233c 92b5 f7be 19f3 acbf f4ad cebe
00000300: 0052 c6bd 8b15 a0be 2c4f 02bf 10c3 7c3e
00000310: 112f 0ebd d6d0 cd3d 91ba b9bd 3a1a 4a3e
00000320: a444 9a3d 3619 f33e 8214 3d3f c546 e53e
00000330: 366f a1be 6fe8 f1be 70c5 0f3e 65c4 e53e
00000340: caf0 74be da2f 16bd 60b6 9dbc 7f6d af3e
00000350: 2716 e03d ce5c 4abf 3b99 aabf 0a11 13bf
00000360: 877b 56be 5d60 523d 0437 9ebe 5efa 1b3e
00000370: d0c2 b63e 45ed fcbe b34b 32be f389 3fbe
00000380: 8488 ed3e 3b9b 223e c30e b03e 22fd 693e
00000390: 562b 99be 0a3e 913e 24e1 253f 6eae 993e
000003a0: 41f2 213e 36ad cf3e b801 003f 6fa1 9fbe
000003b0: 32e4 923e 9d6e b6be f48f dbbe 9525 c5be
000003c0: 7fe0 5c3e 5bfb 87be 1853 74be ce18 ebbe
000003d0: 722d 07bf 5af8 10bf 5f88 fb3b 5f04 e4bd
000003e0: db56 ca3e 3078 36be 3e23 403e 163a 09be
000003f0: c90c 0b3f 64a5 f53e c393 01be 6a17 8dbd

layer1.bias f4 [128]
-0.023885434 0.22258091 0.58654857 0.27601436 -0.24972153 0.3915841 0.5551836 0.5546536
0.28026637 -0.13113165 -0.12334381 -0.04762536 0.3031774 0.05338343 0.5312413 -0.1325422
0.2607232 0.21540202 0.331918 -0.53674704 0.36394534 -0.378199 -0.04583631 -0.20556365
-0.36677873 -0.3873448 -0.14617819 0.6215099 -0.42978856 -0.020966891 -0.375534 -0.43457064
0.66618454 0.37633595 -0.438443 -0.5254266 0.5442071 0.37575832 0.46822563 -0.44407597
-0.43179277 0.6989201 0.7012655 0.6284624 0.49367797 0.3162524 0.4326492 -0.11416943
0.47859147 0.3676724 -0.03278479 0.3668875 -0.46058065 -0.042080473 0.64628404 0.55066293
0.67578834 0.60061675 0.6501052 0.71186316 0.51931936 0.02437959 -0.4119192 -0.2760501
0.37963945 0.29295948 0.5108685 -0.27778554 0.38319707 0.6845254 0.45221817 0.56752354
0.16876362 0.6077924 -0.06411594 0.26585072 0.51887757 0.1655337 -0.3295886 -0.26193514
-0.35062575 0.32974258 -0.5085568 -0.05251963 -0.117879644 -0.33355415 0.52172923 0.27954903
0.46687263 -0.037940934 0.3544828 -0.47621953 -0.47778103 0.689412 0.020972177 0.64995795
0.63766205 0.23663044 -0.16062726 0.20338869 -0.54702187 -0.05067233 -0.043927483 0.30776778
0.33011624 -0.016863067 0.5046855 -0.4321478 -0.18040293 0.2993017 -0.35394135 0.41939318
0.17587554 0.357056 0.38890186 -0.32849985 0.43369645 0.065461926 -0.37108946 -0.4976218
0.59226674 0.10753244 -0.21952482 -0.4083814 0.20344046 -0.016181028 -0.12308248 0.02457017
00000000: 63ab c3bc 40ec 633e 0c28 163f c151 8d3e
00000010: 00b7 7fbe b67d c83e 8320 0e3f c7fd 0d3f
00000020: 137f 8f3e 6047 06be ae9b fcbd cf12 43bd
00000030: 113a 9b3e 95a8 5a3d 6eff 073f 24b9 07be
00000040: 837d 853e 5992 5c3e 28f1 a93e 4168 09bf
00000050: 0b57 ba3e 4da3 c1be dbbe 3bbd 477f 52be
00000060: 6cca bbbe 0f52 c6be bcaf 15be 461b 1f3f
00000070: 3f0d dcbe c2c2 abbc fe45 c0be 0b80 debe
00000080: 128b 2a3f 1baf c03e 9a7b e0be 5c82 06bf
00000090: 2851 0b3f 6563 c03e 45bb ef3e ed5d e3be
000000a0: f113 ddbe 6dec 323f 2386 333f e9e2 203f
000000b0: 5cc3 fc3e d6eb a13e 3284 dd3e aad1 e9bd
000000c0: f109 f53e 8f3f bc3e 5849 06bd aed8 bb3e
000000d0: 3ad1 ebbe 935c 2cbd df72 253f 3ff8 0c3f
000000e0: 7700 2d3f 05c2 193f 4b6d 263f aa3c 363f
000000f0: 1df2 043f b5b7 c73c 13e7 d2be 7056 8dbe
00000100: 1a60 c23e c9fe 953e 47c8 023f e839 8ebe
00000110: 6832 c43e 0e3d 2f3f 2489 e73e 3949 113f
00000120: 5fd0 2c3e 4898 1b3f 384f 83bd 961d 883e
00000130: 29d5 043f ab81 293e d6bf a8be 5d1c 86be
00000140: 3885 b3be 05d4 a83e c730 02bf d31e 57bd
00000150: e26a f1bd 9cc7 aabe 0c90 053f 0d21 8f3e
00000160: ee09 ef3e f467 1bbd c57e b53e 0cd3 f3be
00000170: b79f f4be 4e7d 303f d8cd ab3c a563 263f
00000180: d23d 233f 404f 723e 797b 24be 2045 503e
00000190: a009 0cbf ca8d 4fbd 4eed 33bd bd93 9d3e
000001a0: ff04 a93e 6a24 8abc 1233 013f 7a42 ddbe
000001b0: 8cbb 38be 133e 993e cd37 b5be b4ba d63e
000001c0: b818 343e 0bd0 b63e 251e c73e 2231 a8be
000001d0: 760d de3e e710 863d 70ff bdbe 49c8 febe
000001e0: cb9e 173f f839 dc3d 1dcb 60be 5e17 d1be
000001f0: b252 503e 138e 84bc ab12 fcbd 6247 c93c

layer2.weight f4 [128, 128]
-0.61676705 0.09686035 0.0151196 -0.00046399108 0.006073117 0.06818827 0.097403064 -0.063273355
0.12169557 -0.19923149 -0.22804463 -0.36386213 0.19182613 0.006708619 0.1001192 -0.14020373
-0.020115774 0.113319434 -0.02505501 -0.22332788 0.1650557 0.019510433 -0.21650927 -0.3950174
-0.1003103 -0.10812923 -0.41793245 0.14299707 -0.440948 -0.448849 -0.064573176 -0.099919245
0.025890905 0.11724735 -0.24161997 -0.038435407 0.032513354 0.051122714 0.09050484 0.009635717
-0.39404243 0.111572996 0.12311535 0.10683687 0.04826314 0.12810828 -0.019664492 -0.6218795
-0.012642293 0.017783567 -0.30867234 -0.0152998995 -0.18974364 -0.8230018 0.088382564 0.18674403
0.038977604 0.018352615 0.0515897 0.16245334 0.0094971815 -0.12043473 -0.07476142 -0.12692365
0.12404003 -0.046387713 -0.050350796 -0.18182936 0.068602696 0.010359879 -0.075248905 0.03177195
0.08218061 -0.033084642 -0.44106033 -0.06942976 0.032437466 0.3473048 -0.4712688 -0.09776108
0.08192586 0.057646126 -0.3623737 -0.25475952 -0.10617409 -0.3514088 -0.0010599573 0.07467127
0.0085195685 -0.29689613 -0.030880693 -0.13395952 -0.2001294 -0.007781998 -0.09832312 0.06974356
0.11696828 0.20116916 -0.20428732 0.017405532 -0.16788575 -0.4730462 -0.24813187 -0.025253195
0.056501098 -0.28570196 0.025779251 -0.014681711 -0.09154011 0.04529115 -0.048531223 0.0056709223
0.006625441 -0.09096608 0.10738956 -0.4925115 0.05237278 -0.09671913 -0.2787604 -0.4982856
0.12920499 -0.2111817 -0.92372715 -0.1105404 -0.11150505 -0.31328633 -0.8442072 -0.53881973
-0.038128134 0.0406073 0.0662204 0.007355047 -0.034350015 0.04022402 -0.012520985 0.021810101
-0.039243 -0.08301491 -0.064482 0.01591704 0.030952793 -0.009671601 0.008713082 -0.037711937
0.033128325 -0.009356148 -0.065888934 0.033214983 0.02088437 0.018045306 0.03869141 -0.06874089
0.07067294 -0.02390016 0.03856673 -0.017902222 -0.026629345 -0.07326547 0.037788987 0.014962874
0.048587672 -0.073795184 -0.057826035 0.02265251 -0.078461945 0.058478776 0.036986645 -0.07526443
0.057103455 -0.038386643 -0.039390024 -0.007707456 -0.04163559 -0.016374178 -0.009737507 0.0017939262
-0.015188383 0.0514322 -0.08335825 0.022214137 -0.055271562 -0.051763114 -0.062709376 0.0008513878
0.017437415 0.042851426 -0.03902195 -0.018821206 0.044967275 0.004772382 -0.0035783488 -0.0770862
-0.01758573 -0.059342805 -0.0885262 -0.012451333 -0.08938853 0.067384504 0.07306902 -0.029628767
-0.056563478 -0.027141094 0.0057126507 0.06193424 0.065164104 -0.040255114 -0.025486398 0.034453932
0.058837015 0.071340576 -0.07001718 -0.016551888 0.066967644 0.053003274 0.041702334 -0.08203095
-0.007954973 -0.07342234 -0.08763237 -0.04949676 0.07329407 0.069917925 -0.05914523 -0.07176536
0.06371004 0.07292708 0.0038299807 -0.065279976 -0.012579834 0.00038894452 -0.0659807 0.07261596
-0.016784534 -0.07728409 0.00017449292 -0.050457995 0.008183974 -0.0681826 -0.034184307 0.023329549
-0.030191077 -0.03628252 -0.03655168 -0.057833783 -0.061268523 -0.022034284 -0.007599431 -0.024967317
0.039347306 0.053105906 -0.010171537 -0.027047237 -0.03556058 0.04800334 -0.039355244 0.013167472
00000000: 72e4 1dbf b85e c63d 33b8 773c d443 f3b9
00000010: ff00 c73b 4ba6 8b3d 427b c73d 7695 81bd
00000020: 873b f93d 5703 4cbe 8884 69be 234c babe
00000030: 126e 443e fad3 db3b 4c0b cd3d 9191 0fbe
00000040: d6c9 a4bc 0514 e83d 2a40 cdbc 10b0 64be
00000050: 5d04 293e 58d4 9f3c 9bb4 5dbe b83f cabe
00000060: 7d6f cdbd dc72 ddbd 3efb d5be d36d 123e
00000070: f0c3 e1be 89cf e5be f13e 84bd 76a2 ccbd
00000080: 2a19 d43c 611f f03d 3a6b 77be 726e 1dbd
00000090: b92c 053d 0d66 513d 9a5a b93d 20df 1d3c
000000a0: eebf c9be 6280 e43d e723 fc3d 4acd da3d
000000b0: 92af 453d d12e 033e 6e17 a1bc 7f33 1fbf
000000c0: 9f21 4fbc d8ae 913c 4d0a 9ebe 6eac 7abc
000000d0: 284c 42be 3fb0 52bf eb01 b53d d439 3f3e
000000e0: fba6 1f3d 3958 963c b94f 533d 2b5a 263e
000000f0: 119a 1b3c 7ca6 f6bd 841c 99bd 46f8 01be
00000100: b308 fe3d 0b01 3ebd a33c 4ebd 7a31 3abe
00000110: 927f 8c3d 7bbc 293c 191c 9abd 4e23 023d
00000120: 4f4e a83d c383 07bd a9d2 e1be 3131 8ebd
00000130: 26dd 043d efd1 b13e 254a f1be f636 c8bd
00000140: bfc8 a73d 581e 6c3d 0c89 b9be d76f 82be
00000150: cd71 d9bd dbeb b3be 44ee 8aba 40ed 983d
00000160: a995 0b3c c502 98be 82f9 fcbc af2c 09be
00000170: b9ee 4cbe 2100 ffbb a25d c9bd b6d5 8e3d
00000180: 118d ef3d 4aff 4d3e b230 51be 0c96 8e3c
00000190: 3eea 2bbe 1d33 f2be 4816 7ebe cadf cebc
000001a0: b26d 673d 8747 92be 022f d33c 8f8b 70bc
000001b0: 6279 bbbd 3783 393d adc8 46bd 25d3 b93b
000001c0: 3a1a d93b 6d4c babd 0fef db3d 782a fcbe
000001d0: d784 563d ae14 c6bd afb9 8ebe 4a1f ffbe
000001e0: 504e 043e 0440 58be 6279 6cbf 0163 e2bd
000001f0: c25c e4bd 1167 a0be f71d 58bf 17f0 09bf
00000200: 3f2c 1cbd d753 263d 909e 873d 9b02 f13b
00000210: 9ab2 0cbd f1c1 243d d124 4dbc 19ab b23c
00000220: 45bd 20bd b903 aabd 240f 84bd 7464 823c
00000230: b690 fd3c a275 1ebc 51c1 0e3c d577 1abd
00000240: 91b1 073d 874a 19bc c7f0 86bd 6f0c 083d
00000250: b315 ab3c c0d3 933c e27a 1e3d 06c8 8cbd
00000260: f9bc 903d 45ca c3bc 26f8 1d3d aea7 92bc
00000270: c925 dabc 350c 96bd a0c8 1a3d d826 753c
00000280: de03 473d ee21 97bd feda 6cbd c291 b93c
00000290: a8b0 a0bd 7187 6f3d 4f7f 173d 3d24 9abd
000002a0: 50e5 693d 503b 1dbd 6f57 21bd d48e fcbb
000002b0: 158a 2abd 2423 86bc 118a 1fbc 2d22 eb3a
000002c0: b2d8 78bc 92aa 523d bbb7 aabd 6cfa b53c
000002d0: 6f64 62bd 8f05 54bd c66d 80bd ab2f 5f3a
000002e0: e9d8 8e3c fa84 2f3d 7bd5 1fbd ee2e 9abc
000002f0: 9b2f 383d a461 9c3b bb82 6abb 5fdf 9dbd
00000300: f30f 90bc 7111 73bd 394d b5bd ad00 4cbc
00000310: 5511 b7bd e300 8a3d 36a5 953d 07b8 f2bc
00000320: 1baf 67bd 0057 debc 3031 bb3b c2ae 7d3d
00000330: c274 853d 8ce2 24bd dac8 d0bc 911f 0d3d
00000340: 15ff 703d 021b 923d 2b65 8fbd d397 87bc
00000350: 5526 893d f619 593d 11d0 2a3d d8ff a7bd
00000360: 9355 02bc 745e 96bd 9a78 b3bd 1dbd 4abd
00000370: 341b 963d 2131 8f3d 4542 72bd b8f9 92bd
00000380: 697a 823d cb5a 953d 6a00 7b3b 82b1 85bd
00000390: a61b 4ebc 40eb cb39 e420 87bd adb7 943d
000003a0: b87f 89bc 1f47 9ebd 16f8 3639 0bad 4ebd
000003b0: 1316 063c 52a3 8bbd d804 0cbd 9c1d bf3c
000003c0: 4753 f7bc fb9c 14bd 37b7 15bd 1ee3 6cbd
000003d0: b4f4 7abd 3e81 b4bc a604 f9bb 4288 ccbc
000003e0: a42a 213d 9485 593d 85a6 26bc 2b92 ddbc
000003f0: f9a7 11bd 269f 443d f732 21bd 61bc 573c

layer2.bias f4 [128]
0.047688697 -0.0109411115 0.06841792 0.23700546 -0.023549238 -0.03004672 0.014257374 -0.018220773
0.041028336 0.03485877 0.0049857567 0.29686958 0.2431294 -0.08057959 0.15201399 0.26218492
0.17673364 0.29963505 0.13722092 -0.019995479 0.33667907 -0.19682848 0.20553578 0.053333126
0.07741933 0.14259098 0.21388546 0.25561357 -0.18191028 0.2530664 -0.013165507 -0.009734813
0.058849845 0.027908057 0.01890709 0.24550381 -0.02909167 -0.0218324 0.14379515 0.09775411
0.23534907 0.007670243 0.25203127 -0.03788843 -0.08634747 0.06372789 -0.06197667 0.21662553
0.27694276 0.3224694 0.062819846 0.07772348 0.3907342 0.2561233 -0.015853142 0.14955206
-0.074591056 -0.039219152 0.009388627 0.12767513 0.023879461 0.09562374 -0.024377387 -0.070838876
0.11141762 0.27993342 -0.036397725 0.08684872 -0.0014623625 -0.08126236 0.15076576 0.13202402
-0.0030178982 0.12027464 0.22912943 0.06408411 -0.004662564 0.08841886 0.15096581 -0.15649548
0.2145696 0.081960335 0.3094288 0.052662604 0.1286578 -0.005591895 0.03960136 -0.12506622
0.2149047 -0.07052805 0.056099217 -0.15994649 -0.0013921849 0.06810051 0.21877994 0.33212775
0.33334547 0.2361577 0.096774496 -0.019642862 -0.081687756 0.22678044 -0.014945477 -0.23177968
0.0059987092 -0.0690292 0.08061921 -0.1519414 0.2885345 0.0066257343 0.016993128 -0.00897909
0.258083 0.08371613 0.014109573 0.0530859 0.26709065 -0.0153123755 -0.06678763 0.00022969463
0.014986142 0.057181545 0.010785869 0.06381821 0.2675749 -0.04232579 0.1241669 0.13178287
00000000: 3955 433d 5942 33bc b21e 8c3d 8fb1 723e
00000010: 55ea c0bc 8a24 f6bc c397 693c bb43 95bc
00000020: 540d 283d 12c8 0e3d 8f5f a33b 4aff 973e
00000030: eaf6 783e e906 a5bd 8ea9 1b3e 1a3d 863e
00000040: aaf9 343e c469 993e a483 0c3e 8fcd a3bc
00000050: 3361 ac3e 688d 49be f977 523e d673 5a3d
00000060: 078e 9e3d 5f03 123e ca04 5b3e c8df 823e
00000070: b046 3abe eb91 813e 24b4 57bc c47e 1fbc
00000080: 890c 713d 709f e43c 0be3 9a3c 5a65 7b3e
00000090: a751 eebc dcd9 b2bc 093f 133e 4f33 c83d
000000a0: 59ff 703e a956 fb3b 3e0a 813e e630 1bbd
000000b0: f1d6 b0bd c583 823d 40db 7dbd 15d3 5d3e
000000c0: 71cb 8d3e b61a a53e b1a7 803d 7d2d 9f3d
000000d0: 500e c83e 9822 833e 73de 81bc 2d24 193e
000000e0: 32c3 98bd 43a4 20bd c1d2 193c 45bd 023e
000000f0: dc9e c33c 61d6 c33d 16b3 c7bc f913 91bd
00000100: ec2e e43d 6f53 8f3e c815 15bd bedd b13d
00000110: beac bfba e16c a6bd 5762 1a3e 4e31 073e
00000120: eec7 45bb 8d52 f63d e8a0 6a3e 883e 833d
00000130: 6cc8 98bb f314 b53d c896 1a3e 5a40 20be
00000140: 22b8 5b3e d2da a73d 746d 9e3e beb4 573d
00000150: dfbe 033e 373c b7bb 0935 223d 5c11 00be
00000160: fa0f 5c3e 0371 90bd 4bc8 653d 03c9 23be
00000170: f979 b6ba 4878 8b3d d907 603e a60c aa3e
00000180: 42ac aa3e 53d3 713e b531 c63d 11ea a0bc
00000190: e94b a7bd 2239 683e e0dd 74bc a757 6dbe
000001a0: d290 c43b 2e5f 8dbd af1b a53d 8796 1bbe
000001b0: cbba 933e b01c d93b 2c35 8b3c 081d 13bc
000001c0: 7423 843e 5d73 ab3d d72b 673c 9a70 593d
000001d0: 1bc0 883e c2e0 7abc f4c7 88bd 2fda 7039
000001e0: 6f88 753c 3237 6a3d 37b7 303c 1fb3 823d
000001f0: 94ff 883e cf5d 2dbd 374b fe3d 17f2 063e

layer3.weight f4 [2, 128]
0.32963032 -0.044839934 -0.26570046 0.4099357 0.26730734 0.076704666 -0.14156117 9.528461e-05
-0.30444214 0.3912387 -0.2611503 0.25983885 0.2872809 -0.02111809 0.28757635 0.38256916
0.31633693 0.21492638 0.42257985 -0.280943 0.29499507 -0.5702393 0.21038547 0.24936233
-0.2382922 0.37455055 0.31641662 0.28102884 -0.29890186 0.35281608 -0.32729626 -0.34319863
0.27789086 0.037213203 0.34342813 0.22953074 -0.0025864637 0.32009554 0.3923274 0.39945823
0.3762912 -0.06278728 0.36954325 -0.2809452 -0.31013027 0.16313839 0.04638893 0.34762892
0.3242016 0.45096743 0.4027894 0.38268113 0.41917804 0.24616621 0.35385892 0.35924965
0.19489147 -0.24839157 -0.07597739 0.3745004 0.38528365 0.27524757 -0.16619283 -0.054543186
0.27659804 0.430134 0.31028396 0.39496616 0.100299045 0.0283742 0.3651752 0.046740524
-0.22760774 0.45739487 0.32865596 0.36857152 -0.12666096 0.1857593 0.36426026 -0.24640784
0.31247693 0.16882636 0.41667995 0.069895014 0.36512554 0.42050803 0.33269864 -0.40052542
0.41420862 -0.25941107 -0.23217028 -0.6211606 -0.18343858 -0.057407737 0.39415893 0.3370336
0.24370626 0.28178096 0.42903897 0.021102464 0.07015781 0.33955982 0.4002678 -0.19439143
0.18056203 -0.018228926 0.29889187 -0.28506434 0.42610222 -0.056118283 -0.00854981 -0.12647997
0.4479228 0.1444003 -0.3134021 0.45366603 0.39935172 -0.011730172 0.010788222 -0.056209445
-0.16693257 0.20354159 -0.29659727 -0.019607663 0.3035934 0.45161113 -0.010147008 0.37169707
0.36468425 0.002071343 -0.3280761 0.45570323 -0.098234065 0.0791071 -0.15653108 -0.040804606
-0.540995 0.30068833 -0.15927903 0.2883297 0.3359958 -0.010539958 0.33423027 0.35225573
0.40028334 0.30539787 0.3039867 -0.3196527 0.42605105 -0.14444853 0.36274126 0.35134894
-0.065761425 0.1923932 0.36795172 0.2560571 -0.6729063 0.3427124 -0.0839887 -0.1384063
0.31661233 -0.06741607 0.3710523 0.33875707 0.038959913 -0.26193887 0.33723363 0.3339699
0.26491204 0.036172032 0.21110186 -0.23072857 -0.29916236 -0.055865392 -0.02052551 0.3151861
0.39697322 0.29554772 0.30241016 0.38190982 0.33454052 0.31561044 0.4190536 0.2956206
-0.2667504 -0.1131318 -0.27469936 0.26847696 0.34496927 0.31316742 0.0962594 -0.022458084
0.3479096 0.284251 0.42406294 0.38915202 0.47245875 -0.023243623 0.2731398 0.17923072
-0.27345386 0.46177223 0.32780305 0.40737632 0.17119311 0.24759641 0.4570684 -0.53669846
0.40436712 -0.11359315 0.26092994 0.048817802 0.38535336 0.34842384 0.31589386 -0.2700426
0.39090815 -0.17024562 0.006815887 -0.24588585 -0.43353462 0.07867357 0.3224167 0.34326202
0.29875022 0.36404866 0.45380995 0.68975705 -0.08200873 0.3529014 0.42355222 -0.46456328
-0.3148515 -0.02420315 0.29203406 -0.3345594 0.30753434 -0.040358115 -0.5091888 -0.11797803
0.29702258 0.26061907 0.032683417 0.3902793 0.30746576 -0.04278987 -0.008838266 0.008221573
0.21950972 0.05397935 -0.14437306 -0.059421994 0.29355782 0.40581653 0.2606581 0.2704742
00000000: 4ec5 a83e 14aa 37bd e409 88be 18e3 d13e
00000010: 82dc 883e 5617 9d3d 69f5 10be 89d3 c738
00000020: d7df 9bbe 7050 c83e 7eb5 85be 9909 853e
00000030: 7b16 933e d8ff acbc 353d 933e 1be0 c33e
00000040: eaf6 a13e a915 5c3e 635c d83e c3d7 8fbe
00000050: 9809 973e 34fb 11bf 4a6f 573e d758 7f3e
00000060: df02 74be 17c5 bf3e 5c01 a23e 03e3 8f3e
00000070: aa09 99be 4fa4 b43e 6093 a7be bbb7 afbe
00000080: b647 8e3e df6c 183d d0d5 af3e 1b0a 6b3e
00000090: a981 29bb 90e3 a33e 23df c83e ca85 cc3e
000000a0: 3da9 c03e 9e96 80bd c634 bd3e 0dd8 8fbe
000000b0: 65c9 9ebe c00d 273e 5202 3e3d 6bfc b13e
000000c0: c1fd a53e 34e5 e63e 6a3a ce3e c8ee c33e
000000d0: 819e d63e ff12 7c3e ff2c b53e 92ef b73e
000000e0: a191 473e 5c5a 7ebe 099a 9bbd 84be bf3e
000000f0: e643 c53e 40ed 8c3e 742e 2abe ad68 5fbd
00000100: 429e 8d3e 863a dc3e 8add 9e3e 0139 ca3e
00000110: 9669 cd3d 0371 e83c 3ef8 ba3e fe72 3f3d
00000120: 0112 69be a92f ea3e 9845 a83e 68b5 bc3e
00000130: 69b3 01be b037 3e3e 5280 ba3e 5652 7cbe
00000140: fafc 9f3e d1e0 2c3e 1357 d53e 1e25 8f3d
00000150: bcf1 ba3e d44c d73e 7a57 aa3e ab11 cdbe
00000160: 2713 d43e 87d1 84be 0cbe 6dbe 6204 1fbf
00000170: 53d7 3bbe 6024 6bbd 33cf c93e ab8f ac3e
00000180: 228e 793e 9845 903e ffaa db3e 13df ac3c
00000190: e6ae 8f3d c9da ad3e e7ef cc3e 8c0e 47be
000001a0: 41e5 383e d454 95bc 5b08 993e f4f3 91be
000001b0: 122a da3e 49dc 65bd 8114 0cbc f783 01be
000001c0: 2356 e53e acdd 133e 3d76 a0be ea46 e83e
000001d0: d477 cc3e e82f 40bc 15c1 303c e03b 66bd
000001e0: 5ff0 2abe 356d 503e 99db 97be 40a0 a0bc
000001f0: 9870 9b3e 9339 e73e a33f 26bc 144f be3e
00000200: e5b7 ba3e 5ebf 073b 97f9 a7be ef51 e93e
00000210: f12e c9bd e702 a23d af49 20be bb22 27bd
00000220: a67e 0abf d2f3 993e 0b1a 23be f39f 933e
00000230: a407 ac3e caaf 2cbc 3b20 ab3e dd5a b43e
00000240: f0f1 cc3e 1c5d 9c3e 25a4 9b3e 85a9 a3be
00000250: 5d23 da3e 51ea 13be 39b9 b93e 02e4 b33e
00000260: edad 86bd b902 453e 2b64 bc3e eb19 833e
00000270: 9643 2cbf 0078 af3e 4402 acbd 62ba 0dbe
00000280: 031b a23e 7011 8abd 91fa bd3e 9171 ad3e
00000290: 6e94 1f3d da1c 86be e3a9 ac3e 1afe aa3e
000002a0: 8da2 873e 2029 143d 162b 583e 1c44 6cbe
000002b0: cf2b 99be 1cd3 64bd 1d25 a8bc 1360 a13e
000002c0: 1340 cb3e 0852 973e 81d5 9a3e af89 c33e
000002d0: e548 ab3e b197 a13e 328e d63e 955b 973e
000002e0: 8293 88be a5b1 e7bd 65a5 8cbe d075 893e
000002f0: d09f b03e 7b57 a03e a623 c53d 04fa b7bc
00000300: 3521 b23e 5989 913e c71e d93e ef3e c73e
00000310: 1de6 f13e 6969 bebc fbd8 8b3e 4288 373e
00000320: 2502 8cbe 696d ec3e cdd5 a73e a193 d03e
00000330: 3f4d 2f3e ea89 7d3e df04 ea3e 1265 09bf
00000340: 3509 cf3e 87a3 e8bd 9c98 853e 2df5 473d
00000350: 094d c53e 9c64 b23e d7bc a13e 0643 8abe
00000360: 1d25 c83e de54 2ebe ce57 df3b 80c9 7bbe
00000370: 40f8 ddbe 9c1f a13d cd13 a53e 0ac0 af3e
00000380: caf5 983e 9664 ba3e c759 e83e eb93 303f
00000390: 31f4 a7bd 7eaf b43e d6db d83e 3ddb edbe
000003a0: 3734 a1be af45 c6bc 7d85 953e 5f4b abbe
000003b0: 2475 9d3e 8d4e 25bd 325a 02bf 779e f1bd
000003c0: 5813 983e dd6f 853e 0cdf 053d b0d2 c73e
000003d0: 276c 9d3e 6e44 2fbd 60ce 10bc c7b3 063c
000003e0: 28c7 603e 7319 5d3d 88d6 13be 7a64 73bd
000003f0: 364d 963e 2fc7 cf3e fa74 853e 987b 8a3e

layer3.bias f4 [2]
0.14197563 0.113437556
00000000: 0f62 113e f351 e83d
