cartpole_weights/episode_durations_439.pt (torch, 72007 bytes, 6 tensors)

layer1.weight f4 [128, 4]
00000000: 4b7f 14bf 32a9 03bf 8305 c73d bf94 91be
00000010: 10ed a43d 18f4 25bc 3cfb 3dbf 8389 de3d
00000020: 6232 22bf 1d35 97be fbed c3be b535 9fbe
00000030: 8483 d2bd f869 d2be 1c28 f7be dbfa 18bd
00000040: 77a1 7fbe f60a 153e 257f a8be fec3 08bf
00000050: d30d 0fbf eb39 1b3c 9c08 0b3f 24ee 97be
00000060: 1839 df3d 651f abbd d727 b5be 855d ab3e
00000070: 1d9e c2be be8a d73e fe2d 0e3f 8010 90be
00000080: 4115 4c3e bd3b 163e 9ed9 063f 01d9 5e3d
00000090: 4311 be3e 0022 c33e ff37 0a3e fcfd 9ebd
000000a0: 114e fe3c bc95 cf3e 8920 08bf fe3b 1d3e
000000b0: 226d 1abf c3b8 36bf 0a56 5dbe 1974 08bf
000000c0: 499e ab3e f4a4 7cbd 3532 c63c 470c 3cbc
000000d0: 5df2 413e 5df0 f43e 561e cfbe 2c59 44be
000000e0: ddbe 3fbe 5380 6bbe a9fe 623e 30bd c5bd
000000f0: 0020 57be 74ff 0dbf b677 6ebe 426c 0cbe
00000100: 58e4 d9be 4782 94be 4b92 9a3e 6637 dbbd
00000110: df0c 143f 60cd b4be f006 87be 029a 543e
00000120: 8dc6 d33e 0cd3 aa3e cb1e e9bd 16aa e2bc
00000130: 0bac 2ebe 8141 a7be 6986 5f3f 2591 563c
00000140: 4945 a63e e81b cebe f2f0 23be c98f 81bd
00000150: 6cd4 54be 52ee 443e 9ee6 3fbd c55c f53c
00000160: aef7 1f3f 7152 0d3f b11d 913f 8df7 d43e
00000170: 6563 d4be 6d59 f43d bb66 43bf d503 8dbe
00000180: a113 8abe 800b 31be 3036 393e 692f 593e
00000190: 94e8 2cbe 1b48 bfbe f41c 0f3f 9136 1c3e
000001a0: 503d 58bf d7aa cc3e 7894 8fbd 0dea a53e
000001b0: 8229 34be 2271 c3be c90e 33be fb71 d8bc
000001c0: 67d2 803e a421 633e e4b4 493f 9116 b63e
000001d0: e022 2bbf 1665 37bf f542 22bf c191 02bf
000001e0: b6ee febe 813c ed3d 7ba9 463f 468b cb3e
000001f0: ef6c 07bf cc62 cebe b508 a53e ff40 c43e
00000200: fc40 c9be 3e90 f63e 488d d4bd bee3 a3bd
00000210: ba23 1abf d321 703e b693 2cbd d68a 5a3e
00000220: 992c 223f 4cf7 633e 87f1 c4be 7927 a1bd
00000230: 8b6a c6be 5d6d bfbc 1a1c 403f e79a fb3e
00000240: 1220 04bf 5f2f b7be 821d 79be 9771 86bd
00000250: a1e1 d6bb 92b7 023f 4577 fa3d 9329 dc3a
00000260: 84e3 97be 8027 e3be cf2d 0fbf 96cf e73d
00000270: c791 743e 6330 dbbe 5990 253f a599 bd3e
00000280: ea09 303e 7cdb 3b3e f777 123f f560 c63e
00000290: e34e 453e 20d6 c63d a1ce 1b3e ec4f 8f3e
000002a0: c67f 69bd 0083 6ebe 1731 aabe b9ae 3cbe
000002b0: 1fc2 a2bd 62eb 13be e51a 22bd 6c11 933d
000002c0: ad81 fcbc 8dbd b53e 0d99 933e 114f 93bd
000002d0: 9f9c 25bf 150a 42be 58d1 fc3e c465 97bd
000002e0: c629 0bbf 58d5 a63d e34d 643e da54 bcbe
000002f0: 46e5 183c df97 f7be bc93 acbf 7716 cbbe
00000300: 56c3 c6bd a8c4 a0be 542b 01bf f7a5 7b3e
00000310: c2de 0cbd d383 ca3d 871e b3bd 4669 483e
00000320: 7bf0 993d 37c1 f23e b69d 3c3f d953 e43e
00000330: 9597 a1be f3fa f2be 183f 133e 2875 e63e
00000340: 2a5e 7bbe 291f 17bd 1d4b e2bc 49b4 ac3e
00000350: 9f96 dc3d 8bdb 49bf 2c7e aabf af96 11bf
00000360: f6c5 55be 99c2 4a3d af60 9cbe 2422 1b3e
00000370: c395 b63e e65b fdbe ff2a 2ebe ce99 3fbe
00000380: 661f ef3e ac2c 223e 5902 b13e 242e 673e
00000390: 8997 98be ee51 903e bf37 263f d8d1 983e
000003a0: d276 223e d3a9 ce3e 5c6f ff3e 9909 a3be
000003b0: 66d9 923e 81ef b6be 630f d9be 50be c4be
000003c0: 9988 5c3e 2de9 88be aaab 6fbe 6fc6 eabe
000003d0: 53b7 07bf 8227 10bf e5de 8b3b fa46 edbd
000003e0: 95e3 c93e c80d 36be f8af 3f3e 48ea 08be
000003f0: beb7 0a3f 8de8 f43e 8ce1 00be 5a13 8abd
-0.58006734 -0.51430047 0.09717848 -0.28433797 0.080530286 -0.010128997 -0.7421148 0.10866072
-0.6335813 -0.2953271 -0.38267502 -0.31095663 -0.10278991 -0.41096473 -0.4827279 -0.03734861
-0.24963938 0.14554963 -0.32909504 -0.5342406 -0.5588047 0.009474258 0.5431001 -0.29673874
0.10899562 -0.083555974 -0.35381958 0.33469787 -0.38011256 0.4209804 0.5553893 -0.28137589
0.19929983 0.14671226 0.5267581 0.05440617 0.37122545 0.38111877 0.13497923 -0.077632874
0.031043084 0.40543926 -0.53174645 0.15354916 -0.60322773 -0.71375674 -0.21614853 -0.5330215
0.335192 -0.06168075 0.024193862 -0.0114775365 0.1894011 0.47839633 -0.40452832 -0.19174641
-0.18725152 -0.2299817 0.22167458 -0.09655225 -0.21008301 -0.55467916 -0.23287854 -0.13713172
-0.42557025 -0.29005644 0.30189738 -0.10703926 0.5783214 -0.3531294 -0.2637248 0.20761874
0.4136242 0.3336414 -0.113828264 -0.027668994 -0.17057817 -0.32667163 0.8731447 0.013096129
0.32474735 -0.40255666 -0.16009882 -0.06326253 -0.20784158 0.19231537 -0.046850793 0.029951463
0.62487304 0.5520392 1.1337186 0.41595116 -0.41482082 0.11931119 -0.7632863 -0.27541986
-0.269681 -0.17289543 0.18087077 0.21209492 -0.16885597 -0.373597 0.55903554 0.1525519
-0.84468555 0.3997409 -0.0701074 0.3240513 -0.17593959 -0.3817225 -0.17486109 -0.026421538
0.25160524 0.22180802 0.7879164 0.35564092 -0.6685009 -0.7163862 -0.6338342 -0.5100365
-0.49791497 0.11583806 0.77602357 0.39754695 -0.52900594 -0.4030975 0.32233205 0.38330838
-0.39307392 0.48156923 -0.1037851 -0.08002423 -0.60210764 0.23450403 -0.042133056 0.21342024
0.633493 0.22262305 -0.3846552 -0.07868857 -0.3875316 -0.023367578 0.7504288 0.4914162
-0.51611435 -0.3577833 -0.24327663 -0.06564634 -0.006557659 0.51061356 0.1222978 0.0016797058
-0.29665768 -0.44366074 -0.55929273 0.11318891 0.23883735 -0.42810354 0.6467338 0.37031284
0.17191282 0.18345445 0.572143 0.38745847 0.19268374 0.0970881 0.15215541 0.27990663
-0.05700662 -0.2329216 -0.33240578 -0.18426026 -0.07947182 -0.1444526 -0.03957643 0.07181057
-0.030823553 0.35496178 0.28827706 -0.07192815 -0.6469211 -0.18949158 0.49378467 -0.07392457
-0.54360616 0.08146161 0.22295336 -0.36783487 0.009332007 -0.48358056 -1.3482585 -0.39665577
-0.09705226 -0.31400037 -0.5045674 0.2457503 -0.034392126 0.09888425 -0.08746057 0.19571409
0.07516571 0.47413036 0.7367815 0.4459522 -0.3156096 -0.47457084 0.14379537 0.45011258
-0.2454764 -0.03689495 -0.027623707 0.33731297 0.10770916 -0.7885062 -1.3319755 -0.5687055
-0.20876297 0.04950199 -0.30542514 0.15149742 0.35661134 -0.49484175 -0.17008589 -0.18711016
0.46703643 0.15837353 0.34572104 0.22576195 -0.29803112 0.28187507 0.6492881 0.29847598
0.15865639 0.4036394 0.49889648 -0.3184326 0.28681487 -0.35729602 -0.42394552 -0.38426447
0.21536483 -0.267404 -0.23405328 -0.45854518 -0.53014106 -0.56310284 0.0042685145 -0.11585803
0.39431444 -0.17778695 0.1871947 -0.13370621 0.5418662 0.47833672 -0.1258604 -0.06741972

layer1.bias f4 [128]
00000000: 4bab 99bc 4317 653e f063 163f 6418 8e3e
00000010: 2955 81be 2e11 c93e f15f 0e3f 341c 0e3f
00000020: d929 8d3e 3b38 09be f004 fcbd 31b6 2dbd
00000030: 367f 993e 4c94 7d3d 0017 083f 732a 04be
00000040: 2d8f 863e 5018 603e b4bc a73e 1570 08bf
00000050: d701 bb3e 0730 c1be 30e9 44bd c887 52be
00000060: 5a4f bdbe 7fbf c3be a7c8 07be cd36 1f3f
00000070: 3d88 dbbe b47d 80bc ca11 c4be ecd7 debe
00000080: e8c6 2a3f adff c03e 98f6 dfbe 3359 07bf
00000090: d883 0b3f cb7b bf3e 1a88 f03e 1a8c e3be
000000a0: ef8e dcbe 317e 333f a08c 333f 8df9 203f
000000b0: 8cfe fc3e 4c51 a23e f12b de3e 7a20 eabd
000000c0: dcee f53e f112 bd3e 5377 10bd 36e7 bc3e
000000d0: c2b6 edbe ec14 1bbd 8083 253f 950f 0d3f
000000e0: dae2 2b3f 96dd 193f 6af2 253f 2345 363f
000000f0: e33e 053f 9e65 013d ef6a d2be 27aa 8dbe
00000100: 1363 c03e 4a4e 9a3e 87a4 023f 8269 8ebe
00000110: b8f2 c43e 3c3f 2f3f 41bb e83e ff3c 113f
00000120: b2bf 2d3e 04b6 1b3f d992 71bd 2ac4 883e
00000130: cf0d 053f d6b4 283e 0ef9 a9be e5b9 86be
00000140: d01a b3be 1467 a93e f9e0 01bf b6cf 5ebd
00000150: e2b2 f4bd 305f aabe 115f 053f 0136 903e
00000160: ffa7 ef3e 2ea7 1fbd f30c b73e ecde f4be
00000170: 0ae1 f3be 658f 303f ee89 163d 5c84 263f
00000180: 5851 233f 4d1c 733e ef19 24be 2511 533e
00000190: 4542 0dbf 08b8 4bbd 38ff 35bd f0df 9e3e
000001a0: da06 aa3e 481f 92bc a5bd 013f 7d6f dfbe
000001b0: 6481 39be db10 973e 65cd b4be f708 d73e
000001c0: 8f4b 3e3e 6836 b93e 325c c73e 2af4 a9be
000001d0: d6b5 de3e 49f1 883d 2a8c bdbe 8b31 febe
000001e0: 2861 163f aded ef3d 27b7 5dbe 525f d0be
000001f0: ddcd 563e 1cfe 93bc 37ec 05be 8939 dd3c
-0.018758437 0.22372155 0.5874624 0.27752984 -0.25260285 0.3927092 0.55615145 0.55511785
0.2757099 -0.13400356 -0.12305629 -0.04241008 0.29979867 0.061909005 0.53160095 -0.12906818
0.2628111 0.21884274 0.32761157 -0.53296024 0.3652484 -0.37731954 -0.048073947 -0.20559609
-0.36974603 -0.38232037 -0.13260137 0.62192994 -0.4287738 -0.01568494 -0.38294822 -0.4352411
0.66709757 0.37695065 -0.43742824 -0.5287048 0.5449805 0.37399134 0.46978837 -0.44442827
-0.430778 0.7011443 0.7013645 0.62880784 0.49412954 0.3170265 0.433929 -0.11431976
0.48033798 0.36928514 -0.035270046 0.3689515 -0.46428496 -0.03786175 0.6465378 0.551019
0.67143023 0.6010374 0.6482302 0.71199244 0.5204908 0.03159105 -0.4109721 -0.27668878
0.37575588 0.30137855 0.510323 -0.2781487 0.3846643 0.68455863 0.45455363 0.567337
0.16967657 0.6082461 -0.058977935 0.2671216 0.51974195 0.16475233 -0.33197826 -0.263137
-0.34981394 0.33086455 -0.50733906 -0.054397307 -0.11948182 -0.33275747 0.52098185 0.28166202
0.46807858 -0.038977794 0.35752067 -0.47826326 -0.4763263 0.689688 0.036752634 0.65045714
0.63795996 0.23741265 -0.16025518 0.20612009 -0.55179244 -0.049736053 -0.04443285 0.31030226
0.33208352 -0.017837182 0.5068 -0.43639746 -0.18115765 0.29505047 -0.35312954 0.41999027
0.18583511 0.3617432 0.38937527 -0.33194095 0.43498105 0.066866465 -0.37021 -0.49647173
0.58742 0.11715255 -0.21651898 -0.40697724 0.20976968 -0.018065505 -0.1307839 0.027004974

layer2.weight f4 [128, 128]
00000000: 740a 1ebf 4c17 be3d 4d33 443c 55da 3bbb
00000010: 8103 de3b 37f0 833d 4e83 bf3d 358c 8bbd
00000020: c03f f53d 6ffd 4abe d4fd 68be 95a9 babe
00000030: 0c43 423e 770d 9d3b 1e55 c63d ea43 0fbe
00000040: d253 bcbc 0d9e e93d d767 d2bc 0e2b 64be
00000050: dfa4 263e ce72 9f3c 152d 5dbe 9649 c9be
00000060: 3713 cdbd 3bcf ddbd 07a7 d9be 0617 0f3e
00000070: ee3e e1be 9b53 e6be 98eb 83bd fc3a cebd
00000080: f437 aa3c 64fd e53d 5add 76be 693f 1dbd
00000090: bc9f f03c 58ab 433d 7905 b33d b061 1d3c
000000a0: a84c c9be 2512 dc3d 2e4f f53d a765 d33d
000000b0: c629 353d ff27 ff3d 3d9f bfbc 30c0 1ebf
000000c0: 08bf 80bc 4441 553c 52af 9dbe f003 94bc
000000d0: e2d8 41be d723 52bf e3af ac3d 4e9d 3c3e
000000e0: 3462 163d e7df 5a3c 0cda 463d 2b5a 233e
000000f0: cba7 e33b 380c fabd d8c3 98bd f09c 01be
00000100: 4c01 fa3d 191f 48bd 35a3 58bd 14ff 39be
00000110: 2f8a 833d 5acd b83b a05f 9fbd 2d47 e23c
00000120: ae02 a33d b471 1bbd a751 e2be c948 94bd
00000130: 9fc8 ed3c 032b b23e edbb f0be ce22 c6bd
00000140: 3567 a73d ad33 5b3d a41e b9be ef1f 82be
00000150: 9bb0 d8bd ae78 b3be ef6a 4ebb c730 933d
00000160: 7d4b c03b cea9 97be fa9e 07bd 000e 09be
00000170: 9572 4cbe b722 34bc 24f8 cfbd 5a68 853d
00000180: 2f5f e93d e297 4b3e 8eb4 50be ac2f 843c
00000190: b488 2bbe 2219 f3be 8a7f 7dbe 0e58 e9bc
000001a0: b4ea 593d 06ec 91be 92e5 ba3c c685 71bc
000001b0: f8f2 babd 7f8f 383d 6755 46bd a514 75b9
000001c0: a672 813b 88e0 c0bd 77bf cf3d 0785 fbbe
000001d0: 1cc9 473d 2ab8 c2bd e169 8ebe 8c88 febe
000001e0: 5324 023e d69d 5bbe 82eb 6bbf fcda e1bd
000001f0: 84c9 e2bd 5001 a0be 79a2 57bf 7125 0abf
00000200: 93d3 1bbd 4df2 253d c24e 873d bb74 f03b
00000210: cc62 0cbd 6760 243d ada8 4cbc b140 b23c
00000220: bb5b 20bd 2fa2 a9bd 56bf 83bd a614 823c
00000230: f8f9 fc3c 0115 1ebc 8371 0e3c 291f 1abd
00000240: c361 073d dbf1 18bc f9a0 86bd a1bc 073d
00000250: 29b4 aa3c 147b 933c c719 1e3d 3878 8cbd
00000260: 4d64 903d ff56 c3bc 7a9f 1d3d 024f 92bc
00000270: a5a9 d9bc 89b3 95bd f46f 1a3d f898 743c
00000280: 9890 463d 42c9 96bd 1e4d 6cbd 5a27 b93c
00000290: 1e4f a0bd 91f9 6e3d a326 173d 91cb 99bd
000002a0: 8f58 693d a4e2 1cbd e5f5 20bd 16f8 fbbb
000002b0: 8b28 2abd 56d3 85bc 8728 1fbc 4d94 ea3a
000002c0: 2845 78bc 6e2e 523d 3156 aabd 0490 b53c
000002d0: 6ddf 61bd 6b89 53bd f81d 80bd a9aa 5e3a
000002e0: 1b89 8e3c 921a 2f3d f173 1fbd 42d6 99bc
000002f0: 33c5 373d f808 9c3b dbf4 69bb b386 9dbd
00000300: 47b7 8fbc 9183 72bd d1e2 b4bd 8984 4bbc
00000310: eda6 b6bd 15b1 893d 8a4c 953d 272a f2bc
00000320: 192a 67bd fed1 ddbc c8c6 ba3b 0418 7d3d
00000330: f424 853d 0281 24bd b64c d0bc c3cf 0c3d
00000340: 3571 703d 56c2 913d c00c 8fbd 0548 87bc
00000350: 87d6 883d d29d 583d 876e 2a3d 4e9e a7bd
00000360: c505 02bc c805 96bd 320e b3bd d749 4abd
00000370: 88c2 953d eadd 8e3d 65b4 71bd 0ca1 92bd
00000380: 9b2a 823d 1f02 953d ac69 7a3b b461 85bd
00000390: 829f 4dbc 1c6f cb39 16d1 86bd 015f 943d
000003a0: ea2f 89bc b8ea 9dbd ae8d 3639 e730 4ebd
000003b0: 45c6 053c 8453 8bbd 0ab5 0bbd 56aa be3c
000003c0: 67c5 f6bc 4f44 14bd 8b5e 15bd 3e55 6cbd
000003d0: f65d 7abd d616 b4bc 876e f8bb 1e0c ccbc
000003e0: 1ac9 203d 7009 593d fb44 26bc 290d ddbc
000003f0: 4d4f 11bd e02b 443d 6dd1 20bd 3d40 573c
-0.617347 0.09281787 0.011975122 -0.0028664072 0.00677532 0.06442302 0.09351216 -0.06813852
0.1197505 -0.1982324 -0.22753078 -0.36457506 0.18970889 0.004792865 0.096842036 -0.13990751
-0.022989187 0.11407099 -0.02568428 -0.22282049 0.16273831 0.019463923 -0.21599229 -0.39313954
-0.100134306 -0.10830542 -0.42510244 0.13973626 -0.43993324 -0.4498566 -0.0644142 -0.10069844
0.020778634 0.11229971 -0.24107876 -0.03839055 0.029373042 0.047770828 0.08741278 0.00960581
-0.39316297 0.10745648 0.11977993 0.10322123 0.04422929 0.124588005 -0.02339136 -0.62012005
-0.01571609 0.013016049 -0.3079782 -0.018068284 -0.1893039 -0.8208594 0.08431985 0.18419382
0.036714748 0.013359047 0.04854779 0.15952365 0.0069474927 -0.12209362 -0.07459229 -0.12657523
0.122072786 -0.048857782 -0.05289002 -0.18163711 0.06422841 0.005639714 -0.07781911 0.02762183
0.079594955 -0.037950233 -0.4420292 -0.07240445 0.029026328 0.3479844 -0.47018376 -0.09674607
0.08173982 0.05351608 -0.3615619 -0.25414988 -0.1058056 -0.3505301 -0.0031496843 0.07187038
0.005868374 -0.29621738 -0.033110596 -0.13384247 -0.19965585 -0.010994605 -0.10154751 0.06514044
0.11395108 0.19882157 -0.20381376 0.016136013 -0.16751367 -0.47480112 -0.24755684 -0.02848437
0.053202346 -0.28500384 0.022814546 -0.014741367 -0.09128374 0.045058724 -0.04842129 -0.00023372711
0.0039504347 -0.09417826 0.10143941 -0.4912493 0.048775777 -0.09507783 -0.27815154 -0.49713552
0.12709169 -0.21446928 -0.9215623 -0.11028096 -0.11073592 -0.31251 -0.8423229 -0.5396338
-0.03804357 0.04051428 0.06606819 0.007338134 -0.034273908 0.040131 -0.012491387 0.021759363
-0.03914998 -0.08282887 -0.06432979 0.015878987 0.030880913 -0.009648562 0.0086940555 -0.037627373
0.033052217 -0.009335007 -0.06573672 0.033138875 0.02083786 0.018003024 0.038598802 -0.068588674
0.07050381 -0.023845194 0.038482167 -0.01785994 -0.02657015 -0.07309634 0.037704423 0.014929049
0.04847774 -0.07362606 -0.057690732 0.022601772 -0.078275904 0.058343474 0.03690208 -0.0750953
0.05696922 -0.03830208 -0.039297003 -0.0076894863 -0.04154257 -0.016336124 -0.009714252 0.001789698
-0.015153207 0.05131381 -0.08317221 0.022163399 -0.055144716 -0.051644724 -0.06255716 0.0008494058
0.017399361 0.04274995 -0.03892893 -0.018778924 0.0448658 0.0047618113 -0.0035698924 -0.076917075
-0.017543448 -0.059207503 -0.08832324 -0.012421736 -0.08918557 0.06723229 0.07289989 -0.029561115
-0.05643663 -0.027077671 0.005699966 0.06179048 0.06501189 -0.040162094 -0.025427204 0.034377825
0.058701713 0.07117145 -0.06984854 -0.016513834 0.06681543 0.052884884 0.041609313 -0.08184491
-0.007935946 -0.073253214 -0.08742942 -0.049386825 0.073124945 0.069759205 -0.05900993 -0.071596235
0.063557826 0.07275795 0.0038209958 -0.06512776 -0.012550237 0.0003880196 -0.06582849 0.07244683
-0.01674648 -0.07710785 0.00017409652 -0.050339606 0.008164947 -0.06803039 -0.0341082 0.023274582
-0.030123426 -0.036197957 -0.036467116 -0.05769848 -0.061124764 -0.021983545 -0.0075815353 -0.024908122
0.039254285 0.052987516 -0.010148282 -0.026983814 -0.035476018 0.047893405 -0.039262224 0.013137874

layer2.bias f4 [128]
00000000: 7a18 343d f1d7 32bc 81b3 883d 29cc 753e
00000010: 430c 81bc aa96 f5bc e47b 3f3c 0feb 94bc
00000020: 6c96 253d 1495 053d 8ea2 813b a89e 993e
00000030: 9b69 753e 5fa5 a4bd 815f 1a3e dac9 873e
00000040: decc 333e fe0a 9b3e 7ff1 0f3e 7ef0 d2bc
00000050: cdde ad3e 691f 48be 77e9 553e f35c 533d
00000060: 6433 993d 769d 0f3e 3a22 5e3e 7a5e 843e
00000070: 9c2e 3bbe 5d23 833e 788e 84bc 6a59 39bc
00000080: 39a7 663d 6e1a e43c 14da 7a3c 9d43 803e
00000090: c7c3 edbc 5b30 bcbc 6bf4 0e3e 8ec0 c63d
000000a0: 2a11 743e ebbf fa3b 5ea1 803e e4b6 24bd
000000b0: 9319 b5bd 6aa6 7d3d 8244 7dbd 30fd 603e
000000c0: 985e 8f3e 8d91 a63e b5fb 6d3d c459 973d
000000d0: c073 c93e 39ca 843e 3949 a1bc 3013 173e
000000e0: 442c 97bd d665 25bd 0633 2d3c c319 fc3d
000000f0: 9033 a13c 5ca6 bb3d 951b bdbc 4dbb 90bd
00000100: a832 dc3d 4cd5 903e 4d9d 24bd 3880 ab3d
00000110: 88fa f3ba 570b a6bd c6ff 1c3e 9d5f 0a3e
00000120: 8d53 78bb 1902 f13d 9110 6d3e bf6e 7c3d
00000130: 3609 86bb 46d6 c43d 28bb 173e ad52 24be
00000140: 61f4 5e3e 4879 a73d 3dee 9f3e 9a38 573d
00000150: d7e5 003e ca32 15bc f7f3 193d 272b 00be
00000160: 4040 5f3e b82b 92bd 803b 5a3d 10f6 26be
00000170: 5818 99bb 7a28 8b3d 6545 633e 8e90 ab3e
00000180: eb43 ac3e ccdc 743e 50eb be3d eab9 bfbc
00000190: 5fea a6bd d177 6b3e 1afe 8cbc 8b74 6ebe
000001a0: 77b7 173c 600f 8dbd 35e0 a03d 146d 1dbe
000001b0: b23e 953e 8ca0 d83b 5ee5 8a3c 5cc4 12bc
000001c0: c3ac 853e 78b0 ba3d 318b 6c3c 884e 473d
000001d0: ee4b 8a3e 044a 7abc 2678 88bd 4f4c 7039
000001e0: 683c 9e3c 76c1 613d 5862 e13b 5163 823d
000001f0: 5c90 8c3e c6a9 3abd f51c 023e d655 033e
0.043968655 -0.010915742 0.06674863 0.24003662 -0.015752917 -0.029979069 0.011687253 -0.01817849
0.040426657 0.032612875 0.0039561456 0.30003858 0.23966067 -0.080393545 0.15075494 0.26521188
0.1755862 0.30281824 0.14056967 -0.025749441 0.33959046 -0.19543232 0.20889841 0.051602315
0.07480505 0.1402491 0.21692744 0.2585333 -0.18279499 0.25612918 -0.016181216 -0.011312822
0.05631182 0.027844634 0.015310783 0.25051585 -0.029024018 -0.022972276 0.13960426 0.09704696
0.23834673 0.007652273 0.25123113 -0.04021348 -0.088427685 0.061926283 -0.061832912 0.21971583
0.28001857 0.3253292 0.058101375 0.07390168 0.39346123 0.25935534 -0.019688236 0.14753413
-0.0738149 -0.04038032 0.010571247 0.12309601 0.019677907 0.0916259 -0.023084441 -0.07066975
0.107518494 0.28287733 -0.040189076 0.08374065 -0.0018614093 -0.08107632 0.15331945 0.13513036
-0.0037891597 0.11767978 0.23150851 0.061629053 -0.0040904535 0.09611182 0.14817488 -0.16047163
0.2177291 0.081774294 0.3123645 0.052544214 0.12587677 -0.009106347 0.03758618 -0.12516461
0.21801853 -0.07137245 0.0532794 -0.16304803 -0.0046720915 0.0679483 0.2219444 0.33508724
0.33645567 0.23912352 0.09322226 -0.02340408 -0.081501715 0.22994925 -0.017211009 -0.23286645
0.00926005 -0.06887698 0.07855264 -0.15373641 0.29149395 0.0066109356 0.016955074 -0.008957949
0.2610837 0.0911569 0.014437483 0.048658878 0.27011055 -0.015276436 -0.066635415 0.00022916611
0.019315913 0.05511614 0.0068781786 0.06366599 0.27453887 -0.045572065 0.12706359 0.12825713

layer3.weight f4 [2, 128]
00000000: 4427 a83e ac3f 37bd d1d4 87be bb60 d33e
00000010: 0350 893e aabe 9c3d d8e6 13be 4360 c738
00000020: 263a 9bbe 6b9c c73e cb51 85be a3a1 863e
00000030: f82c 923e 4e9e acbc 01ea 913e c858 c53e
00000040: e46b a03e c9f3 5f3e 3827 da3e 5858 8fbe
00000050: 9bbe 983e 507d 13bf ef62 5b3e 62ae 7c3e
00000060: 3a77 72be ee21 bf3e 7e81 a33e cd34 913e
00000070: bdb9 9cbe 6928 b63e 643f a7be 933f b2be
00000080: 18ca 8d3e 3314 183d 053e af3e b9e7 6a3e
00000090: 1f20 29bb 6f8f a33e 1d84 c73e bdf9 ca3e
000000a0: e242 c03e d046 80bd 7f8a bb3e e595 8fbe
000000b0: 9657 9ebe 8b41 2c3e 0c8f 3d3d 536a b33e
000000c0: 3fac a73e 1a54 e83e fc92 cd3e 180f c33e
000000d0: 1006 d83e d0f6 7f3e e183 b43e 9392 b63e
000000e0: e790 493e 07ad 7dbe 8941 9dbd 1fc1 be3e
000000f0: f494 c43e 4b06 8c3e 5ace 2bbe abe3 5ebd
00000100: 1ff4 8c3e 6ab0 dd3e 5a4d 9e3e b999 c93e
00000110: 3f76 c73d 01ec e73c fa67 ba3e 7d3a 4c3d
00000120: b97d 68be d5df e83e 61d0 a73e 421c bc3e
00000130: 38e4 febd 60a0 3f3e fb46 b93e bc2f 85be
00000140: e993 a13e 477f 2c3e 19bb d63e 1bd3 8e3d
00000150: 7b03 ba3e 073f d63e e3bf a93e 7d47 cfbe
00000160: 9993 d53e c249 84be 8403 6cbe d129 23bf
00000170: b15f 42be 8096 6abd 8e59 cb3e bc27 ae3e
00000180: daf3 7c3e a675 913e 50f7 da3e 40d6 aa3c
00000190: 3a56 8f3d c66c af3e 024c cc3e 3fd8 49be
000001a0: 80bb 3e3e 28fc 94bc 1f7d 983e 24d3 95be
000001b0: 92a4 db3e 4757 65bd b3c4 0bbc 2934 01be
000001c0: 30a3 e63e af31 173e 79d9 a0be 4d80 e73e
000001d0: e519 ce3e a2bc 3fbc ad56 303c deb6 65bd
000001e0: 596f 2bbe f550 513e 4168 97be b63e a0bc
000001f0: 2a24 9c3e 7684 e63e 9f7c bebb 6bc0 bc3e
00000200: b01d ba3e 906f 073b a13f a9be 05cf ea3e
00000210: 37a6 c1bd 5da1 a13d bd86 23be 31c1 26bd
00000220: baba 09bf 1b97 993e 3980 24be 8d37 953e
00000230: 63e0 aa3e 404e 2cbc b38e aa3e 14de b53e
00000240: 02ea cb3e 920b 9e3e 7134 9d3e 4b9e a4be
00000250: 5fa7 db3e f2e6 1fbe b05f bb3e f254 b33e
00000260: 3892 89bd faa4 443e 11d3 bd3e bda8 843e
00000270: de3d 2fbf 2d14 b13e c09c b2bd efec 16be
00000280: 139f a13e a2c1 89bd e462 bd3e 2415 ad3e
00000290: e432 1f3d 558c 85be ebb8 ab3e 4793 aa3e
000002a0: 7755 873e 74d0 133d be29 573e 3e2a 6ebe
000002b0: 1747 9abe 9360 52bd 93c3 a7bc 95eb a23e
000002c0: 97e0 cc3e c910 993e ac79 9a3e 12f8 c23e
000002d0: 01e0 ac3e 024d a33e 23e5 d53e 6fe5 963e
000002e0: cb19 89be d827 e7bd 384a 8cbe 9714 893e
000002f0: 9018 b03e 5cb4 9f3e 923d c33d 9c8f b7bc
00000300: 5d84 b13e 3c61 933e d975 d83e 37bd c63e
00000310: 4213 f13e 23f6 bdbc 811f 8b3e a29e 3a3e
00000320: e2fc 8bbe 41aa eb3e be22 a73e 9be0 cf3e
00000330: dae3 2f3e 3011 813e 8dd1 e83e ca09 0bbf
00000340: ac89 d03e 851e e8bd b353 873e e781 473d
00000350: da26 c43e 6ee4 b13e 8955 a13e 6fb1 8dbe
00000360: bcc5 c93e 6c4f 30be cc98 bf3b 2435 8ebe
00000370: 21cb e3be 12be a03d ecd2 a63e 8b62 b13e
00000380: fea3 9a3e 4dad bb3e aeb3 e73e ec3d 303f
00000390: a792 a7bd bd4e b63e 9244 d83e ef97 f2be
000003a0: a375 a9be 69d2 c5bc cd22 953e 871c adbe
000003b0: 493e 9f3e 03ed 24bd 640a 02bf 9710 f1bd
000003c0: 48c2 993e e56e 873e abaf f93c b93e c73e
000003d0: 0333 9f3e 06da 2ebd b475 10bc f963 063c
000003e0: b1b9 623e 10f8 5a3d 2f3a 16be 9ad6 72bd
000003f0: ab45 973e 0829 cf3e 6126 873e 27a7 893e
0.32842457 -0.044738457 -0.26529554 0.41284737 0.26818857 0.07653554 -0.14443529 9.5069896e-05
-0.303178 0.38986525 -0.26038966 0.26295194 0.28549933 -0.02107158 0.28498843 0.38544297
0.31332314 0.2187034 0.42608047 -0.27997088 0.2983292 -0.57613087 0.21424459 0.24675897
-0.23678294 0.37330574 0.31934732 0.28360596 -0.30610457 0.35577706 -0.3266555 -0.34814128
0.27693248 0.03712864 0.34227005 0.22939958 -0.00258065 0.3194537 0.38967982 0.3964366
0.37551028 -0.062635064 0.36629102 -0.28044048 -0.30926198 0.16821878 0.046279 0.35042056
0.327486 0.45376664 0.40151203 0.38097453 0.42192125 0.24996495 0.35256866 0.35658702
0.19684182 -0.24773036 -0.076785155 0.37256715 0.38394892 0.2734855 -0.16777936 -0.05441634
0.2753 0.43298656 0.3091839 0.39375094 0.097393505 0.028310778 0.36407453 0.049860466
-0.2270421 0.4548327 0.32776168 0.3674031 -0.12445873 0.18713522 0.36186966 -0.2601298
0.3155816 0.16845427 0.4193962 0.06973859 0.3633078 0.4184496 0.3315421 -0.4048423
0.4171417 -0.25837523 -0.23048216 -0.6373568 -0.18981816 -0.057272434 0.39716762 0.3401469
0.24702397 0.2841007 0.4276681 0.020854115 0.06998868 0.34262675 0.3990174 -0.19711398
0.18626213 -0.018186644 0.2978296 -0.2926265 0.42898995 -0.055991437 -0.0085307835 -0.12617554
0.45046377 0.14765047 -0.31415918 0.45215073 0.4025413 -0.011702688 0.010762853 -0.0560826
-0.16741695 0.20441039 -0.29571727 -0.019561153 0.3049634 0.45022935 -0.005813196 0.36865553
0.36350775 0.0020665862 -0.33056358 0.45861068 -0.09455531 0.07892106 -0.15969367 -0.040711585
-0.5380055 0.29998097 -0.16064538 0.29143944 0.33374318 -0.010516703 0.33311996 0.35520995
0.3982697 0.30868202 0.30704072 -0.32152018 0.42901132 -0.15615442 0.3659644 0.35025746
-0.06717342 0.19203559 0.37075093 0.25909987 -0.68453777 0.34585705 -0.08721304 -0.1473882
0.31566676 -0.06726386 0.3698951 0.33805192 0.038866892 -0.26083627 0.3353952 0.3331549
0.26432392 0.03608747 0.21012017 -0.23258302 -0.30132362 -0.05136163 -0.020479 0.3182036
0.40015098 0.2989562 0.30170953 0.38079888 0.3376465 0.3189469 0.4177638 0.2947192
-0.2677749 -0.112868965 -0.27400374 0.2677352 0.3439374 0.3119229 0.09533228 -0.022407345
0.34671298 0.2878512 0.4227741 0.38816234 0.47085005 -0.023188656 0.27172473 0.18224576
-0.27341372 0.4602833 0.32643694 0.40601048 0.17176762 0.25208426 0.45472375 -0.5431181
0.40730035 -0.11333946 0.26431045 0.04870787 0.3831089 0.3474459 0.3151057 -0.27674434
0.39408672 -0.17217797 0.005847072 -0.27774918 -0.44490913 0.07848753 0.32582796 0.34645495
0.3020324 0.36655656 0.45254272 0.68844485 -0.081822686 0.35606948 0.42239815 -0.4738154
-0.33097562 -0.024148183 0.29128113 -0.33810827 0.31102207 -0.040265094 -0.50797105 -0.117707424
0.30031037 0.26451793 0.030479273 0.3891504 0.31093606 -0.042688392 -0.008817125 0.008202546
0.22141148 0.053459227 -0.14670633 -0.05928669 0.2954534 0.40460992 0.26396468 0.2688534

layer3.bias f4 [2]
00000000: 238a 113e 1da9 e83d
0.14212851 0.11360381
