cartpole_weights/episode_durations_441.pt (torch, 72007 bytes, 6 tensors)

layer1.weight f4 [128, 4]
-0.58017474 -0.5184329 0.1032011 -0.28258556 0.08215341 -0.007566522 -0.74691385 0.11068347
-0.6352519 -0.2937233 -0.38734296 -0.31146595 -0.10227245 -0.4089739 -0.48738292 -0.03677216
-0.22856691 0.16366974 -0.3194017 -0.5385459 -0.55903286 0.012138384 0.5421239 -0.29533568
0.10994715 -0.08161307 -0.35834864 0.33813357 -0.37999964 0.42388895 0.55436426 -0.27850017
0.19195627 0.14716186 0.5248888 0.055064533 0.37231836 0.38326284 0.13510647 -0.08142849
0.031127788 0.40655535 -0.5331814 0.15394777 -0.6031496 -0.71551895 -0.21167837 -0.53987026
0.33110127 -0.061729714 0.021581477 -0.009757018 0.18950221 0.48480922 -0.40913025 -0.20306745
-0.18798803 -0.22841716 0.2188469 -0.09588228 -0.20808144 -0.55670273 -0.23298894 -0.13658309
-0.4260989 -0.28859317 0.2992179 -0.10548477 0.58085036 -0.350622 -0.26892272 0.20861371
0.40875882 0.33755317 -0.116479084 -0.03091994 -0.15373507 -0.32257363 0.88457173 0.015800562
0.3265263 -0.4008645 -0.16487387 -0.060716566 -0.20839962 0.19283356 -0.04698034 0.030031184
0.62682694 0.55370146 1.1363099 0.41693717 -0.41505072 0.11972119 -0.76504403 -0.2775712
-0.26415145 -0.17316906 0.1898439 0.21657974 -0.16044097 -0.3712876 0.567068 0.15465933
-0.8419917 0.3999108 -0.062367886 0.32557753 -0.17620586 -0.38024423 -0.17857714 -0.02565297
0.25232273 0.22240593 0.7899892 0.35659757 -0.66849864 -0.7188342 -0.6300488 -0.51518285
-0.50208694 0.11371302 0.781759 0.40048945 -0.52958715 -0.40538594 0.3228741 0.38543302
-0.39244968 0.4854993 -0.105919056 -0.0775358 -0.60386014 0.23682098 -0.045053683 0.21498413
0.6352469 0.22322096 -0.38569158 -0.0789078 -0.38003716 -0.022267072 0.76430136 0.49899197
-0.51736826 -0.35635272 -0.24708407 -0.065092646 -0.008357973 0.51214224 0.121708766 0.009657101
-0.29656512 -0.44205424 -0.5640583 0.114454836 0.23908222 -0.429876 0.6483059 0.37156358
0.17239115 0.18394189 0.57373744 0.38849485 0.20312303 0.10415245 0.15296513 0.28505048
-0.057631265 -0.23133153 -0.33709773 -0.18414488 -0.0799684 -0.14269891 -0.043183494 0.07310341
-0.02914261 0.35900408 0.2875432 -0.06840595 -0.6487089 -0.18804322 0.49209857 -0.072920516
-0.54332936 0.08394239 0.22069697 -0.3654767 0.010209549 -0.48393723 -1.3517388 -0.40476474
-0.096870214 -0.31231156 -0.50971717 0.24715093 -0.034846574 0.10081989 -0.0911799 0.19796835
0.07538679 0.47469178 0.73876184 0.44855848 -0.31518462 -0.4719808 0.13987969 0.4490804
-0.23534516 -0.03532485 -0.016849894 0.34354216 0.10988593 -0.79086965 -1.3329667 -0.5754527
-0.20968781 0.051763386 -0.30956554 0.15259786 0.3568555 -0.49375778 -0.17471845 -0.18693705
0.46272093 0.15875593 0.34358665 0.2289501 -0.29942715 0.28405008 0.6478031 0.30062944
0.1579871 0.40623054 0.50053 -0.31068462 0.286776 -0.35605985 -0.42959666 -0.38506615
0.21566232 -0.26510432 -0.23930842 -0.45912722 -0.5272975 -0.5667584 0.00825156 -0.110568605
0.3953508 -0.17826527 0.1877129 -0.13406496 0.54340005 0.48004764 -0.12668474 -0.069209665
00000000: 5586 14bf 05b8 04bf 195b d33d 0eaf 90be
00000010: 0c40 a83d 96f0 f7bb bf35 3fbf 04ae e23d
00000020: de9f 22bf e662 96be d151 c6be 7778 9fbe
00000030: 3874 d1bd 0765 d1be 418a f9be 689e 16bd
00000040: 720d 6abe 0a99 273e 9f88 a3be 25de 09bf
00000050: c71c 0fbf 13e0 463c a2c8 0a3f 3d36 97be
00000060: f92b e13d c124 a7bd 7979 b7be d81f ad3e
00000070: 508f c2be f907 d93e d1ea 0d3f 9397 8ebe
00000080: 2f90 443e 99b1 163e 1d5f 063f 598b 613d
00000090: 83a0 be3e 073b c43e 5a59 0a3e fbc3 a6bd
000000a0: b4ff fe3c 0628 d03e 947e 08bf 7ca4 1d3e
000000b0: 0368 1abf 402c 37bf 37c2 58be f034 0abf
000000c0: 1b86 a93e 4cd8 7cbd a3cb b03c e6db 1fbc
000000d0: de0c 423e ea38 f83e 8579 d1be eaf0 4fbe
000000e0: ef7f 40be 30e6 69be 6719 603e ee5d c4bd
000000f0: 4d13 55be 1284 0ebf a794 6ebe 70dc 0bbe
00000100: a329 dabe 7cc2 93be 1733 993e 6608 d8bd
00000110: 9cb2 143f ba84 b3be 3db0 89be d59e 553e
00000120: d648 d13e c5d3 ac3e 968c eebd d04b fdbc
00000130: ba6c 1dbe 5f28 a5be 4b73 623f 2e70 813c
00000140: 752e a73e 1d3e cdbe b2d4 28be efb1 78bd
00000150: b666 55be 2976 453e 756e 40bd f503 f63c
00000160: bb77 203f 61bf 0d3f 9a72 913f ca78 d53e
00000170: 8781 d4be 6230 f53d edd9 43bf d01d 8ebe
00000180: dc3e 87be 3b53 31be 7066 423e 14c7 5d3e
00000190: a34a 24be 6919 bebe 5e2b 113f 045f 1e3e
000001a0: c58c 57bf 1cc1 cc3e 7875 7fbd 19b2 a63e
000001b0: 4f6f 34be 5faf c2be eddc 36be 2d26 d2bc
000001c0: 7230 813e 61be 633e bb3c 4a3f f593 b63e
000001d0: ba22 2bbf 8505 38bf e14a 21bf 06e3 03bf
000001e0: c588 00bf 5fe2 e83d 5c21 483f f40c cd3e
000001f0: 0693 07bf bf8e cfbe c14f a53e 7a57 c53e
00000200: 2aef c8be 5d93 f83e 17ec d8bd 17cb 9ebd
00000210: 9496 1abf 3381 723e 368a 38bd cd24 5c3e
00000220: 8a9f 223f 0994 643e 5e79 c5be 6a9a a1bd
00000230: 3b94 c2be 6f69 b6bc 41a9 433f e07b ff3e
00000240: 3f72 04bf dd73 b6be 9b03 7dbe 4b4f 85bd
00000250: e1ef 08bc c11b 033f 7242 f93d d138 1e3c
00000260: 62d7 97be ef54 e2be 2066 10bf 4c67 ea3d
00000270: f8d1 743e b518 dcbe 60f7 253f 953d be3e
00000280: 4e87 303e 435b 3c3e 75e0 123f cce8 c63e
00000290: 7cff 4f3e e14d d53d e4a2 1c3e 23f2 913e
000002a0: c30e 6cbd 2ce2 6cbe 1398 acbe 7a90 3cbe
000002b0: 79c6 a3bd aa1f 12be 2de1 30bd 3eb7 953d
000002c0: 7cbc eebc 62cf b73e dd38 933e 6b18 8cbd
000002d0: c911 26bf 678e 40be 58f4 fb3e 5a57 95bd
000002e0: a217 0bbf fde9 ab3d 63fe 613e c31f bbbe
000002f0: f445 273c 9fc6 f7be c705 adbf 533d cfbe
00000300: e463 c6bd 4de7 9fbe d37c 02bf 2215 7d3e
00000310: 48bb 0ebd a97a ce3d 87bc babd 37b8 4a3e
00000320: 6464 9a3d cd0a f33e 7f1f 3d3f 75a9 e53e
00000330: e15f a1be 78a7 f1be 9f3c 0f3e deed e53e
00000340: 52fe 70be cab0 10bd ca08 8abc c2e4 af3e
00000350: e00b e13d 6f76 4abf a79e aabf de50 13bf
00000360: 67b8 56be d805 543d 607f 9ebe 9d42 1c3e
00000370: c4b5 b63e d2cd fcbe 65e9 32be 6d6c 3fbe
00000380: c2e9 ec3e ea90 223e 97ea af3e e571 6a3e
00000390: 844e 99be 036f 913e 6dd6 253f 1aec 993e
000003a0: 5fc7 213e 73fd cf3e bc22 003f 0e12 9fbe
000003b0: 4ed4 923e 7a4d b6be 18f4 dbbe 6427 c5be
000003c0: 95d6 5c3e c1bb 87be 440d 75be b912 ebbe
000003d0: f8fc 06bf 1417 11bf 8d31 073c cb71 e2bd
000003e0: 6c6b ca3e 2c8b 36be cf37 403e 5348 09be
000003f0: 441c 0b3f cec8 f53e a5b9 01be ccbd 8dbd

layer1.bias f4 [128]
-0.02501406 0.22228797 0.586374 0.27576163 -0.25149313 0.3913871 0.5549362 0.55462104
0.2811564 -0.13043445 -0.12339511 -0.048947364 0.30394065 0.052504245 0.5311834 -0.13253406
0.26033017 0.21463451 0.3327798 -0.53708977 0.36365777 -0.37835592 -0.045440856 -0.205551
-0.36608148 -0.38811544 -0.1491047 0.6214317 -0.4299696 -0.022334717 -0.37453848 -0.43436673
0.66600984 0.3762189 -0.43862405 -0.525164 0.5440573 0.37613472 0.46791995 -0.44381094
-0.43197381 0.69849217 0.701264 0.6283898 0.49367398 0.31611526 0.43244568 -0.11428236
0.47822762 0.36734545 -0.031931892 0.36638775 -0.4612145 -0.04301325 0.64623946 0.5506274
0.6768436 0.6005159 0.6505011 0.71186495 0.51911956 0.02309598 -0.4120882 -0.27589023
0.3804075 0.29147956 0.5107154 -0.27738434 0.38289914 0.6845123 0.4516624 0.5676228
0.16856109 0.6076953 -0.06524057 0.26554704 0.5187212 0.16570258 -0.3295832 -0.26169032
-0.3507706 0.32958046 -0.50877404 -0.051940236 -0.117434025 -0.33381423 0.522357 0.2791333
0.4666376 -0.037667774 0.35378975 -0.47628284 -0.47809872 0.68935776 0.01775894 0.6498554
0.6376167 0.23653461 -0.16069365 0.20299385 -0.5462401 -0.051469058 -0.04363289 0.3070982
0.32973823 -0.016763188 0.50422055 -0.4312139 -0.18000025 0.30060154 -0.3540862 0.4192656
0.17356399 0.3561383 0.3888175 -0.32823738 0.43352404 0.0633909 -0.37124637 -0.497827
0.5933436 0.105194174 -0.22006948 -0.40864515 0.20276052 -0.01586956 -0.12183607 0.023976816
00000000: 49ea ccbc 759f 633e 9b1c 163f a130 8d3e
00000010: b5c3 80be e463 c83e 4c10 0e3f a5fb 0d3f
00000020: bbf3 8f3e 9c90 05be 93b6 fcbd 087d 48bd
00000030: 1c9e 9b3e b10e 573d a3fb 073f 02b7 07be
00000040: ff49 853e 26c9 5b3e 1d62 aa3e b77e 09bf
00000050: 5a31 ba3e deb7 c1be 3120 3abd f67b 52be
00000060: 086f bbbe 11b7 c6be e7ae 18be 2616 1f3f
00000070: fa24 dcbe 4cf7 b6bc 82c3 bfbe 5165 debe
00000080: 9f7f 2a3f c39f c03e 5593 e0be 2671 06bf
00000090: 5747 0b3f bb94 c03e 3493 ef3e 303b e3be
000000a0: ac2b ddbe 62d0 323f 0a86 333f 27de 203f
000000b0: d6c2 fc3e dcd9 a13e 8569 dd3e df0c eabd
000000c0: 40da f43e b414 bc3e 04cb 02bd 2d97 bb3e
000000d0: 4f24 ecbe a92e 30bd f36f 253f ebf5 0c3f
000000e0: 9f45 2d3f 69bb 193f 3d87 263f c83c 363f
000000f0: 05e5 043f c833 bd3c 39fd d2be 7c41 8dbe
00000100: c6c4 c23e cf3c 953e 3fbe 023f 5205 8ebe
00000110: 5b0b c43e 333c 2f3f 4b40 e73e ba4f 113f
00000120: 479b 2c3e eb91 1b3f d99c 85bd c8f5 873e
00000130: eaca 043f f0ad 293e 21bf a8be 46fc 85be
00000140: 3498 b3be c5be a83e 043f 02bf 49bf 54bd
00000150: 4081 f0bd b3e9 aabe 30b9 053f 8fea 8e3e
00000160: 20eb ee3e 8649 1abd ee23 b53e 58db f3be
00000170: 5bc9 f4be c079 303f 327b 913c ec5c 263f
00000180: d93a 233f 2136 723e e08c 24be 9fdd 4f3e
00000190: 64d6 0bbf 38d1 52bd 67b8 32bd fa3b 9d3e
000001a0: 73d3 a83e f452 89bc 9914 013f 11c8 dcbe
000001b0: fc51 38be 72e8 993e c94a b5be fba9 d63e
000001c0: c2ba 313e c257 b63e 1613 c73e bb0e a8be
000001d0: ddf6 dd3e 17d3 813d 0114 bebe 2ee3 febe
000001e0: 5ee5 173f 0b70 d73d e559 61be f039 d1be
000001f0: 74a0 4f3e e100 82bc 3185 f9bd 076b c43c

layer2.weight f4 [128, 128]
-0.616352 0.09775049 0.015970886 0.00017474288 0.0059254817 0.06921542 0.098317355 -0.061990015
0.122147635 -0.19943132 -0.22814119 -0.3634633 0.19228545 0.007000446 0.100978486 -0.14022025
-0.01930454 0.11302648 -0.024970673 -0.2234184 0.16561368 0.019518731 -0.21660121 -0.39526296
-0.10034719 -0.108129874 -0.41626438 0.14382698 -0.44112906 -0.44839165 -0.064605646 -0.099811345
0.027193993 0.118504904 -0.24171653 -0.0384439 0.03334992 0.051903408 0.09129588 0.009527699
-0.39419934 0.112537794 0.1239648 0.10774886 0.04927123 0.12905915 -0.018647043 -0.62215906
-0.011866276 0.01893813 -0.30880782 -0.01456575 -0.1898221 -0.82325876 0.08939369 0.18737349
0.03949064 0.019617891 0.05234878 0.16318826 0.010182138 -0.119848855 -0.074791595 -0.12698998
0.12445526 -0.045704473 -0.0496857 -0.18185773 0.06969229 0.011534242 -0.07462606 0.032874018
0.082811564 -0.03184669 -0.44061628 -0.0687557 0.033320285 0.3470464 -0.47146538 -0.09798266
0.081959054 0.058757607 -0.36251855 -0.25486815 -0.10624949 -0.35157412 -0.0005751666 0.075422786
0.009270289 -0.2970172 -0.030361785 -0.134071 -0.2002139 -0.006946952 -0.0974154 0.070910595
0.117756486 0.20164853 -0.20437181 0.017833918 -0.16795214 -0.472324 -0.24823447 -0.024365272
0.05741879 -0.2858229 0.026512934 -0.014782271 -0.091637105 0.045281682 -0.048550837 0.0071336282
0.0073385583 -0.09005853 0.10883201 -0.49272448 0.05330332 -0.097188145 -0.27886903 -0.49849078
0.12966695 -0.21019457 -0.9241134 -0.110586956 -0.111732915 -0.31342286 -0.8445334 -0.538387
-0.03814322 0.040623896 0.06624756 0.0073580644 -0.034363594 0.040240616 -0.012526265 0.021819154
-0.039259598 -0.083048105 -0.06450916 0.01592383 0.030965617 -0.00967575 0.008716477 -0.037727024
0.033141904 -0.0093599195 -0.06591609 0.03322856 0.020892669 0.01805285 0.038708005 -0.06876805
0.07070311 -0.023909967 0.03858182 -0.017909765 -0.026639907 -0.073295645 0.037804075 0.014968909
0.048607286 -0.07382536 -0.057850175 0.022661563 -0.07849514 0.058502916 0.037001733 -0.07529461
0.057127595 -0.03840173 -0.03940662 -0.007710662 -0.041652188 -0.016380968 -0.0097416565 0.0017946806
-0.015194795 0.051453322 -0.08339144 0.02222319 -0.055294193 -0.051784236 -0.06273653 0.0008517414
0.017444205 0.04286953 -0.039038546 -0.01882875 0.04498538 0.004774268 -0.0035798575 -0.07711638
-0.017593274 -0.059366945 -0.08856241 -0.012456614 -0.08942474 0.06741166 0.073099196 -0.029640837
-0.05658611 -0.02715241 0.005714914 0.06195989 0.06519126 -0.04027171 -0.02549696 0.03446751
0.058861155 0.07137075 -0.070047356 -0.016558677 0.0669948 0.053024396 0.04171893 -0.082064144
-0.0079583675 -0.07345252 -0.08766858 -0.049516372 0.07332425 0.0699481 -0.05916937 -0.07179554
0.0637372 0.072957255 0.0038315838 -0.06530713 -0.012585115 0.00038910954 -0.06600786 0.07264613
-0.016791323 -0.07731728 0.00017456364 -0.050479118 0.0081873685 -0.06820976 -0.034197886 0.023339355
-0.030203147 -0.03629761 -0.036566768 -0.057857923 -0.061294172 -0.022043336 -0.007602637 -0.024977878
0.039363902 0.053127028 -0.010175686 -0.027058553 -0.03557567 0.048022952 -0.03937184 0.013172752
00000000: 3fc9 1dbf 6931 c83d 60d5 823c 2f3b 3739
00000010: 8b2a c23b d0c0 8d3d 9c5a c93d 3ee9 7dbd
00000020: 8a28 fa3d b937 4cbe d89d 69be dd17 babe
00000030: 7ae6 443e ff63 e53b cfcd ce3d e695 0fbe
00000040: 8e24 9ebc 6d7a e73d 4c8f ccbc cbc7 64be
00000050: a296 293e bfe5 9f3c b5cc 5dbe e85f cabe
00000060: d482 cdbd 3273 ddbd 9b20 d5be 6147 133e
00000070: abdb e1be 9793 e5be f74f 84bd e469 ccbd
00000080: f0c5 de3c b3b2 f23d 8a84 77be 5a77 1dbd
00000090: ed99 083d ab98 543d 56f9 ba3d 111a 1c3c
000000a0: 7fd4 c9be 377a e63d 42e1 fd3d 6fab dc3d
000000b0: a1d0 493d 1528 043e afc1 98bc d145 1fbf
000000c0: c56a 42bc 2324 9b3c 0f1c 9ebe 2fa5 6ebc
000000d0: b960 42be 16c1 52bf 0a14 b73d d6de 3f3e
000000e0: f0c0 213d b3b5 a03c ad6b 563d d31a 273e
000000f0: fbd2 263c 5173 f5bd 562c 99bd a909 02be
00000100: 66e2 fe3d 9d34 3bbd 3c83 4bbd ea38 3abe
00000110: d5ba 8e3d 1efa 3c3c 8cd5 98bd e8a6 063d
00000120: 1c99 a93d ad71 02bd 7598 e1be cacf 8cbd
00000130: da7a 083d 11b0 b13e e963 f1be 22ab c8bd
00000140: 26da a73d d1ab 703d 089c b9be 147e 82be
00000150: 5599 d9bd 8601 b4be c7c6 16ba 4377 9a3d
00000160: 69e2 173c a312 98be 47b9 f8bc e949 09be
00000170: df04 4dbe 42a3 e3bb ba81 c7bd 9339 913d
00000180: 502a f13d f47c 4e3e d846 51be 7018 923c
00000190: a5fb 2bbe 74d4 f1be 2d31 7ebe ae99 c7bc
000001a0: f72f 6b3d 6157 92be a731 d93c 5731 72bc
000001b0: 3cac bbbd 4979 393d 3edd 46bd 36c1 e93b
000001c0: 4a78 f03b 9b70 b8bd 51e3 de3d 6246 fcbe
000001d0: 9554 5a3d 940a c7bd ecc7 8ebe 2f3a ffbe
000001e0: 6ac7 043e 3f3d 57be b292 6cbf 6a7b e2bd
000001f0: 3ad4 e4bd f678 a0be 5733 58bf bbd3 09bf
00000200: 113c 1cbd 3e65 263d cdac 873d eb1b f13b
00000210: d7c0 0cbd 58d3 243d f73a 4dbc 15be b23c
00000220: acce 20bd 2015 aabd 611d 84bd b172 823c
00000230: 9bab fd3c 0987 1ebc 8ecf 0e3c a787 1abd
00000240: cebf 073d 595a 19bc 04ff 86bd ac1a 083d
00000250: 1a27 ab3c 92e3 933c 498c 1e3d 43d6 8cbd
00000260: cbcc 903d d6de c3bc f807 1e3d 80b7 92bc
00000270: ef3b dabc 071c 96bd 72d8 1a3d 2840 753c
00000280: 6f18 473d c031 97bd 4ef4 6cbd bea4 b93c
00000290: 0fc2 a0bd c1a0 6f3d 218f 173d 0f34 9abd
000002a0: a0fe 693d 224b 1dbd d668 21bd b9a9 fcbb
000002b0: 7c9b 2abd 6131 86bc 789b 1fbc 7d3b eb3a
000002c0: 97f3 78bc b8c0 523d 22c9 aabd 680d b63c
000002d0: 2a7c 62bd b51b 54bd 037c 80bd 6647 5f3a
000002e0: 26e7 8e3c f697 2f3d e2e6 1fbd c03e 9abc
000002f0: 9742 383d 7671 9c3b 0b9c 6abb 31ef 9dbd
00000300: c51f 90bc c12a 73bd 3560 b5bd d316 4cbc
00000310: 5124 b7bd 200f 8a3d 08b5 953d 57d1 f2bc
00000320: d6c6 67bd bb6e debc 2c44 bb3b a7c9 7d3d
00000330: ff82 853d f3f3 24bd 00df d0bc ce2d 0d3d
00000340: 6518 713d d42a 923d fd74 8fbd 10a6 87bc
00000350: 9234 893d 1c30 593d 78e1 2a3d 3f11 a8bd
00000360: d063 02bc 466e 96bd 968b b3bd aed1 4abd
00000370: 062b 963d f340 8f3d 955b 72bd 8a09 93bd
00000380: a688 823d 9d6a 953d 4f1b 7b3b bfbf 85bd
00000390: cc31 4ebc 6601 cc39 212f 87bd 7fc7 943d
000003a0: f58d 89bc 8658 9ebd 120b 3739 31c3 4ebd
000003b0: 5024 063c 8fb1 8bbd 1513 0cbd 2d32 bf3c
000003c0: 976c f7bc cdac 14bd 09c7 15bd 6efc 6cbd
000003d0: 990f 7bbd 3a94 b4bc 8b1f f9bb 689e ccbc
000003e0: 0b3c 213d ba9b 593d ecb7 26bc e6a9 ddbc
000003f0: cbb7 11bd b7b3 443d 5e44 21bd 87d2 573c

layer2.bias f4 [128]
0.048628323 -0.010945638 0.06864021 0.23637621 -0.02524607 -0.03005879 0.01497296 -0.018228317
0.041156683 0.035572458 0.0049684593 0.2962115 0.2437786 -0.08061278 0.15228578 0.26155752
0.17700467 0.29897216 0.13653696 -0.019490473 0.3360605 -0.19704792 0.20483878 0.053697743
0.077739395 0.14332086 0.21325521 0.25500897 -0.18099335 0.2524318 -0.013408157 -0.009276534
0.059420336 0.027919373 0.019771185 0.2449763 -0.02910374 -0.021701548 0.14456753 0.097992405
0.23493685 0.007673449 0.2523468 -0.037709575 -0.086138874 0.06390964 -0.06200232 0.21598823
0.27629972 0.3218764 0.063998014 0.078706905 0.39016238 0.25545284 -0.014971618 0.149979
-0.0752216 -0.03905403 0.009026483 0.12886076 0.024894536 0.09644531 -0.024614586 -0.07086905
0.11238468 0.27932352 -0.035568297 0.08751123 -0.001055623 -0.08129555 0.15051305 0.13138358
-0.0028017352 0.120757535 0.22879526 0.064551875 -0.0047984757 0.084287345 0.15161224 -0.15554616
0.21391429 0.08199353 0.3088208 0.052683726 0.12912011 -0.0047836048 0.040126465 -0.124596484
0.2142617 -0.07034042 0.056684796 -0.1589421 -0.0005980347 0.06812767 0.21812898 0.3315101
0.33269674 0.23549365 0.09743039 -0.018928772 -0.08172095 0.22612138 -0.014413749 -0.2321463
0.0049620615 -0.069056354 0.08117106 -0.15146813 0.28792182 0.0066283746 0.016999917 -0.008982861
0.25746426 0.082175024 0.013996688 0.054044057 0.26646674 -0.015318788 -0.06681479 0.00022978893
0.014320968 0.05737914 0.011157259 0.063845366 0.26663038 -0.041588094 0.12355837 0.13247865
00000000: 7e2e 473d 5555 33bc 3d93 8c3d 9b0c 723e
00000010: d9d0 cebc da3d f6bc 2551 753c 8d53 95bc
00000020: e993 283d 6db4 113d 75ce a23b 09a9 973e
00000030: 19a1 793e 5018 a5bd cef0 1b3e deea 853e
00000040: b640 353e e112 993e 58d0 0b3e 7caa 9fbc
00000050: 1f10 ac3e eec6 49be 42c1 513e 2af2 5b3d
00000060: d535 9f3d b4c2 123e 935f 5a3e 8990 823e
00000070: 5256 39be be3e 813e e3ad 5bbc 9bfc 17bc
00000080: bd62 733d 2bb7 e43c 2ef7 a13c 11db 7a3e
00000090: f76a eebc 72c7 b1bc 8309 143e 3eb0 c83d
000000a0: 4993 703e 8e71 fb3b 9a33 813e 5b75 1abd
000000b0: 9469 b0bd 0fe3 823d 25f6 7dbd 052c 5d3e
000000c0: 2877 8d3e fccc a43e 6411 833d 1631 a13d
000000d0: 5dc3 c73e b7ca 823e 844b 75bc 1894 193e
000000e0: c80d 9abd 1ef7 1fbd d0e3 133c 13f4 033e
000000f0: a0ef cb3c 1e85 c53d 87a4 c9bc cb23 91bd
00000100: f029 e63d 7e03 8f3e 10b0 11bd 1639 b33d
00000110: d55c 8aba 487e a6bd 1820 1a3e 6b89 063e
00000120: 519d 37bb ba4f f73d 4e49 6a3e c633 843d
00000130: 883c 9dbb d89e ac3d 3d40 1b3e 7e47 1fbe
00000140: 590c 5b3e 39ec a73d c31d 9e3e e4ca 573d
00000150: 1038 043e c9bf 9cbb a65b 243d 712c ffbd
00000160: 6b67 5b3e a30e 90bd 512e 683d b8c1 22be
00000170: 6ec5 1cba 8586 8b3d 345d 5f3e b1bb a93e
00000180: 3a57 aa3e 3f25 713e 9689 c73d 8310 9bbc
00000190: 505d a7bd 5d8c 673e a527 6cbc c2b7 6dbe
000001a0: ca98 a23b 6b6d 8dbd 033d a63d 761a 1bbe
000001b0: 7d6a 933e d632 d93b 6943 8b3c da2c 13bc
000001c0: 5bd2 833e 614b a83d 5d52 653c 4d5d 5d3d
000001d0: 546e 883e a7fb 7abc 31d6 88bd 7ff3 7039
000001e0: 7ea2 6a3c 6406 6b3d f0cc 363c 5cc1 823d
000001f0: c783 883e 4758 2abd 2c0c fd3d 7ca8 073e

layer3.weight f4 [2, 128]
0.32988936 -0.04485804 -0.26509464 0.40937382 0.26725677 0.07673484 -0.1412064 9.532292e-05
-0.3049192 0.39153248 -0.26063785 0.25927085 0.28763247 -0.021126388 0.28806886 0.38202032
0.31697026 0.21427003 0.42198506 -0.28018966 0.29439542 -0.5706416 0.20973808 0.2498612
-0.23782425 0.37484962 0.31587765 0.2805742 -0.296373 0.35226 -0.32669502 -0.3424032
0.2781056 0.03722829 0.3436762 0.22982766 -0.002587501 0.3202271 0.3928913 0.40004608
0.37669048 -0.06281444 0.37022057 -0.28047392 -0.30972013 0.16106166 0.046408545 0.34711307
0.3235805 0.45039713 0.40309435 0.38305154 0.41865617 0.24548836 0.3541341 0.35979083
0.19648364 -0.24859124 -0.07638522 0.3749344 0.38557652 0.27562812 -0.16598007 -0.054565817
0.27687553 0.42957085 0.31051514 0.39522284 0.100889996 0.028385516 0.3655824 0.046124138
-0.22788188 0.4579346 0.32903427 0.36882845 -0.12682706 0.18507755 0.36473405 -0.24363014
0.31189874 0.16889274 0.41613406 0.06992519 0.36547747 0.42094558 0.3329658 -0.39985484
0.41365436 -0.25899634 -0.23195878 -0.6185941 -0.18310249 -0.057431877 0.3935652 0.33642924
0.24310878 0.28139493 0.4293179 0.021255 0.070187986 0.33900276 0.4005454 -0.19314253
0.17984587 -0.01823647 0.29912844 -0.28359103 0.42551398 -0.056140915 -0.008553205 -0.12653428
0.44740394 0.14320393 -0.31322238 0.45399246 0.39874947 -0.011735075 0.010792748 -0.056232076
-0.16710213 0.20350018 -0.29616132 -0.019615961 0.30386895 0.45189673 -0.010741596 0.3723155
0.36477846 0.0020721916 -0.32770005 0.45507646 -0.0990992 0.07914029 -0.15589896 -0.040821202
-0.54145557 0.30067495 -0.15924555 0.28766382 0.3363483 -0.010544107 0.3343835 0.3516294
0.40057728 0.30469027 0.30327943 -0.31943986 0.42538399 -0.14200081 0.36200604 0.3514921
-0.06561812 0.19223769 0.36734912 0.25541252 -0.67156285 0.3420411 -0.0832184 -0.13624492
0.31666806 -0.06744323 0.37113714 0.33886343 0.03897651 -0.2623053 0.3374815 0.33404538
0.26495463 0.03618712 0.21118619 -0.23051025 -0.29884738 -0.05614248 -0.020533808 0.31453255
0.39627397 0.29483756 0.3023784 0.3819825 0.33388412 0.31487927 0.4191708 0.29568392
-0.26717457 -0.11311003 -0.27407756 0.26846817 0.34503728 0.3132786 0.09624213 -0.022467136
0.34803027 0.28350616 0.42419314 0.3891928 0.4726832 -0.02325343 0.27333376 0.17868207
-0.27333647 0.46191576 0.32799396 0.40746775 0.17096612 0.24677938 0.45743775 -0.5356166
0.40373206 -0.113638416 0.26021847 0.048837416 0.38571554 0.34849244 0.31590343 -0.26840216
0.3902268 -0.16997 0.006784601 -0.23839189 -0.43020016 0.07870676 0.32170704 0.34258154
0.29805747 0.36349928 0.45391852 0.6897125 -0.08204192 0.35221547 0.42358476 -0.46351144
-0.31166068 -0.024212956 0.2920516 -0.33390182 0.3068002 -0.04037471 -0.50940603 -0.11802631
0.29634026 0.25978115 0.0332178 0.39037213 0.30672634 -0.042807974 -0.008842038 0.008224968
0.21931602 0.053709812 -0.14408466 -0.059446134 0.29344392 0.40591392 0.2599155 0.27071905
00000000: 42e7 a83e 10bd 37bd 7cba 87be 7299 d13e
00000010: e1d5 883e 2827 9d3d 6998 10be 1ae8 c738
00000020: 5f1e 9cbe f276 c83e 5372 85be 26bf 843e
00000030: 9044 933e 3f11 adbc c37d 933e 2b98 c33e
00000040: ed49 a23e 9a69 5b3e 6d0e d83e 0575 8fbe
00000050: ffba 963e 9115 12bf 94c5 563e 9ddb 7f3e
00000060: 3388 73be 4aec bf3e b7ba a13e 6ca7 8f3e
00000070: 34be 97be 6c5b b43e 9244 a7be 794f afbe
00000080: db63 8e3e b17c 183d 54f6 af3e f157 6b3e
00000090: 1093 29bb cef4 a33e 0c29 c93e d7d2 cc3e
000000a0: 93dd c03e dba4 80bd 8d8d bd3e 479a 8fbe
000000b0: a393 9ebe 59ed 243e e316 3e3d ceb8 b13e
000000c0: 58ac a53e 749a e63e 6262 ce3e 551f c43e
000000d0: 1a5a d63e 4d61 7b3e 1151 b53e 8136 b83e
000000e0: 0233 493e b48e 7ebe db6f 9cbd 67f7 bf3e
000000f0: 496a c53e 211f 8d3e aef6 29be 6880 5fbd
00000100: a1c2 8d3e b6f0 db3e d7fb 9e3e a65a ca3e
00000110: 6a9f ce3d be88 e83c 9e2d bb3e aaec 3c3d
00000120: de59 69be 6776 ea3e 2e77 a83e 15d7 bc3e
00000130: f4de 01be f884 3d3e 6cbe ba3e 2e7a 79be
00000140: 31b1 9f3e 38f2 2c3e 860f d53e f034 8f3d
00000150: dd1f bb3e 2e86 d73e 7e7a aa3e c6b9 ccbe
00000160: 81ca d33e 2b9b 84be 9a86 6dbe 2f5c 1ebf
00000170: 387f 3bbe b03d 6bbd 6181 c93e 7440 ac3e
00000180: 82f1 783e ff12 903e 8ecf db3e f71e ae3c
00000190: b8be 8f3d c591 ad3e 4914 cd3e 28c7 45be
000001a0: 8429 383e a664 95bc 5d27 993e d832 91be
000001b0: f8dc d93e 04f4 65bd be22 0cbc 3492 01be
000001c0: 2112 e53e 0da4 123e af5e a0be b371 e83e
000001d0: e428 cc3e 7944 40bc 11d4 303c 9b53 66bd
000001e0: d21c 2bbe 5a62 503e 75a2 97be a7b1 a0bc
000001f0: b694 9b3e 025f e73e 85fd 2fbc 23a0 be3e
00000200: 3ec4 ba3e 9bcd 073b 4dc8 a7be c8ff e83e
00000210: 85f4 cabd 4e14 a23d faa3 1fbe 2234 27bd
00000220: d59c 0abf 11f2 993e 4411 23be ac48 933e
00000230: d835 ac3e 31c1 2cbc 5034 ab3e c508 b43e
00000240: 7718 cd3e 5d00 9c3e 7147 9b3e 9f8d a3be
00000250: eecb d93e a968 11be db58 b93e c6f6 b33e
00000260: cb62 86bd f5d9 443e 2f15 bc3e 6ec5 823e
00000270: 8beb 2bbf 0320 af3e 696e aabd ca83 0bbe
00000280: 5122 a23e ad1f 8abd b005 be3e 827f ad3e
00000290: d5a5 1f3d e14c 86be 60ca ac3e ff07 ab3e
000002a0: 22a8 873e f238 143d 3141 583e e10a 6cbe
000002b0: 8602 99be a8f5 65bd 8436 a8bc 690a a13e
000002c0: 6ce4 ca3e f3f4 963e 57d1 9a3e 3693 c33e
000002d0: dcf2 aa3e db37 a13e 8e9d d63e e263 973e
000002e0: 1bcb 88be 3ba6 e7bd e553 8cbe a974 893e
000002f0: baa8 b03e 0d66 a03e 981a c53d 000d b8bc
00000300: 0631 b23e b827 913e d82f d93e 4744 c73e
00000310: 8803 f23e fa7d bebc 67f2 8b3e 6ff8 363e
00000320: c2f2 8bbe 3980 ec3e d3ee a73e 9d9f d03e
00000330: be11 2f3e bcb3 7c3e 4835 ea3e 2b1e 09bf
00000340: f8b5 ce3e 42bb e8bd 5b3b 853e be09 483d
00000350: 827c c53e 9a6d b23e 18be a13e 026c 89be
00000360: cfcb c73e 9e0c 2ebe 5c51 de3b 011d 74be
00000370: 3243 dcbe 0331 a13d c9b6 a43e d966 af3e
00000380: fd9a 983e 941c ba3e 0268 e83e 0091 303f
00000390: 9805 a8bd 9655 b43e 1ae0 d83e 5f51 edbe
000003a0: fd91 9fbe 405a c6bc ca87 953e 2ef5 aabe
000003b0: ea14 9d3e f45f 25bd 6f68 02bf c7b7 f1bd
000003c0: e9b9 973e 0902 853e 630f 083d dbde c73e
000003d0: 3c0b 9d3e 6a57 2fbd 32de 10bc 04c2 063c
000003e0: 6194 603e d2fe 5b3d ee8a 13be ca7d 73bd
000003f0: 483e 963e f3d3 cf3e a513 853e b09b 8a3e

layer3.bias f4 [2]
0.14193882 0.11339475
00000000: 6958 113e 823b e83d
