cartpole_weights/episode_durations_438.pt (torch, 72007 bytes, 6 tensors)

layer1.weight f4 [128, 4]
00000000: 37bd 0dbf 8782 fbbe bf5d 1c3d 532c 96be
00000010: 5b91 a93d e10d ab3c 7e47 36bf 6a6a 053e
00000020: be49 27bf 0f7c a8be dba5 cbbe 9724 83be
00000030: cd5c fcbd 39cd c2be 4b36 f5be df3f 90bd
00000040: b272 88be e4ec 013e a585 a5be f45b 08bf
00000050: 6d62 0fbf 6a14 e7bc 08fd 033f c64d 2fbe
00000060: ac06 e33d 7829 46bd 064d a6be 783c b53e
00000070: 4892 bbbe 1376 db3e bb67 0c3f 2ea4 42be
00000080: 74da 4b3e 4b86 323e 98cb 073f 8955 853d
00000090: 74db bd3e 2e22 bd3e b9ce 1f3e d9e6 f0bc
000000a0: 967a 8a3c 5eec c13e 44b8 05bf d467 0a3e
000000b0: 1fcb 13bf c3fb 32bf fe1f 86be 9088 fbbe
000000c0: 3539 ab3e 9f39 d9bc 2e24 193d e0cf 02bb
000000d0: 7177 6a3e 2abf 003f c394 bbbe 1f4e c5bb
000000e0: 5de8 52be 3f77 63be 4b0f 663e 2ed4 9cbd
000000f0: 7cb7 55be 1396 0abf 7066 6dbe e282 02be
00000100: b14f e4be 7b42 95be 641b 883e 8962 00be
00000110: eb00 133f c47f 95be 9a95 5dbe 99da 723e
00000120: 1a11 df3e d852 c03e f134 b2bd 5e32 863c
00000130: d0c0 66be 001e abbe 8700 563f 2d9c 863b
00000140: 4195 a43e c2c8 b6be db9d 0cbe d093 0dbd
00000150: 5688 4fbe 1903 403e 1314 3bbd f54e ef3c
00000160: f946 1c3f 18c0 043f 0b44 a53f ac0f be3e
00000170: bd48 cfbe 4ffe dd3d 2512 3ebf f56f 84be
00000180: ef02 9abe b379 2cbe ce79 1e3e 31d8 373e
00000190: 9ad4 43be 2959 bdbe 1be8 073f 479e 0b3e
000001a0: 014a 4fbf 573a cc3e 480e f4bd 1995 9b3e
000001b0: 747f 58be 5ed6 bfbe 283c 2abe b294 81bc
000001c0: 536d 593e 71cc 383e b32e 3d3f 0058 b93e
000001d0: 0d23 24bf b5ba 32bf da89 2cbf 7c7a f6be
000001e0: 7d87 f8be 610d eb3d a730 3f3f 5291 be3e
000001f0: de24 03bf abef c5be bbba a03e b1ad bb3e
00000200: 8446 c9be ea79 fd3e 94de b4bd b7f4 02bd
00000210: f482 16bf fa1a 6a3e a03c 4ebd 8787 673e
00000220: 3b0b 1b3f f244 563e fb31 cabe d1a5 fdbd
00000230: 93c6 bcbe 8c21 d3bb 0abc 383f 9288 e93e
00000240: 9cff 0abf b319 b4be 2d18 83be 836a 9ebd
00000250: 6a30 2abb ecf2 093f e11a 153e a8c8 313d
00000260: af83 a6be fd81 d2be e4b4 0cbf 5b91 9b3d
00000270: cc34 893e 5c04 dcbe 6b5e 163f 1c46 c83e
00000280: df4c 053e 2082 143e 4531 0b3f 6de2 cd3e
00000290: 9fce 423e 0927 ff3d b0a4 2a3e 94c4 973e
000002a0: 5783 5ebd b8eb 4abe 5e49 9ebe 5772 22be
000002b0: a02d 9ebd 0161 e9bd a538 bdbc 7cc0 bc3d
000002c0: 2b88 17bd 5f5b bf3e 6f1f 993e 4359 f8bc
000002d0: 1855 28bf 00f2 49be cc65 e83e 16ca 9fbd
000002e0: 9dac 03bf c547 833d e17d 5b3e 4ee4 7dbe
000002f0: 7fe9 2c3c 0ead f3be c190 a8bf b02c bfbe
00000300: fab8 e5bd ad48 99be 4dc2 edbe a116 7e3e
00000310: ba99 ddbc 162b 043e 32b4 7cbd db3d 6b3e
00000320: ce28 9a3d e069 f23e 0b4a 3c3f a800 be3e
00000330: e02c b3be 7404 e9be 5381 153e 6855 b73e
00000340: c10e 75be 0c9c 06bd 6970 fcbc 6e24 a53e
00000350: 46c6 c03d d682 43bf 291b a5bf f6f3 10bf
00000360: 93e5 4fbe b5f8 983d 2cec 90be 2bfe 2d3e
00000370: 7e57 b33e dbe8 e6be 06c2 19be 90b6 23be
00000380: 576d e13e 1c82 373e b0b7 b53e 389c 713e
00000390: 04b5 91be 65cc 993e b2cb 263f 056a a03e
000003a0: 023f 2c3e d78f dc3e 2153 013f 6d11 89be
000003b0: 2a1a 913e 97d0 a2be 365c cbbe d63f b4be
000003c0: 4f40 5b3e 51f3 62be 0e0c 54be aabc cdbe
000003d0: 23f7 04bf 399c 08bf 1e24 f6bc c884 16be
000003e0: 6ae8 d83e 38d0 41be 6090 033e c74f 1fbe
000003f0: c435 073f 0f46 ea3e 71f7 e9bd 7ac6 30bd
-0.55366844 -0.49123022 0.03817534 -0.29330692 0.082796775 0.020880641 -0.7120284 0.13028875
-0.65346897 -0.3290715 -0.39774975 -0.25613853 -0.12322388 -0.38047197 -0.47892985 -0.070434324
-0.26650006 0.12688023 -0.32328525 -0.5326531 -0.5600956 -0.028207976 0.5155797 -0.17119512
0.11085257 -0.04837939 -0.3248064 0.35397696 -0.3663504 0.4286352 0.5484578 -0.19007942
0.19907552 0.17434041 0.53045034 0.06510455 0.37081492 0.3694014 0.15606202 -0.029406952
0.016904157 0.37875646 -0.5223429 0.1351617 -0.57731813 -0.6991541 -0.26196283 -0.49127626
0.33442083 -0.026516734 0.03738802 -0.001996033 0.22897126 0.50291693 -0.36636934 -0.0060212757
-0.20596452 -0.22213458 0.22466771 -0.076576576 -0.20870775 -0.54135245 -0.23183608 -0.1274524
-0.4459205 -0.29152283 0.26583397 -0.12537588 0.57423276 -0.2919904 -0.216391 0.23716201
0.43567735 0.37563205 -0.08701504 0.016381439 -0.2253449 -0.33421326 0.83594555 0.004107973
0.32145122 -0.3570004 -0.13732092 -0.034564793 -0.20266852 0.18751182 -0.04567344 0.029212454
0.61045796 0.5185561 1.291139 0.37121332 -0.40485182 0.10839521 -0.74246436 -0.25866666
-0.30080363 -0.168433 0.15476152 0.17953564 -0.1912407 -0.36982086 0.5308854 0.13634597
-0.80972296 0.3988826 -0.119167864 0.3038719 -0.2114237 -0.37468237 -0.1662451 -0.015817974
0.2123311 0.18046738 0.7389938 0.3619995 -0.64115983 -0.6981614 -0.67397845 -0.48140323
-0.4854087 0.11477161 0.7468361 0.37220246 -0.5122813 -0.38659415 0.31392464 0.36655954
-0.39311612 0.49507076 -0.08831516 -0.03197166 -0.5879357 0.22861853 -0.050350785 0.22610293
0.6056401 0.20924738 -0.39491257 -0.123851426 -0.3687025 -0.006443208 0.72161925 0.45612007
-0.5429628 -0.35175857 -0.25604382 -0.07735159 -0.0025968798 0.53886294 0.14561035 0.04340425
-0.32522342 -0.41114798 -0.5496352 0.07596084 0.26798093 -0.42972076 0.5873782 0.3911599
0.13017605 0.14502764 0.54372054 0.40211812 0.19024132 0.12458617 0.16664386 0.29642165
-0.054324474 -0.19816482 -0.3091535 -0.1586393 -0.07723546 -0.11395455 -0.0230983 0.09216401
-0.036995094 0.37374398 0.29906794 -0.030316 -0.6575484 -0.19721222 0.45390165 -0.07802217
-0.5143526 0.06410173 0.21434738 -0.24794123 0.010553717 -0.47592968 -1.3169175 -0.3733878
-0.11216922 -0.2993826 -0.46437302 0.2481332 -0.027050842 0.12907061 -0.061695285 0.22972815
0.07527314 0.473464 0.7355048 0.37109876 -0.34995174 -0.4551121 0.14600115 0.35807347
-0.2393141 -0.03286366 -0.03081532 0.32254356 0.09412818 -0.76371515 -1.2898914 -0.56622255
-0.2030242 0.07469312 -0.28305185 0.16991489 0.3502769 -0.4509953 -0.1501542 -0.15987611
0.44028732 0.17920727 0.35491705 0.23594749 -0.28458416 0.30038753 0.65154564 0.31330886
0.1682091 0.4307849 0.5051747 -0.26771107 0.28340274 -0.31799766 -0.3971879 -0.35204953
0.2141125 -0.2216313 -0.20707723 -0.40183002 -0.519396 -0.53363377 -0.030046519 -0.1469909
0.42364818 -0.18927085 0.12848043 -0.15557776 0.52816415 0.45756575 -0.11424149 -0.043158032

layer1.bias f4 [128]
00000000: fb58 80bc f3fd 6c3e 1ac2 113f 1014 933e
00000010: 137e 66be be6a cc3e 0013 0f3f 9220 113f
00000020: 1520 883e 7dd4 fdbd 2f1d 1bbe fe48 28bd
00000030: 0922 943e 9a79 ca3d ef1d 053f c1ea ecbd
00000040: 6b23 843e 6a24 6c3e fe7d 9a3e 1718 01bf
00000050: bf04 bd3e ce44 bcbe 96a1 223b 2402 5cbe
00000060: 9343 c1be aaf3 bbbe dd50 40be a221 1b3f
00000070: 92dd e3be 0ccd 12bc 76ba d1be c786 e5be
00000080: 278b 2b3f acf1 c33e c3b0 dbbe 0b7c 0fbf
00000090: eee1 063f ac24 c43e f562 f33e 5a22 bfbe
000000a0: 4de9 dfbe e38a 323f 7760 323f 034b 203f
000000b0: aa98 ff3e 24bd 9b3e 8aa2 ed3e 4212 fbbd
000000c0: 1a5b f63e a257 c23e 55bb af3c 3115 c03e
000000d0: aeb7 f1be 1bff 66bd 55e4 243f e0e3 0c3f
000000e0: a3d3 2a3f 7d07 1a3f 6117 253f ba67 353f
000000f0: a6ff 063f 610b f23c d8eb a1be ef67 8dbe
00000100: 4b05 bb3e cb4d 943e 5783 043f da95 95be
00000110: a0f1 cd3e d513 2e3f c8bc f73e 075b 143f
00000120: 43a4 4a3e a1d6 193f b33a 62bd 83b0 9d3e
00000130: b4ca 053f c32f 1b3e f824 c0be 6b69 6abe
00000140: cfbf 2abe 1d5f 9f3e 9091 f0be 0db7 dd3b
00000150: d7c3 aebd 1966 b6be 8af8 043f 2c17 8a3e
00000160: ffc2 e23e 5bc6 a53b ec5d be3e 3619 fbbe
00000170: 04e9 02bf 48a7 2f3f 2a4e f03d 4477 263f
00000180: a08d 223f d58c 6f3e ba40 24be fcb3 573e
00000190: 6280 0bbf 570e b0bd 4570 0a3c 743b ad3e
000001a0: 9959 a13e bfed 9a3c c6b1 053f 8262 eebe
000001b0: cf9f 2abe d9b9 883e ccf4 51be e042 d83e
000001c0: e8ec 333e baa5 bc3e 05a4 c83e 87be afbe
000001d0: 3fdb e83e 9e02 6c3c da68 bbbe 1829 fbbe
000001e0: 624f 133f 8f60 213e 4fd2 47be 2977 b8be
000001f0: 3c16 643e 270a 3b3c f3de 11be ebb0 b83c
-0.01566743 0.23143749 0.569368 0.28726244 -0.22509031 0.39925188 0.55888367 0.56690323
0.26586977 -0.123940445 -0.15147851 -0.041085236 0.28932217 0.09886475 0.519988 -0.11568213
0.25808272 0.23060766 0.3017425 -0.50427383 0.36917683 -0.36771244 0.002481555 -0.21485192
-0.37746868 -0.36709338 -0.18780847 0.60598195 -0.44504982 -0.00896002 -0.4096257 -0.4482939
0.67009205 0.38270319 -0.42908296 -0.5604865 0.5268849 0.38309228 0.47536436 -0.37330896
-0.43732682 0.69743174 0.69678444 0.6261446 0.4992116 0.3041774 0.4641307 -0.12259342
0.4811638 0.37957484 0.021451632 0.37516168 -0.4721045 -0.05639563 0.6441091 0.5503521
0.6672918 0.60167676 0.644888 0.708614 0.5273384 0.029546442 -0.31625247 -0.27618358
0.36527476 0.289656 0.5176291 -0.2921589 0.40223408 0.6799901 0.48386216 0.57951397
0.19789223 0.6009312 -0.05523176 0.3079873 0.52262425 0.15154938 -0.37528205 -0.22891776
-0.16674732 0.31127253 -0.46986055 0.006766206 -0.08533447 -0.3562477 0.5194174 0.26970804
0.44289395 0.005059046 0.37181032 -0.49042672 -0.51136804 0.68614626 0.117336586 0.65025735
0.6349735 0.23393567 -0.16040316 0.21064752 -0.5449277 -0.08596485 0.008449619 0.33834422
0.3151367 0.018912194 0.52224386 -0.4655953 -0.16662525 0.2670429 -0.20503539 0.42238522
0.17570841 0.3684519 0.39187637 -0.34325048 0.45479771 0.014404921 -0.36603433 -0.4905479
0.57543004 0.1575949 -0.1951382 -0.36028412 0.22274107 0.011415995 -0.14245205 0.022545299

layer2.weight f4 [128, 128]
00000000: da7d 19bf 6ac2 483d a559 173b 8eed 64bc
00000010: 9055 d63c 1cb9 473d 19c6 333d 2bda cabd
00000020: df9b 883d b606 45be 858d 62be f450 b5be
00000030: a890 073e f010 a5bc f6ca 953d ef14 09be
00000040: caa2 f5bc 1b34 733d a9cf 75bd 1b7e 5ebe
00000050: 12ec fc3d 338b 9b3c 396a 7abe 045d c0be
00000060: 9b55 c6bd 4dbc d0bd 75ba d9be cd72 ed3d
00000070: aed9 dbbe 47c5 e1be 6e22 7ebd ace1 c0bd
00000080: 14b6 56bc 327b b63d d934 71be e200 16bd
00000090: 8a57 873c 8ecb 0c3c ecb2 8f3d 8a6f 993c
000000a0: 0575 c5be f880 403d 1de5 be3d a830 8f3d
000000b0: f684 2b3a c0b2 e73d 3058 1abd e7e6 1abf
000000c0: c309 28bd 2bb4 27bd 8d00 a8be f5e4 11bd
000000d0: a9ed 3cbe e9a8 4bbf b5f5 503d e936 1a3e
000000e0: 7f95 71bc f8a5 0dbd 12ba 3a3c 1e75 043e
000000f0: a4cb 8bbc b9d1 edbd 36fb 94bd ea4a fabd
00000100: 3031 8f3d fabc 59bd 6544 b5bd 572c 38be
00000110: 40bf e63c cf78 23bd 03d4 03be a10b 04bc
00000120: 1a08 813d 4bbe 96bd 9d1e debe 565b ccbd
00000130: 6f52 0439 c5f3 9d3e 1dae eabe 20ee 9fbd
00000140: b2ce c43d b71c 263d 4894 b4be d661 90be
00000150: eadb e5bd 8f88 abbe 4ec3 1dbd 3d24 6d3d
00000160: d226 53bb 6ddc a8be 3cd6 9dbd 0663 05be
00000170: 8f08 40be 366f 1fbd 017b d1bd 60f9 b83c
00000180: 3395 b23d 5c14 1e3e 8074 4dbe 22f9 10bd
00000190: 043e 26be 59a1 e9be 6dd1 8abe 1825 2cbd
000001a0: c855 323d 264e a5be 0947 97bc a11d 34bc
000001b0: f5d9 cbbd 9a13 703c 4478 8939 9721 1ebd
000001c0: 05c1 fabb cb59 ccbd 16c0 453d a243 f5be
000001d0: dc39 b33c 0337 19be df0c 8bbe df42 f8be
000001e0: df80 9b3d 19f9 59be 6d16 66bf 8d5c bbbd
000001f0: 00f5 19be 0682 b3be 6356 52bf 8624 07bf
00000200: f10a 18bd cec8 213d fde6 833d eb66 ea3b
00000210: 07fb 08bd e836 203d 7fa4 47bc 55b6 ad3c
00000220: f35e 1cbd b078 a5bd 9157 80bd 717f 7d3c
00000230: 4da8 f63c 5f4c 1abc be09 0b3c 8756 16bd
00000240: fef9 033d 3929 15bc 3439 83bd dc54 043d
00000250: aa8a a63c 72b2 8f3c 2551 1a3d 7310 89bd
00000260: 68da 8c3d c66b bebc d8d6 193d 0b94 8ebc
00000270: 8f5d d4bc e7ea 91bd 52a7 163d 288b 6e3c
00000280: 5fa5 413d a000 93bd ef71 66bd fe9c b43c
00000290: 7c53 9cbd 9bf3 683d 015e 133d ef02 96bd
000002a0: 9cab 633d 021a 19bd 19eb 1cbd 97b5 f5bb
000002b0: 0cff 25bd 916b 82bc ac47 1bbc abd4 e43a
000002c0: 5837 72bc 58e2 4c3d b22c a6bd a805 b13c
000002d0: 7a32 5cbd 553d 4ebd efc9 79bd f414 593a
000002e0: 5621 8b3c f5c7 2a3d 3b8c 1bbd a00d 96bc
000002f0: d73a 333d 5640 983b 303f 64bb 11be 99bd
00000300: af3e 8cbc c175 6cbd 7558 b0bd 3995 46bc
00000310: 911c b2bd 5049 863d e883 913d 571c ecbc
00000320: 267d 61bd ba4a d8bc 6c3c b63b 95c4 763d
00000330: 2fbd 813d 8357 20bd f505 cbbc fe67 093d
00000340: 6563 6a3d 7015 8e3d fba4 8bbd 40e0 83bc
00000350: c26e 853d bc51 533d 0845 263d cf74 a3bd
00000360: 5663 fdbb 263d 92bd d683 aebd 9e5e 45bd
00000370: e6f9 913d 2576 8b3d 95a6 6bbd e0dd 8ebd
00000380: eaa8 7d3d 7d39 913d 9c3e 743b eff9 81bd
00000390: b289 48bc 5481 c639 5169 83bd 5f96 903d
000003a0: 25c8 85bc 1622 9abd 5203 3239 b510 49bd
000003b0: 805e 023c bfeb 87bd 454d 08bd 1ff0 b93c
000003c0: 97b7 f0bc ad7b 10bd e995 11bd 8d79 66bd
000003d0: 9733 74bd 7a8c afbc b760 f2bb 1f13 c7bc
000003e0: 61c2 1c3d 5abd 533d 7c1b 22bc 0593 d7bc
000003f0: e8ad 0dbd a740 3f3d f2c9 1cbd 27f4 513c
-0.5995766 0.049013533 0.0023094204 -0.013972653 0.026163846 0.04876052 0.043890093 -0.099048935
0.06670355 -0.19240841 -0.22124298 -0.35413325 0.13238776 -0.020149678 0.07314102 -0.13386892
-0.02998485 0.059375864 -0.060012493 -0.21727793 0.12349714 0.018987274 -0.24454583 -0.37570965
-0.09684297 -0.101921655 -0.42525068 0.11594162 -0.42939514 -0.44095823 -0.062044553 -0.094180435
-0.013104934 0.089102164 -0.23555316 -0.036621936 0.016521234 0.008593453 0.070165485 0.018729944
-0.3856584 0.046997994 0.09321044 0.06991702 0.0006542945 0.11313391 -0.03768176 -0.6050858
-0.041024935 -0.040943306 -0.3281292 -0.03561874 -0.18450035 -0.7955461 0.051015574 0.15060009
-0.014745115 -0.03458211 0.011396902 0.12935302 -0.017064877 -0.11612267 -0.07274477 -0.1222132
0.06991804 -0.053158738 -0.08850936 -0.17985664 0.028167367 -0.039910134 -0.12873845 -0.008059413
0.063003734 -0.07360514 -0.4338273 -0.099783584 0.0001261921 0.30850044 -0.45835963 -0.078090906
0.096097365 0.04055473 -0.3526938 -0.28199643 -0.11223586 -0.33502623 -0.038516335 0.057895888
-0.0032219184 -0.32980672 -0.077068776 -0.13026056 -0.18753265 -0.03892442 -0.10228539 0.022579849
0.08719864 0.15437454 -0.20063972 -0.03539384 -0.16234595 -0.4563091 -0.27112904 -0.042027563
0.04353884 -0.32286185 -0.01846649 -0.010993392 -0.099536814 0.014653111 0.0002622028 -0.038606253
-0.0076524043 -0.09978064 0.04827889 -0.47903162 0.021878175 -0.14962392 -0.27158257 -0.4848852
0.075929396 -0.2128643 -0.8987797 -0.09148512 -0.15034866 -0.35060138 -0.82163066 -0.52790105
-0.03711981 0.039498143 0.06440542 0.007153382 -0.033442523 0.039114863 -0.012185215 0.021205107
-0.038176488 -0.0807966 -0.06266702 0.015472279 0.030109549 -0.009417622 0.008486209 -0.036703613
0.032220833 -0.0091040665 -0.06407395 0.03230749 0.020329792 0.017541144 0.03767504 -0.066925906
0.06877595 -0.02324475 0.037558407 -0.017404577 -0.025923518 -0.07124882 0.036780663 0.014559545
0.04727685 -0.071778536 -0.056261 0.022047516 -0.07633111 0.056872945 0.03597832 -0.07324778
0.05558358 -0.03737832 -0.038310144 -0.007498454 -0.040526435 -0.015920432 -0.009477537 0.00174584
-0.014783703 0.050020546 -0.08113994 0.021609142 -0.053759076 -0.05035146 -0.060983595 0.00082810153
0.01698367 0.0416946 -0.03797553 -0.018317044 0.043757286 0.0046463413 -0.0034827702 -0.075069554
-0.017119734 -0.057729486 -0.08610622 -0.012120538 -0.08696855 0.06556952 0.07105237 -0.028822107
-0.05505099 -0.02640282 0.005561402 0.06024607 0.06334912 -0.039145958 -0.024783114 0.03354644
0.057223696 0.06937683 -0.06818577 -0.016098142 0.06515266 0.05159162 0.040593177 -0.07981264
-0.007732789 -0.071405694 -0.085212395 -0.048185937 0.071277425 0.06809644 -0.057531912 -0.06975913
0.061928667 0.07091043 0.0037268763 -0.06346499 -0.01223986 0.0003786186 -0.06416572 0.07059931
-0.016330788 -0.075260326 0.0001697664 -0.0490882 0.007957101 -0.06636762 -0.033276815 0.022697506
-0.029384417 -0.035274196 -0.035543356 -0.056268264 -0.059619512 -0.02142929 -0.007396783 -0.02430111
0.03827131 0.05169425 -0.009894248 -0.026315222 -0.034589678 0.046692517 -0.038278528 0.012814558

layer2.bias f4 [128]
00000000: 9041 dd3b 954d 2ebc 4bf5 3a3d a4c4 823e
00000010: 7fe4 693c da88 efbc b51d 303c 6d22 91bc
00000020: 11f6 f03c 373c 073c 153c 82ba 54d4 a13e
00000030: 8810 6c3e 4190 a0bd b89b 173e c7d0 8f3e
00000040: fc42 433e 9640 a33e 6a95 233e 66e2 97bd
00000050: 3bd8 b43e a4d9 3cbe e377 683e 4d84 493d
00000060: 1cf4 6d3d 1ddd cf3d bd96 6e3e 6835 8c3e
00000070: 62a2 2fbe ee55 8b3e 7a9b 1dbd 76f6 aabb
00000080: cbe1 0b3d 710a d23c ef0d b4bc 9a3e 893e
00000090: 2ed1 e7bc 5e2c bcbc 2490 0a3e 29e8 c73d
000000a0: 9eb6 833e c88f f43b b220 883e 211d 60bd
000000b0: 9806 f6bd 2250 903d 75ee 76bd 42d6 713e
000000c0: a930 973e aad7 ad3e 70f0 683d 9b1e 8c3d
000000d0: 22a1 cf3e da99 8d3e b186 59bd df61 0d3e
000000e0: 0d11 adbd 5332 51bd 8570 c63c b2ca e53d
000000f0: d5bb 90bc 0cdb b03d a694 b5bc b528 8dbd
00000100: 9d72 aa3d 959f 983e 5957 93bd 87a5 683d
00000110: cfe5 0bba d8e1 a1bd bbb0 2e3e c735 1a3e
00000120: 697c 47bc 1900 e73d 81f6 7f3e da92 213d
00000130: 1f48 50ba d638 123e df1f 1c3e aad7 30be
00000140: 1e0a 703e 5163 db3d cb89 a73e 84ec 513d
00000150: bedb f43d e43c dabb 316f 893c 8b79 f5bd
00000160: 842d 703e ed67 c6bd cb57 343d e13e 1dbe
00000170: b7fc 42bc b5c0 873d 92a1 743e a8c5 b23e
00000180: f601 b43e 8cac 813e d787 723d 900f 0bbd
00000190: e0c0 a2bd 029b 7c3e 57cb 1ebd be3a 6cbe
000001a0: 7526 f1ba 82d8 89bd 2e0a 663d e07e 21be
000001b0: c109 9d3e 7654 d33b 06c4 22bd 2825 2bbc
000001c0: f8c2 8d3e 120b 283e 5007 143c 9c97 873c
000001d0: f73e 923e d120 74bc 6110 85bd 7f3e 6a39
000001e0: 976f d33c c7f8 1e3d d387 a83b 0914 7e3d
000001f0: df7e 933e d692 96bd 5189 133e 4f1b fe3d
0.0067522004 -0.010638614 0.045644086 0.2554065 0.014275669 -0.02924006 0.01074927 -0.01771661
0.029414209 0.008254102 -0.0009936119 0.31607306 0.23053181 -0.07840014 0.14805496 0.28088972
0.19068521 0.31885213 0.15974966 -0.07416229 0.3532122 -0.18442398 0.22701983 0.049198437
0.05809413 0.10149596 0.2329969 0.27384496 -0.17151788 0.27213997 -0.038478352 -0.0052173687
0.03415088 0.025639744 -0.0219793 0.26805574 -0.028297987 -0.022970375 0.13531548 0.09761078
0.25725263 0.007463429 0.26587445 -0.05471528 -0.120129764 0.07046534 -0.060286004 0.23616889
0.29529312 0.339536 0.056869924 0.06841775 0.40552622 0.27656442 -0.053106967 0.13806866
-0.08450518 -0.051073384 0.024223575 0.11220302 -0.01766769 0.0863553 -0.022165608 -0.0689253
0.08322642 0.2980925 -0.071943946 0.056798484 -0.00053366733 -0.079044044 0.17059605 0.15059577
-0.012175658 0.112793155 0.24996378 0.03944669 -0.0007945317 0.14279494 0.15246533 -0.1726977
0.2344136 0.107123025 0.32722315 0.05125095 0.11955975 -0.0066600908 0.016776653 -0.11986073
0.23454863 -0.09687791 0.04402904 -0.15356018 -0.011901072 0.06628553 0.23889759 0.34916425
0.35157746 0.25326955 0.05921158 -0.03395039 -0.07946944 0.24668506 -0.03876814 -0.23069283
-0.0018398302 -0.06730749 0.05616205 -0.15771055 0.30671504 0.0064492775 -0.039737724 -0.01044587
0.27687812 0.16410473 0.009034947 0.016551785 0.28563663 -0.014900402 -0.06497265 0.0002233926
0.025810046 0.03881147 0.0051431446 0.062030826 0.28807732 -0.073522255 0.14407851 0.124075525

layer3.weight f4 [2, 128]
00000000: 5246 9f3e 50b5 32bd 846e 8ebe 0507 da3e
00000010: d460 943e 08f6 983d bf6c 1cbe 0a75 c238
00000020: 886d 95be e1f1 c03e 1451 80be f654 8f3e
00000030: f1ea 8c3e 7974 a8bc f12b 8b3e aa18 cc3e
00000040: 4c8c 9e3e af5d 753e 3a2e e53e 7ea9 95be
00000050: 702e a13e 6bea 1abf 5ef6 713e 9e6c 6f3e
00000060: e1a6 60be 7ae2 bf3e fd22 ab3e 8514 983e
00000070: 648b acbe bf1a bd3e 9b31 a4be 733d bbbe
00000080: a2c5 873e cbda 0d3d bfb6 a63e f166 783e
00000090: a0f6 24bb b2c0 9c3e 44bd c03e 9852 c23e
000000a0: 90b0 c33e 1517 7abd fe18 b93e 9711 8dbe
000000b0: 4ce4 9cbe 41ca 463e a0ea 383d 5b27 ba3e
000000c0: 4746 af3e 6e4f ed3e 7cff c53e 116d bb3e
000000d0: 1c11 de3e 6403 8a3e 53ff aa3e 2a4f af3e
000000e0: 529e 4d3e 24c0 79be 1cac b0bd aed3 b73e
000000f0: 24fa bb3e 9da2 853e a086 29be 294a 59bd
00000100: be95 843e 204c e43e 6ca3 943e a672 c13e
00000110: 50a5 b93d 0e3f e23c 7d02 bc3e ffd9 733d
00000120: 38b9 67be 896a e03e 32f0 aa3e ac77 b33e
00000130: 3b63 ddbd 35ec 4b3e 8cc8 b23e 7c37 a1be
00000140: 5e97 a93e edca 6f3e e8ae dc3e 566b 8b3d
00000150: d222 b33e 782f ce3e 4431 a23e b0d9 d8be
00000160: c954 dc3e 485e 82be aec1 5cbe 73d7 34bf
00000170: ad1d 64be bbd6 64bd b918 d23e 7dbe b53e
00000180: f4fe 873e 4047 973e a342 d13e 1635 833c
00000190: 57e7 8b3d d550 b63e c4bd c43e f616 4cbe
000001a0: 82f2 3a3e 0ea7 74bc e94e 933e 6547 a3be
000001b0: e7d1 e13e 54aa 5fbd 55d9 49bc aa2b 40be
000001c0: 3207 ec3e d934 303e e5fc 9cbe 13c5 dd3e
000001d0: f371 d53e 51ed 3abc b8e9 2b3c eb09 60bd
000001e0: 4ae6 32be 5d58 5d3e f61a 92be 9144 9cbc
000001f0: de75 a13e 6118 dc3e 680b ce3c ed5b b13e
00000200: 68a4 b53e cb07 043b b5c5 99be 60e7 ef3e
00000210: 0914 a2bd fb86 9d3d 2209 2dbe b297 22bd
00000220: d279 06bf c526 963e 28f8 f3bd 44ba 9d3e
00000230: 1b4a a33e c124 28bc 8e3f a43e ac74 bc3e
00000240: 0967 c73e 23b5 a63e 61a6 ac3e ae86 94be
00000250: dc38 e13e 05b8 49be cdeb c33e e769 ac3e
00000260: 533a e0bc 64fa 483e ee1f c43e 37ac 8b3e
00000270: 458a 3bbf c2ec b73e a954 3fbd 8e54 33be
00000280: 1409 9e3e 4d29 19be 3632 ba3e 8ec7 b13e
00000290: 1851 1b3d 353b 8bbe 9790 a33e ce50 a43e
000002a0: ef29 8b3e d207 103d 86fb 523e 8877 4abe
000002b0: b90b 8fbe 5bcd c9bc 149a a3bc 0b77 a83e
000002c0: f652 d23e a168 9e3e d155 943e db7c ba3e
000002d0: be28 b33e 14f8 ab3e 6536 d33e ff7e 8e3e
000002e0: e055 7ebe 1681 dbbd dcfd 92be e0e6 823e
000002f0: 0f42 ab3e 5a95 983e d62c c43d 4005 b3bc
00000300: 5fe8 ac3e c6c7 9a3e fde7 d63e f4fd c23e
00000310: 447d ef3e c849 b9bc 6904 8c3e 22ad 553e
00000320: 93aa 88be 984d e23e 89cc a73e a9f1 cc3e
00000330: a871 483e 3d0b 863e 87d0 df3e b10c 11bf
00000340: 4735 d73e 1d13 48be c449 8e3e ae96 423d
00000350: b286 bb3e 7326 a93e c2ae 9b3e 8262 95be
00000360: 324c d03e f5dc 10be 5663 213d 7313 bfbe
00000370: 389e efbe 59b8 9c3d 4a2b ae3e 22f2 b73e
00000380: 4655 a33e dcaf bf3e 68ad e43e 79a6 273f
00000390: 2869 a3bd e72e bc3e dccd d33e 2427 03bf
000003a0: 1330 a8be 19e0 94bd 29f4 903e b028 b2be
000003b0: f1ef a53e 84c3 20bd 43d6 01bf 81b4 d5bd
000003c0: 131d a13e 15ce 903e 6089 573d e53b c13e
000003d0: 65f5 a63e ca8c 2abd 11ea 0cbc 34fc 023c
000003e0: 444f 653e 80ef 6f3d 5dab d0bd cac8 6cbd
000003f0: 8acc 9b3e ade7 cb3e ad8c 983e 85ec 7b3e
0.31108338 -0.043629944 -0.27818692 0.4258348 0.28980124 0.07468802 -0.15275858 9.272441e-05
-0.29185128 0.3768454 -0.25061858 0.27994508 0.27522996 -0.020563351 0.27181962 0.39862567
0.30966413 0.23961519 0.4476183 -0.29230875 0.31480742 -0.60513943 0.23629138 0.23381278
-0.21938659 0.37477475 0.3342513 0.29703155 -0.33700097 0.36934468 -0.32069096 -0.3657032
0.2651797 0.034632485 0.325613 0.24258019 -0.0025171414 0.30615765 0.37644398 0.3795364
0.38220644 -0.06105717 0.3615188 -0.27552482 -0.30642927 0.19413091 0.04514563 0.3635815
0.34233305 0.46349663 0.38671482 0.3660665 0.43372428 0.26955712 0.33397922 0.34240085
0.20079926 -0.24389702 -0.08626577 0.35903686 0.3671428 0.26100627 -0.16555262 -0.05304924
0.25895494 0.4458933 0.2903093 0.37782782 0.09064734 0.027617957 0.36720648 0.05953407
-0.22629249 0.4383128 0.3338638 0.3505224 -0.10809942 0.19914325 0.3491863 -0.31487644
0.33123296 0.23417254 0.43102193 0.06807582 0.34987503 0.4027059 0.31678212 -0.42353582
0.43033436 -0.25462556 -0.21558258 -0.7064125 -0.22276945 -0.055868845 0.41034487 0.35496894
0.265617 0.29546547 0.40871152 0.016016524 0.06831234 0.35608545 0.3842603 -0.19930634
0.18256572 -0.014932407 0.2877114 -0.31890407 0.44105455 -0.054605797 -0.012319882 -0.18766657
0.4609924 0.1720766 -0.30661693 0.43314418 0.416885 -0.01140912 0.010492735 -0.05469696
-0.17470661 0.21615739 -0.28536195 -0.019075664 0.31535238 0.4298735 0.025151923 0.34640446
0.35476995 0.0020146247 -0.3003365 0.46856213 -0.07913978 0.07691761 -0.16898015 -0.03969545
-0.52529633 0.29326454 -0.119125664 0.30806172 0.31892475 -0.010262669 0.32079738 0.36807764
0.38945797 0.3256007 0.33720687 -0.29009002 0.43988693 -0.19699104 0.3826584 0.33674547
-0.027371561 0.19626766 0.3830561 0.27279827 -0.7325786 0.3592282 -0.046711598 -0.17512724
0.308663 -0.14957161 0.36366433 0.3472256 0.037919134 -0.2719361 0.3194625 0.320929
0.2718043 0.035163708 0.20603761 -0.1977216 -0.2793863 -0.024634054 -0.019970931 0.32903323
0.4107892 0.309392 0.28971723 0.36423382 0.3499202 0.33587706 0.41252437 0.27831265
-0.24837446 -0.107179806 -0.28709304 0.2556677 0.33448836 0.29801446 0.09578864 -0.02185309
0.33771035 0.3023054 0.41973868 0.38084376 0.46775258 -0.02261819 0.27347115 0.20866826
-0.26692638 0.44199824 0.32773235 0.40028122 0.19574606 0.2618045 0.4371378 -0.5665999
0.42032835 -0.19538541 0.27790654 0.04750698 0.36626202 0.33037147 0.30406767 -0.29176718
0.40683132 -0.14146788 0.039401375 -0.37319526 -0.468004 0.07652349 0.34017402 0.3592692
0.31900996 0.37438858 0.44663548 0.6548839 -0.07979041 0.36754534 0.41367996 -0.512316
-0.32849178 -0.07269306 0.2831128 -0.34796667 0.32409623 -0.03924896 -0.5071756 -0.10434819
0.31467494 0.28282228 0.052621245 0.37741008 0.32609096 -0.041638173 -0.008600728 0.0079947
0.22393519 0.058578014 -0.10188935 -0.057808675 0.30429488 0.39825192 0.29794827 0.24601944

layer3.bias f4 [2]
00000000: a2f7 103e 54d0 e73d
0.14156964 0.11319032
