cartpole_weights/episode_durations_469.pt (torch, 72007 bytes, 6 tensors)

layer1.weight f4 [128, 4]
000000 47 1c 0e bf 3f bf fb be 38 bd 1d 3d ae 91 96 be
       -0.555119 -0.49169347 0.03851053 -0.2940802
000010 1e ea a8 3d bb 40 b3 3c 5b 8a 35 bf 95 3d 06 3e
       0.08247779 0.021881452 -0.7091424 0.13109429
000020 ea 1f 27 bf ae f9 a7 be 55 bd c8 be 8b 1c 84 be
       -0.6528307 -0.32807678 -0.3920695 -0.25803027
000030 bd e5 00 be 5d 13 c3 be c6 5e f3 be c8 be 90 bd
       -0.12587638 -0.3810071 -0.47533244 -0.07067639
000040 7a 22 88 be cb 63 04 3e 70 bb a5 be dc 18 09 bf
       -0.26588804 0.12928693 -0.32369566 -0.5355356
000050 39 78 0f bf 8f ef e0 bc 29 5c 05 3f c9 f8 31 be
       -0.5604282 -0.02745798 0.5209375 -0.1738006
000060 a3 b9 e2 3d aa ac 42 bd f0 b0 a4 be b4 da b5 3e
       0.11070564 -0.047527947 -0.32166243 0.3551842
000070 e1 74 ba be 37 63 dc 3e db d4 0d 3f 25 79 41 be
       -0.36417297 0.43044445 0.55402917 -0.18893869
000080 10 93 4b 3e 53 80 33 3e 79 db 08 3f 13 22 87 3d
       0.19880319 0.1752942 0.5345989 0.06598296
000090 6a 09 be 3e 1d 9c bd 3e 86 60 1f 3e 8b 15 f8 bc
       0.37116557 0.37033167 0.15564165 -0.03028371
0000a0 c3 18 7b 3c dd 0a c2 3e 83 e8 05 bf 32 50 09 3e
       0.015325728 0.37898913 -0.5230791 0.13409498
0000b0 0b 2a 14 bf 66 25 33 bf 88 1b 86 be 36 28 fc be
       -0.5787665 -0.6997894 -0.2619288 -0.4924943
0000c0 1b 20 ab 3e 57 88 d2 bc 0a 28 28 3d ba f3 a9 ba
       0.33422932 -0.025699778 0.04105381 -0.0012966313
0000d0 ef be 68 3e dc 07 02 3f 15 e6 b4 be 6d e2 1f bc
       0.22729085 0.5079324 -0.3533179 -0.009758574
0000e0 af 12 59 be df 4c 65 be 57 66 69 3e ca 05 98 bd
       -0.21198533 -0.22392605 0.22792946 -0.07422979
0000f0 11 f6 55 be 72 aa 0a bf 51 a5 6d be 30 59 03 be
       -0.20894648 -0.5416633 -0.23207594 -0.12826991
000100 4b 0a e4 be 75 2c 95 be 48 25 8b 3e 90 bb fe bd
       -0.44539103 -0.2913548 0.2717688 -0.124381185
000110 33 f1 12 3f f4 d9 94 be 38 c7 58 be 7b 23 73 3e
       0.5739929 -0.29072535 -0.21169746 0.23744003
000120 bf b8 de 3e 63 36 c1 3e 4d cd a5 bd 09 25 92 3c
       0.43500325 0.37736806 -0.08095799 0.017839925
000130 b8 f6 66 be 88 45 ab be d7 32 56 3f 85 bc 86 3b
       -0.22555053 -0.33451486 0.83671325 0.0041118287
000140 de 90 a4 3e de 91 b6 be a6 e4 08 be 35 bc 08 bd
       0.32141775 -0.35658163 -0.13368472 -0.033382613
000150 a6 ba 4f be d1 31 40 3e 33 3f 3b bd 75 88 ef 3c
       -0.20286044 0.18769003 -0.04571457 0.029239872
000160 a0 31 1d 3f 45 eb 04 3f 51 d9 a3 3f 36 44 bd 3e
       0.61403847 0.5192149 1.2800695 0.36966103
000170 8d 84 cf be ad 51 dd 3d b3 5e 3e bf 1b 57 84 be
       -0.40530816 0.10806594 -0.7436325 -0.25847706
000180 df 26 9a be 3b a1 2c be 56 a1 1e 3e 51 03 38 3e
       -0.3010778 -0.1685838 0.15491232 0.17970015
000190 48 1c 44 be 49 87 bd be b5 06 08 3f 2f b0 0b 3e
       -0.19151413 -0.37017277 0.53135234 0.13641427
0001a0 b2 a6 4f bf bb 52 cc 3e 44 4e f4 bd 1e ba 9b 3e
       -0.8111373 0.39906868 -0.119289905 0.30415434
0001b0 ce 6f 60 be 49 08 c1 be 38 43 27 be fd 5e 66 bc
       -0.2191765 -0.37701634 -0.16334236 -0.014060733
0001c0 05 cf 55 3e 8e 34 37 3e 9b e9 3d 3f 5e 70 ba 3e
       0.20879753 0.17891142 0.7418458 0.36413854
0001d0 95 88 24 bf e7 e2 32 bf 25 99 2c bf 4d 20 f7 be
       -0.6427091 -0.69877476 -0.6742118 -0.4826683
0001e0 95 c4 f8 be e1 46 eb 3d 5f 5f 3f 3f 0a c0 be 3e
       -0.4858748 0.114881285 0.747549 0.3725589
0001f0 6f 42 03 bf 81 1d c6 be 1d ec a0 3e f9 df bb 3e
       -0.51273245 -0.38694385 0.3143014 0.36694315
000200 c8 01 ca be ea 00 fe 3e 56 26 ad bd 26 e1 f0 bc
       -0.39454484 0.49610072 -0.084545776 -0.029404234
000210 4e 65 16 bf 4e c3 6a 3e 43 9a 3b bd 68 56 67 3e
       -0.5874833 0.22926065 -0.045801412 0.22591555
000220 49 65 1b 3f a0 2a 56 3e 23 bc c9 be 26 92 fd bd
       0.60701424 0.20914698 -0.3940135 -0.12381391
000230 4b f5 bc be dc 53 d3 bb 2a e7 38 3f 12 c2 e9 3e
       -0.36905894 -0.006449206 0.7222773 0.45655876
000240 67 a0 0a bf 19 fb b3 be de 86 80 be 97 89 9e bd
       -0.54151005 -0.3515251 -0.25102895 -0.07741087
000250 84 bb 3d bb 06 70 0a 3f 7d d6 19 3e c6 e3 36 3d
       -0.002895088 0.54077184 0.15023227 0.044650815
000260 98 81 a6 be 69 69 d2 be d2 f4 0b bf 28 3a 9a 3d
       -0.32520747 -0.41096047 -0.5467044 0.07530624
000270 c5 bf 8d 3e 1d fa da be af 03 18 3f 77 ef c7 3e
       0.2768537 -0.42768946 0.5938062 0.39049885
000280 e1 dc 07 3e 05 e9 14 3e 72 a7 0b 3f 78 67 ce 3e
       0.13267852 0.14542015 0.54552376 0.40313315
000290 d5 bc 42 3e a3 97 00 3e b7 1e 2e 3e d6 4f 98 3e
       0.19017346 0.12557845 0.17003904 0.2974841
0002a0 13 10 60 bd a4 61 4a be a6 ba 9c be 95 af 21 be
       -0.05470283 -0.1976381 -0.3061115 -0.15789635
0002b0 59 a9 9e bd c5 14 e8 bd cf f8 a3 bc 6a cf be 3d
       -0.07747144 -0.113320865 -0.020016102 0.09316905
0002c0 ad 86 18 bd 05 0a c0 3e 85 11 9b 3e 3f 13 ed bc
       -0.03723781 0.37507644 0.30286804 -0.028939841
0002d0 c8 2b 28 bf c9 6a 49 be 07 77 eb 3e 3b fa 9e bd
       -0.65691805 -0.19669642 0.45989248 -0.077625714
0002e0 dd 74 04 bf e2 22 83 3d b6 80 5f 3e 0e 87 80 be
       -0.5174082 0.06403138 0.21826443 -0.2510304
0002f0 07 11 2d 3c 8e e6 f3 be 49 b8 a8 bf 68 5b bf be
       0.010563142 -0.47636837 -1.3181239 -0.37374425
000300 7d 90 f7 bd d0 01 9a be c2 19 ed be 7c c1 7e 3e
       -0.12088106 -0.30079508 -0.46308714 0.24878496
000310 10 22 de bc e5 45 05 3e 29 37 71 bd 06 90 6c 3e
       -0.027115852 0.13014944 -0.058890495 0.23101816
000320 c2 80 9c 3d 5a 6d f2 3e bb 9e 3b 3f 87 36 be 3e
       0.07641746 0.47349054 0.7328908 0.37150976
000330 dc dc b3 be 92 06 ea be dc 54 17 3e 20 82 ba 3e
       -0.3512944 -0.45708138 0.14778465 0.36427402
000340 41 48 75 be 64 bc 06 bd 81 ad fc bc f6 4b a5 3e
       -0.23953344 -0.032894507 -0.030844452 0.32284516
000350 1e 96 c2 3d 66 b2 43 bf e5 58 a5 bf 8a fa 10 bf
       0.09501289 -0.7644409 -1.2917753 -0.5663229
000360 df 4d 50 be db bd 9a 3d 24 74 8f be 4d f2 2e 3e
       -0.20342205 0.07555743 -0.28018296 0.17084618
000370 b3 55 b3 3e 2b bc e6 be bb 31 16 be ce d7 22 be
       0.3502632 -0.45065436 -0.14667408 -0.15902635
000380 3f 78 e1 3e 34 ac 38 3e 5a e3 b7 3e 06 7b 72 3e
       0.44037053 0.1803444 0.35915643 0.23679742
000390 81 d4 91 be 2b 4e 9a 3e c9 92 27 3f 74 ff a0 3e
       -0.2848244 0.30137762 0.6545835 0.31444895
0003a0 21 da 2b 3e 74 6e dd 3e eb 9a 02 3f 30 e7 88 be
       0.16782428 0.43248332 0.51017636 -0.26738882
0003b0 62 11 91 3e 74 95 a2 be 41 a2 c9 be c9 f6 b3 be
       0.28333575 -0.3175465 -0.39381602 -0.3514922
0003c0 58 09 5b 3e 71 37 62 be ec 41 50 be b5 11 cd be
       0.21390283 -0.22091462 -0.20337647 -0.40052572
0003d0 f5 41 05 bf ac a2 08 bf 24 18 fc bc 3d 51 19 be
       -0.5205377 -0.5337322 -0.03077323 -0.14972396
0003e0 d1 a3 d8 3e 03 ba 45 be 52 40 0b 3e 4a ce 28 be
       0.42312482 -0.19309239 0.13598755 -0.16484943
0003f0 14 67 07 3f d9 ac ea 3e 03 b0 ea bd 49 52 34 bd
       0.5289166 0.45834997 -0.11459353 -0.044023786

layer1.bias f4 [128]
000000 d7 e4 55 bc 5b 7c 6c 3e 25 22 12 3f c0 c3 92 3e
       -0.013055048 0.23094313 0.5708335 0.2866497
000010 d9 eb 63 be c7 bf cc 3e 25 02 0f 3f 2e 4d 11 3f
       -0.22257937 0.39990065 0.5586265 0.5675839
000020 ae ed 87 3e 76 36 fc bd 6c f0 1b be 83 d9 1b bd
       0.26548523 -0.12315075 -0.15228432 -0.038049232
000030 6b f2 93 3e 7c ed c2 3d 70 b5 04 3f 2a ef ed bd
       0.28895888 0.09517953 0.5183935 -0.116178825
000040 c1 8a 84 3e 2a 84 6c 3e 6f 2e 9a 3e 6f 38 01 bf
       0.2588711 0.23097292 0.3011355 -0.50476736
000050 73 db bc 3e 86 73 bc be f6 5e 07 ba 1f 7a 5c be
       0.36886176 -0.36806887 -0.00051639916 -0.2153096
000060 4b 72 c1 be 2b 20 bc be 8f 8b 3d be 16 9d 1a 3f
       -0.3778251 -0.36743292 -0.18510269 0.60395944
000070 59 41 e5 be 94 1a d0 bb c6 ec d1 be 63 bb e5 be
       -0.4477642 -0.0063508246 -0.41000956 -0.44869527
000080 6f 76 2b 3f a7 8e c4 3e 8b 0c db be fb 9f 0f bf
       0.6697759 0.38390085 -0.42783007 -0.56103486
000090 99 62 07 3f 62 d4 c3 3e 0b ba f3 3e ee 73 bf be
       0.52884823 0.38247973 0.47602877 -0.37393135
0000a0 67 22 df be 95 86 32 3f ca 60 32 3f b0 48 20 3f
       -0.43580934 0.69736606 0.6967894 0.6261091
0000b0 93 6c ff 3e 37 95 9c 3e 00 ef ec 3e 5a 4f fb bd
       0.49887523 0.30582592 0.46276093 -0.122709945
0000c0 d0 30 f5 3e 2e 17 c2 3e b9 76 84 3c ee 09 bf 3e
       0.47888803 0.3790831 0.016169893 0.37312263
0000d0 2e f1 f1 be e4 f0 63 bd d5 de 24 3f 5d d9 0c 3f
       -0.47254318 -0.055649653 0.64402515 0.5501917
0000e0 9d cc 2a 3f 0a 00 1a 3f 61 f9 24 3f c8 62 35 3f
       0.66718465 0.6015631 0.6444302 0.70853853
0000f0 d9 e5 06 3f 6f 66 eb 3c 10 f3 a0 be 9d 14 8d be
       0.5269447 0.028735368 -0.31435442 -0.2755479
000100 a3 da ba 3e 83 a7 92 3e 97 5c 04 3f 1c a0 95 be
       0.36494932 0.28643426 0.5170378 -0.29223716
000110 94 31 cd 3e d1 13 2e 3f ab 07 f7 3e 08 0d 14 3f
       0.40076888 0.6799899 0.48248038 0.57832384
000120 20 74 49 3e 4c 0c 1a 3f de 21 56 bd 95 77 9c 3e
       0.19673204 0.60175014 -0.052278392 0.30559984
000130 49 ba 05 3f fd 03 1b 3e 42 22 c0 be 17 62 6d be
       0.52237374 0.1513824 -0.37526137 -0.2318195
000140 11 9c 23 be 90 80 a0 3e be b5 f0 be 80 03 92 3b
       -0.15977503 0.31348085 -0.47013658 0.0044559836
000150 6d 41 ab bd e6 1b b4 be 3d d5 04 3f 5b d0 8a 3e
       -0.08362088 -0.35177535 0.51887876 0.27112088
000160 db 09 e4 3e ae d0 a5 3a eb 75 be 3e 7d 06 fb be
       0.4453877 0.0012650692 0.3719934 -0.49028388
000170 b7 04 02 bf bd a5 2f 3f 73 3c ef 3d 50 6f 26 3f
       -0.50788444 0.6861227 0.11681452 0.650136
000180 cc 88 22 3f cd 1b 6f 3e 59 27 23 be 84 f6 56 3e
       0.63489985 0.23350449 -0.15932979 0.20992476
000190 ba a0 0b bf 07 02 a8 bd 7b 1f a2 3b 8a f2 ac 3e
       -0.54542124 -0.08203512 0.0049476004 0.33778793
0001a0 da b9 a2 3e 66 8c 7a 3c d9 9b 05 3f 46 4f ee be
       0.31782418 0.015292263 0.5219093 -0.46544856
0001b0 c3 72 2d be 59 7c 88 3e fb fa 4f be d8 aa d8 3e
       -0.1693831 0.2665737 -0.20310585 0.42317843
0001c0 55 3b 34 3e 15 98 bd 3e 02 88 c8 3e b2 f7 af be
       0.17600758 0.37030092 0.39166266 -0.34368664
0001d0 09 7e e8 3e 9d d0 b1 3c 52 ee ba be 97 63 fa be
       0.45408657 0.02170592 -0.3650995 -0.48904106
0001e0 40 48 13 3f f6 f9 1e 3e a2 0d 47 be 14 ae b7 be
       0.5753212 0.1552504 -0.19438794 -0.35875
0001f0 eb 0c 64 3e 92 b3 0e 3c e3 02 12 be 5e 6f c7 3c
       0.22270553 0.008709805 -0.14258914 0.024345096

layer2.weight f4 [128, 128]
000000 66 ba 19 bf 5d 82 43 3d 76 d3 1f 3b 0c f3 66 bc
       -0.60050046 0.047731746 0.0024387515 -0.014096033
000010 9e c2 cf 3c fa 61 4a 3d 79 a0 33 3d 2e 75 ca bd
       0.025361355 0.049409844 0.04385421 -0.098856315
000020 b6 07 89 3d 88 6a 45 be 6d c3 62 be 87 9a b5 be
       0.06690924 -0.1927892 -0.22144862 -0.35469458
000030 b6 d1 06 3e 06 8d b1 bc ab 6e 96 3d f5 41 09 be
       0.13165936 -0.02167369 0.07345327 -0.13404067
000040 64 12 f1 bc 10 55 6f 3d cc 1c 7a bd 03 b4 5e be
       -0.029427715 0.05843073 -0.06106262 -0.21748357
000050 0e 26 fc 3d 23 af 9b 3c 72 b3 7a be 53 97 c0 be
       0.12311946 0.01900441 -0.24482515 -0.3761545
000060 53 84 c6 bd f4 10 d1 bd c5 ec d9 be b3 e7 ed 3d
       -0.096932076 -0.10208312 -0.42563453 0.11616459
000070 96 0f dc be 64 22 e2 be 86 5f 7e bd 0a 51 c1 bd
       -0.4298064 -0.44166863 -0.062102817 -0.09439285
000080 ba 79 57 bc 83 0c b8 3d 59 6e 71 be d2 24 16 bd
       -0.0131515805 0.089867614 -0.2357725 -0.03665621
000090 c0 65 89 3c 5b f6 07 3c af 13 90 3d a2 50 97 3c
       0.016772151 0.008298482 0.07035004 0.018471066
0000a0 cb a1 c5 be be b3 40 3d 65 a5 be 3d ca 7d 8f 3d
       -0.386 0.047046416 0.0930889 0.07006414
0000b0 33 d6 12 3a bf 66 e9 3d 21 5b 19 bd d7 0a 1b bf
       0.0005601376 0.113965504 -0.037440423 -0.60563415
0000c0 1f c8 27 bd dc 3b 27 bd 9b 91 a7 be ae 26 0f bd
       -0.040962335 -0.04082857 -0.32728276 -0.034948997
0000d0 61 1c 3d be 9e dc 4b bf 45 49 51 3d 81 ea 19 3e
       -0.18467857 -0.7963351 0.051095266 0.15030862
0000e0 eb 1d 75 bc 39 2b 0a bd 1a 30 34 3c 36 f7 03 3e
       -0.014960746 -0.033732627 0.010997796 0.12887272
0000f0 b6 b8 91 bc 9d 7c ee bd 26 1f 95 bd d3 b6 fa bd
       -0.017788272 -0.11644862 -0.07281332 -0.12241902
000100 17 e0 8e 3d d9 61 5c bd 85 99 b7 bd f0 5b 38 be
       0.069763355 -0.053804252 -0.089648284 -0.18003821
000110 ca 04 ec 3c 89 ba 21 bd 8c f4 03 be b3 9b 03 bc
       0.028810877 -0.039484534 -0.12886256 -0.008032727
000120 68 79 80 3d 71 27 96 bd 67 6f de be 37 3d cd bd
       0.062731564 -0.073317416 -0.43444368 -0.100214414
000130 68 1b 08 b9 fa 00 9d 3e 9d e7 ea be b5 af a1 bd
       -0.0001298018 0.30664808 -0.45879832 -0.078948416
000140 40 f3 a9 3d 12 52 28 3d 68 bf b4 be e3 82 90 be
       0.082983494 0.041093893 -0.3530228 -0.2822486
000150 3e cb e7 bd 17 b0 ab be 3f 8e 20 bd e1 9e 6e 3d
       -0.11318062 -0.33532783 -0.039198156 0.058256987
000160 a9 23 3c bb 32 16 a9 be cb ec 9e bd 48 fa 05 be
       -0.0028707779 -0.33024746 -0.077600084 -0.13083756
000170 47 37 40 be 8a 29 1f bd a2 7b ce bd c3 37 ba 3c
       -0.18771087 -0.038857974 -0.10082175 0.022731667
000180 f3 49 b2 3d 1d ac 1c 3e 16 b1 4d be 04 c6 0d bd
       0.08705511 0.15300031 -0.20087084 -0.03461267
000190 8c 65 26 be 1b 0a ea be 01 0e 8b be 3d 77 2d bd
       -0.16249675 -0.45710835 -0.27159122 -0.042350043
0001a0 d8 84 34 3d 3d 82 a4 be 1c 20 96 bc b0 99 3b bc
       0.044072002 -0.32130614 -0.018325858 -0.011450216
0001b0 20 8d cc bd c4 e2 61 3c 71 a7 87 bc 1a 95 1c bd
       -0.09987855 0.013786975 -0.016559334 -0.03822813
0001c0 d6 2f f7 bb 0e e8 cb bd 1f d1 47 3d 22 7d f5 be
       -0.0075435443 -0.0995637 0.048783418 -0.4794703
0001d0 a7 f0 ac 3c 78 07 1b be 37 2d 8b be 9e 7c f8 be
       0.021110846 -0.15139568 -0.27182934 -0.48532575
0001e0 9f 59 9b 3d 90 36 59 be 55 4c 66 bf 69 7c bc bd
       0.07585453 -0.2121222 -0.89960223 -0.09203417
0001f0 42 d5 1a be 9a 09 b3 be b3 88 52 bf 04 5b 07 bf
       -0.15120414 -0.34968263 -0.82239836 -0.52873254
000200 e1 2e 18 bd 56 f0 21 3d 55 07 84 3d 6b a0 ea 3b
       -0.037154082 0.039535843 0.06446711 0.0071602366
000210 5f 1b 09 bd 70 5e 20 3d 37 d3 47 bc 75 e1 ad 3c
       -0.03347337 0.039152563 -0.012196354 0.02122567
000220 e3 82 1c bd 38 a0 a5 bd e9 77 80 bd 89 bc 7d 3c
       -0.03821076 -0.080872 -0.06272871 0.015486845
000230 cd e1 f6 3c 4f 70 1a bc 16 2a 0b 3c 77 7a 16 bd
       0.030136967 -0.0094261905 0.008493921 -0.036737885
000240 56 1a 04 3d 29 4d 15 bc 8c 59 83 bd 34 75 04 3d
       0.03225168 -0.009112635 -0.06413564 0.032338336
000250 32 b2 a6 3c 62 d6 8f 3c 15 75 1a 3d cb 30 89 bd
       0.020348642 0.01755828 0.037709314 -0.0669876
000260 c0 fa 8c 3d 7e 9a be bc c8 fa 19 3d 63 b4 8e bc
       0.06883764 -0.023267027 0.03759268 -0.01742
000270 df 8f d4 bc d7 0e 92 bd 42 cb 16 3d a8 c4 6e 3c
       -0.02594751 -0.07131737 0.036814936 0.014573254
000280 17 d4 41 3d 90 24 93 bd d7 a7 66 bd 1e c8 b4 3c
       0.047321405 -0.07184708 -0.05631241 0.02206808
000290 6c 77 9c bd 83 29 69 3d f1 81 13 3d df 26 96 bd
       -0.076399654 0.056924354 0.036012594 -0.07331633
0002a0 84 e1 63 3d f2 3d 19 bd 09 0f 1d bd 17 ef f5 bb
       0.05563499 -0.03741259 -0.038344417 -0.0075053084
0002b0 94 26 26 bd e9 8b 82 bc 9c 6b 1b bc 93 0a e5 3a
       -0.040564135 -0.015935855 -0.009486105 0.0017474465
0002c0 d8 70 72 bc a8 14 4d 3d 3a 54 a6 bd c8 30 b1 3c
       -0.014797412 0.050068527 -0.08121534 0.021629706
0002d0 62 68 5c bd a5 6f 4e bd 07 07 7a bd 44 47 59 3a
       -0.053810485 -0.05039944 -0.061041858 0.00082885125
0002e0 ae 41 8b 3c 7d ef 2a 3d 2b b0 1b bd 90 31 96 bc
       0.016999092 0.0417323 -0.038009804 -0.01833418
0002f0 f7 65 33 3d 46 64 98 3b 18 75 64 bb 01 e2 99 bd
       0.043798413 0.0046506254 -0.0034859832 -0.0751381
000300 07 5f 8c bc 41 af 6c bd 95 83 b0 bd f1 c3 46 bc
       -0.017135156 -0.057784323 -0.08618847 -0.012131677
000310 b1 47 b2 bd a8 69 86 3d d8 a7 91 3d d7 55 ec bc
       -0.0870508 0.06563121 0.07112092 -0.028849525
000320 0e b3 61 bd 0a 7d d8 bc 8c 67 b6 3b 15 fe 76 3d
       -0.0551024 -0.02642681 0.005566543 0.060300905
000330 87 dd 81 3d 0b 7f 20 bd ad 34 cb bc 56 88 09 3d
       0.06341081 -0.039183658 -0.024805391 0.033577286
000340 e5 9c 6a 3d c8 35 8e 3d 53 c5 8b bd 98 00 84 bc
       0.057278533 0.06943852 -0.06824746 -0.016113564
000350 1a 8f 85 3d 0c 84 53 3d 90 6c 26 3d 57 9c a3 bd
       0.06521435 0.0516396 0.040630877 -0.07988804
000360 6e a0 fd bb 16 61 92 bd f6 ae ae bd 56 8d 45 bd
       -0.007740072 -0.07147424 -0.08529465 -0.04823049
000370 d6 1d 92 3d 7d 96 8b 3d 15 e0 6b bd 38 fe 8e bd
       0.07134597 0.06815813 -0.05758675 -0.06982082
000380 02 e6 7d 3d 6d 5d 91 3d 1c 78 74 3b 47 1a 82 bd
       0.06198693 0.07097898 0.0037303036 -0.06352668
000390 6a b8 48 bc 0c b0 c6 39 a9 89 83 bd 4f ba 90 3d
       -0.012250999 0.00037896668 -0.06422741 0.070667855
0003a0 7d e8 85 bc 06 46 9a bd 72 2e 32 39 6d 3f 49 bd
       -0.01634621 -0.07532887 0.00016992705 -0.049132753
0003b0 d8 7e 02 3c 17 0c 88 bd 9d 6d 08 bd 3f 1b ba 3c
       0.007964812 -0.06642931 -0.03330766 0.02271807
0003c0 17 f1 f0 bc 9d 9f 10 bd d9 b9 11 bd 75 af 66 bd
       -0.029411836 -0.03530847 -0.03557763 -0.056319673
0003d0 17 6d 74 bd 9a b7 af bc 37 9a f2 bb d7 41 c7 bc
       -0.05967435 -0.021449853 -0.0074036377 -0.024323387
0003e0 51 e6 1c 3d aa ef 53 3d 04 43 22 bc 55 c5 d7 bc
       0.038305584 0.051742233 -0.009903673 -0.026339212
0003f0 40 ce 0d bd 5f 6f 3f 3d e2 ed 1c bd 77 26 52 3c
       -0.034620523 0.04673707 -0.0383128 0.012826554

layer2.bias f4 [128]
000000 9e e7 d9 3b b5 78 2e bc 6b 20 3b 3d e0 84 82 3e
       0.0066499254 -0.010648896 0.045685213 0.25492
000010 d3 0c 71 3c 5a c2 ef bc d5 48 30 3c 5d 46 91 bc
       0.01471253 -0.029267479 0.010759552 -0.017733747
000020 f1 9a f7 3c f0 97 10 3c 52 aa d3 3a d8 90 a1 3e
       0.030225249 0.008825287 0.0016148782 0.3155582
000030 d6 9c 6b 3e 39 b2 a0 bd 50 13 17 3e 5d 8c 8f 3e
       0.23009047 -0.07846493 0.14753461 0.28036776
000040 c2 cc 42 3e 09 03 a3 3e 97 d5 22 3e 56 06 98 bd
       0.19023421 0.31838253 0.1590179 -0.074230835
000050 f1 a6 b4 3e 5c 08 3d be fa f1 67 3e 16 27 47 3d
       0.35283616 -0.1846022 0.226509 0.04862126
000060 a8 6c 79 3d c1 59 d5 3d 7a 11 6e 3e c0 ee 8b 3e
       0.06089464 0.1041751 0.23248854 0.2733059
000070 82 cd 2f be 35 0e 8b 3e 90 ba 1d bd 83 11 dd bb
       -0.17168239 0.27159277 -0.038507998 -0.0067464723
000080 9d 13 0c 3d f1 88 d0 3c b5 e8 b4 bc c5 0c 89 3e
       0.034198392 0.025455924 -0.02208362 0.26767555
000090 16 07 e8 bc fe 07 c3 bc 1d f6 09 3e 41 9c c6 3d
       -0.028323691 -0.023807522 0.13472791 0.09697772
0000a0 e2 73 83 3e 48 c9 f4 3b 39 d9 87 3e ea 7e 5f bd
       0.2567435 0.0074702837 0.26532915 -0.054564394
0000b0 18 40 f6 bd c7 94 90 3d f5 27 77 bd bd 3f 71 3e
       -0.12023944 0.07059627 -0.06034084 0.2355947
0000c0 10 f3 96 3e e5 91 ad 3e e8 01 66 3d 39 02 8b 3d
       0.29482317 0.3390037 0.05615416 0.06787533
0000d0 ec 67 cf 3e 3e 53 8d 3e 54 b8 55 bd 72 c1 0c 3e
       0.40508974 0.2760257 -0.052177742 0.13745669
0000e0 84 f4 a9 bd 7e 8f 4f bd dc a5 bb 3c 1e a6 e4 3d
       -0.08298591 -0.050673954 0.022906236 0.11164497
0000f0 09 30 83 bc 2d a1 af 3d b5 fb b2 bc 0d 49 8d bd
       -0.016014116 0.08575664 -0.021848539 -0.06898699
000100 1e 62 a9 3d 57 51 98 3e c9 6d 91 bd 95 18 69 3d
       0.082706675 0.29749557 -0.07101018 0.05690821
000110 45 3c 6e ba 60 09 a2 bd 38 1a 2e 3e 63 d3 18 3e
       -0.00090879604 -0.079119444 0.17002189 0.14924388
000120 e7 e0 45 bc 89 0a e6 3d 27 7e 7f 3e 04 be 22 3d
       -0.012077547 0.11232478 0.24950467 0.039731994
000130 89 19 fd b9 4c 4a 0e 3e 6f 9e 1b 3e ca 02 31 be
       -0.00048274946 0.1389553 0.15197156 -0.1728622
000140 1a 85 6f 3e 23 d5 df 3d cf 3b a7 3e d4 1e 52 3d
       0.23390618 0.109293245 0.32662818 0.05129893
000150 9f b2 f3 3d b3 7a f2 bb 84 18 8d 3c bd be f9 bd
       0.11899304 -0.007399881 0.017223604 -0.121945836
000160 3a 99 6f 3e 52 87 c6 bd 4a 29 38 3d d1 62 1d be
       0.23398295 -0.09693779 0.04496125 -0.15369727
000170 a7 41 38 bc 0d e1 87 3d 66 00 74 3e ee 88 b2 3e
       -0.0112461215 0.06634722 0.23828277 0.34870094
000180 79 c4 b3 3e 4d 76 81 3e 29 4d 74 3d 2b 71 0a bd
       0.35110834 0.2528557 0.0596439 -0.03379933
000190 68 e8 a2 bd e8 0a 7c 3e ce f8 1f bd 3e 74 6c be
       -0.07954484 0.24613535 -0.039055638 -0.23091218
0001a0 f5 5f f1 ba 33 14 8a bd 21 d1 67 3d 68 a6 21 be
       -0.0018415438 -0.06742134 0.056595925 -0.15786135
0001b0 00 be 9c 3e c6 86 d3 3b 8b c2 1b bd a2 e6 0a bc
       0.30613708 0.006455275 -0.038027328 -0.008477839
0001c0 43 72 8d 3e fe a7 24 3e 95 c9 26 3c 03 41 84 3c
       0.27626237 0.16079709 0.010179897 0.016144281
0001d0 9c f4 91 3e 51 5a 74 bc b9 30 85 bd ff 77 6a 39
       0.28506935 -0.014914111 -0.06503434 0.00022360681
0001e0 5c e4 d2 3c 61 38 20 3d 17 c5 bc 3b 21 51 7e 3d
       0.025743656 0.039116267 0.0057607996 0.06208909
0001f0 db 44 93 3e 62 e5 93 bd d5 4a 13 3e 53 f4 f9 3d
       0.2876347 -0.07221486 0.14384015 0.12204804

layer3.weight f4 [2, 128]
000000 cf e9 9f 3e 70 e0 32 bd dc 8e 8e be 51 fb d9 3e
       0.3123307 -0.04367107 -0.27843368 0.42574552
000010 08 ab 93 3e f8 19 99 3d af 90 1c be c2 a3 c2 38
       0.28841424 0.07475656 -0.15289567 9.281143e-05
000020 65 90 95 be 72 6a c1 3e 1e b4 7f be c7 37 8f 3e
       -0.29211727 0.37776524 -0.24971053 0.27972242
000030 d7 06 8d 3e 17 9c a8 bc 1d 5a 8b 3e 08 0b cc 3e
       0.2754428 -0.020582242 0.27217188 0.39852166
000040 6a a2 9e 3e eb 1b 75 3e bf 1b e5 3e 6e cd 95 be
       0.30983287 0.23936431 0.4474773 -0.29258293
000050 db 0b a1 3e 5b 0e 1b bf f9 97 71 3e 81 b6 6f 3e
       0.31454358 -0.6056878 0.23593129 0.23409463
000060 06 22 5f be 55 f5 bf 3e b9 17 ab 3e 4b 19 98 3e
       -0.21790323 0.3749186 0.33416536 0.29706797
000070 ec b2 ac be c8 12 bd 3e 82 36 a4 be 5c 23 bb be
       -0.33730257 0.3692839 -0.32072836 -0.36550415
000080 52 36 88 3e d7 e7 10 3d f8 34 a7 3e 5e 5b 78 3e
       0.26603943 0.03537735 0.326576 0.24253604
000090 28 1e 25 bb 66 62 9c 3e e3 e5 c0 3e db 9b c2 3e
       -0.0025194976 0.30543822 0.3767539 0.38009533
0000a0 0c d1 c3 3e 2d 54 7a bd 08 2f b9 3e b5 2b 8d be
       0.38245428 -0.061115433 0.36168694 -0.27572408
0000b0 3c 08 9d be bc d8 44 3e c0 15 39 3d b4 18 ba 3e
       -0.30670345 0.19223303 0.045186758 0.36346972
0000c0 b2 2f af 3e 11 3f ed 3e f9 63 c6 3e 5f b9 bb 3e
       0.34216076 0.46337178 0.38748148 0.36664864
0000d0 de 06 de 3e d7 dc 89 3e e4 88 ab 3e c2 89 af 3e
       0.43364614 0.269263 0.33502877 0.34284788
0000e0 a4 e3 4d 3e 43 ed 79 be 4f 7e b0 bd 68 1d b8 3e
       0.2010637 -0.24406914 -0.086178415 0.35959935
0000f0 70 87 bc 3e e4 e2 85 3e c2 3c 2a be 79 7c 59 bd
       0.3682208 0.26149666 -0.1662474 -0.053097222
000100 04 17 85 3e 90 3c e4 3e 2b 23 95 3e 73 f8 c1 3e
       0.25994122 0.44577456 0.29128394 0.37884864
000110 9a 3c bc 3d f6 74 e2 3c a0 29 bc 3e 2a a8 7b 3d
       0.09191246 0.027643662 0.36750507 0.06143967
000120 ab d2 67 be 29 cb e0 3e 29 f6 aa 3e 4a ec b3 3e
       -0.22638957 0.43905 0.3339093 0.35141212
000130 ca 31 dc bd 9b 65 4b 3e 8a e4 b2 3e 04 5f a1 be
       -0.10751684 0.19862978 0.34939986 -0.31517804
000140 64 87 a9 3e 18 15 68 3e 7e 96 dc 3e ae 8b 8b 3d
       0.33111107 0.22664297 0.43083566 0.06813751
000150 a5 4f b3 3e 6c 72 ce 3e 8a 96 a2 3e 0b 2b d8 be
       0.350217 0.40321672 0.31755477 -0.4222034
000160 61 53 dc 3e c2 57 82 be d2 ec 5b be 93 02 35 bf
       0.43032363 -0.2545758 -0.21477059 -0.7070705
000170 ff 07 64 be a3 0c 65 bd 7f 0a d2 3e eb a9 b5 3e
       -0.22268675 -0.055920254 0.41023633 0.354812
000180 40 dc 87 3e 58 46 97 3e 5b 8e d1 3e 3b 57 7f 3c
       0.26535225 0.29545856 0.4092892 0.015584762
000190 af 07 8c 3d 6a 3c b6 3e ee 3e c5 3e 46 49 4c be
       0.06837403 0.35592967 0.38524574 -0.19949827
0001a0 a2 1d 3b 3e 6d 0e 95 bc e0 9b 93 3e ed 6e a3 be
       0.18273023 -0.018195355 0.2882986 -0.31920567
0001b0 f5 c6 e1 3e 3c e0 5f bd f4 99 47 bc 65 bb 23 be
       0.44097105 -0.054657206 -0.012182701 -0.15989454
0001c0 68 fa eb 3e 82 fc 2e 3e 06 54 9c be a3 5b de 3e
       0.46089482 0.17088512 -0.30532855 0.43429288
0001d0 33 67 d5 3e 71 18 3b bc 40 11 2c 3c d3 3f 60 bd
       0.41680297 -0.0114194015 0.01050216 -0.054748368
0001e0 3f 9f 32 be 06 f6 5b 3e f9 98 91 be 81 68 9c bc
       -0.1744356 0.21480569 -0.2843702 -0.0190928
0001f0 d5 7a a1 3e 5d be dc 3e 1f 65 d2 3c b3 e0 b1 3e
       0.31539026 0.43113986 0.025682984 0.34741744
000200 7f 64 b5 3e 23 28 04 3b a5 e9 99 be c8 ec ef 3e
       0.35428235 0.0020165525 -0.3006107 0.46860337
000210 9b 50 a5 bd eb aa 9d 3d fc 30 2d be 3a bf 22 bd
       -0.08072015 0.07698616 -0.16913217 -0.03973315
000220 54 9a 06 bf 5c f0 95 3e 3d 5a f4 bd 8e ae 9d 3e
       -0.52579236 0.29284942 -0.11931274 0.30797237
000230 7a 6e a3 3e 49 4c 28 bc 38 69 a4 3e ca 73 bc 3e
       0.31920224 -0.010272094 0.32111526 0.3680709
000240 ad 7f c7 3e 20 a5 a6 3e aa a7 ac 3e 9e aa 94 be
       0.38964596 0.32547855 0.33721668 -0.2903642
000250 a9 41 e1 3e bd e6 49 be 76 f0 c3 3e 80 a0 ac 3e
       0.43995407 -0.19716926 0.38269395 0.33716202
000260 32 59 e5 bc 7f 76 49 3e a7 2b c4 3e 68 90 8b 3e
       -0.027996633 0.19674109 0.38314554 0.2725861
000270 65 b5 3b bf 87 da b7 3e 55 be 40 bd 67 2e 33 be
       -0.7332366 0.3590891 -0.047056515 -0.1749817
000280 0d e4 9d 3e 93 07 18 be 20 0d ba 3e 12 cd b1 3e
       0.3083805 -0.1484664 0.3633814 0.3472677
000290 08 75 1b 3d 50 19 8b be 67 aa a3 3e a7 76 a4 3e
       0.037953407 -0.2716775 0.31965944 0.32121775
0002a0 bc 0d 8b 3e c2 2b 10 3d ff da 52 3e 41 c3 4a be
       0.27158916 0.03519798 0.20591353 -0.19801046
0002b0 4b 2f 8f be da 4f db bc 9c c1 a3 bc af 6c a8 3e
       -0.2796577 -0.026771475 -0.019989781 0.3289542
0002c0 b0 4d d2 3e 1f 58 9e 3e a6 82 94 3e 60 b3 ba 3e
       0.41074896 0.30926606 0.29005927 0.36464977
0002d0 03 1f b3 3e 2a f5 ab 3e 86 26 d3 3e 50 a9 8e 3e
       0.34984598 0.33585483 0.4124033 0.2786355
0002e0 d0 96 7e be 27 65 db bd 58 b2 92 be af 0d 83 3e
       -0.24862218 -0.10712653 -0.2865169 0.25596377
0002f0 b2 19 ab 3e 1b ce 98 3e 14 89 c3 3d 60 30 b3 bc
       0.3341804 0.29844746 0.0954763 -0.021873653
000300 8c ca ac 3e fc ab 9a 3e 0f eb d6 3e 2f cf c2 3e
       0.3374828 0.3020934 0.4197621 0.38048694
000310 41 b4 ef 3e e8 74 b9 bc b9 f3 8b 3e 23 99 53 3e
       0.4681721 -0.022638753 0.27334383 0.20663886
000320 c8 cf 88 be f6 88 e2 3e 17 cb a7 3e 89 e2 cc 3e
       -0.26721025 0.44245118 0.32772133 0.40016583
000330 f9 70 48 3e 6f 40 85 3e 86 05 e0 3e a1 30 11 bf
       0.19574346 0.2602572 0.43754214 -0.56714827
000340 78 35 d7 3e b4 78 45 be a5 30 8e 3e 66 c5 42 3d
       0.4203298 -0.19284326 0.27771488 0.047551535
000350 9c b4 bb 3e 6b 5d a9 3e 1a 85 9b 3e 32 63 95 be
       0.36661232 0.33079085 0.30374986 -0.29177243
000360 c2 49 d0 3e 2e 48 11 be 83 1e 22 3d 2b 42 bf be
       0.40681273 -0.1418769 0.03957988 -0.3735517
000370 f4 dd ef be 49 dc 9c 3d 10 1e ae 3e cb eb b7 3e
       -0.46849024 0.076592036 0.3400731 0.35922083
000380 9c 4c a3 3e 30 b4 bf 3e 6b c7 e4 3e 63 ce 27 3f
       0.31894386 0.3744216 0.44683394 0.65549296
000390 b0 90 a3 bd 28 2f bc 3e 15 8f d3 3e 7c 47 03 bf
       -0.07986581 0.36754727 0.413201 -0.5128095
0003a0 9b 57 a8 be 9d fa 91 bd 5b dc 90 3e d0 53 b2 be
       -0.32879338 -0.07127879 0.28293118 -0.3482957
0003b0 84 d6 a5 3e 0c eb 20 bd c8 09 02 bf 60 20 d6 bd
       0.32390225 -0.03928666 -0.50796175 -0.10455394
0003c0 df 0b a1 3e 34 5b 8f 3e 48 f6 58 3d e6 16 c1 3e
       0.3145437 0.2799927 0.052969247 0.37712783
0003d0 dc df a6 3e 52 b4 2a bd 69 0a 0d bc 8c 1c 03 3c
       0.32592666 -0.041675873 -0.008608439 0.008002412
0003e0 c5 2b 65 3e 7a 7a 6d 3d 73 84 d0 bd 4a 02 6d bd
       0.22379978 0.05797813 -0.10181513 -0.05786351
0003f0 b3 c3 9b 3e ab c3 cb 3e aa 57 98 3e 62 f1 7b 3e
       0.30422744 0.3979772 0.29754382 0.24603799

layer3.bias f4 [2]
000000 49 f0 10 3e 55 f6 e7 3d
       0.14154162 0.11326281
