cartpole_weights/episode_durations_453.pt (torch, 72007 bytes, 6 tensors)

layer1.weight f4 [128, 4]
-0.5801892 -0.51496106 0.09820058 -0.2839022 0.080570884 -0.009872686 -0.7430966 0.10872315
-0.63377136 -0.2951816 -0.3835669 -0.3110767 -0.1025445 -0.41069502 -0.4835972 -0.03732259
-0.24956985 0.14650099 -0.32801706 -0.534784 -0.55880517 0.00984598 0.5428597 -0.29672456
0.10895385 -0.08338742 -0.35475054 0.33492312 -0.3800735 0.42143944 0.55514836 -0.2812232
0.1981297 0.146774 0.526411 0.05448056 0.37140146 0.38142863 0.13502257 -0.078117155
0.031056985 0.40562242 -0.53198195 0.15361458 -0.6033001 -0.7140557 -0.21542913 -0.53405356
0.33476532 -0.061647076 0.023754181 -0.011159133 0.18964724 0.4795269 -0.4052309 -0.19321238
-0.18732205 -0.22982806 0.22109301 -0.096516095 -0.20974462 -0.55498385 -0.23286058 -0.1369341
-0.42560145 -0.2899356 0.30135444 -0.106899634 0.57910913 -0.35261744 -0.2645614 0.20784344
0.41280988 0.33411396 -0.114403196 -0.027973881 -0.16793697 -0.3259491 0.87502635 0.013522806
0.324793 -0.40247098 -0.16107881 -0.063213825 -0.20793316 0.19240041 -0.046872053 0.029964546
0.62517446 0.5523005 1.1342237 0.41608208 -0.41476235 0.11943516 -0.7634529 -0.27551737
-0.26868215 -0.1729788 0.18250923 0.21304609 -0.16738681 -0.37332135 0.5604487 0.15313977
-0.844395 0.39962405 -0.068762094 0.3246392 -0.17591141 -0.38157326 -0.17558995 -0.026365928
0.251723 0.22190614 0.7882566 0.35579792 -0.66861415 -0.7169334 -0.6332504 -0.5103024
-0.4984824 0.115649 0.7771094 0.39813396 -0.52919906 -0.4034881 0.3225506 0.38369563
-0.39297488 0.48212898 -0.10427731 -0.079870015 -0.60235125 0.23480153 -0.042705774 0.2136053
0.63378084 0.22272117 -0.3848253 -0.07872455 -0.3870874 -0.023608029 0.75231534 0.49263942
-0.51624924 -0.3576404 -0.24402745 -0.06563378 -0.0068118325 0.5107006 0.12212865 0.003188402
-0.29651338 -0.44346663 -0.56019104 0.11330297 0.23882708 -0.42847666 0.64706874 0.37059882
0.17199132 0.18353295 0.5724047 0.38762856 0.19440003 0.098215885 0.15220402 0.280481
-0.057034653 -0.23277152 -0.33330804 -0.18430373 -0.07949897 -0.14426991 -0.040294185 0.071932234
-0.029915888 0.35599 0.28818178 -0.071780235 -0.64717084 -0.18934545 0.49340248 -0.07384644
-0.54354936 0.08182106 0.22250195 -0.3677822 0.009302422 -0.4836324 -1.3487283 -0.3978778
-0.09698385 -0.3138678 -0.50554186 0.24592961 -0.03443383 0.0991001 -0.08821972 0.19588867
0.07519579 0.47422498 0.7371175 0.44637942 -0.31557 -0.4743688 0.14298345 0.4498229
-0.246125 -0.037361365 -0.026378391 0.33805263 0.108035706 -0.7887902 -1.3321662 -0.5698623
-0.20885502 0.04977057 -0.30622703 0.15160699 0.3567548 -0.4947728 -0.17097558 -0.18713473
0.4667655 0.15868978 0.34543163 0.22608909 -0.2982549 0.28212473 0.64892 0.2987081
0.15837929 0.4038394 0.4989446 -0.31731513 0.28690255 -0.3572136 -0.42500782 -0.38442174
0.21549717 -0.26718506 -0.23507242 -0.45869905 -0.5298246 -0.56377983 0.004946694 -0.11476315
0.39448452 -0.17786545 0.18727975 -0.13376509 0.5421127 0.47860298 -0.1259738 -0.067656904
00000000: 4887 14bf 7dd4 03bf 631d c93d a15b 91be
00000010: 5902 a53d 0cc1 21bc 943b 3ebf 3eaa de3d
00000020: d73e 22bf 0b22 97be e162 c4be 7245 9fbe
00000030: da02 d2bd 9e46 d2be 0d9a f7be 92df 18bd
00000040: 3d8f 7fbe 5b04 163e daf1 a7be 9be7 08bf
00000050: db0d 0fbf 0951 213c daf8 0a3f 48ec 97be
00000060: 3223 df3d 06c7 aabd dda1 b5be 0b7b ab3e
00000070: fe98 c2be e9c6 d73e 341e 0e3f 7dfc 8fbe
00000080: 83e2 4a3e ec4b 163e dfc2 063f 0227 5f3d
00000090: 5528 be3e 9d4a c33e 5b43 0a3e e3fb 9fbd
000000a0: 386b fe3c bead cf3e f82f 08bf 244d 1d3e
000000b0: e071 1abf 5bcc 36bf 7499 5cbe bcb7 08bf
000000c0: 5c66 ab3e a581 7cbd 2198 c23c ccd4 36bc
000000d0: e332 423e 8d84 f53e 6d7a cfbe 77d9 45be
000000e0: 5ad1 3fbe 0c58 6bbe 3566 623e 3baa c5bd
000000f0: 4bc7 56be 6c13 0ebf 0173 6ebe 7438 0cbe
00000100: 6fe8 d9be 7072 94be 214b 9a3e 32ee dabd
00000110: 7f40 143f 468a b4be 9874 87be e9d4 543e
00000120: d15b d33e fc10 ab3e 394c eabd 7b29 e5bc
00000130: abf7 2bbe cde2 a6be ba01 603f c28e 5d3c
00000140: 454b a63e ad10 cebe d8f1 24be 4076 81bd
00000150: 6eec 54be 9d04 453e e9fc 3fbd 3578 f53c
00000160: 6f0b 203f 9163 0d3f 3e2e 913f b608 d53e
00000170: bb5b d4be 6c9a f43d a671 43bf 9d10 8dbe
00000180: b590 89be 5b21 31be b3e3 3a3e c128 5a3e
00000190: 7367 2bbe fa23 bfbe 9179 0f3f acd0 1c3e
000001a0: 452a 58bf 869b cc3e 24d3 8cbd 1c37 a63e
000001b0: 1f22 34be 925d c3be dacd 33be 5cfd d7bc
000001c0: d6e1 803e 5d3b 633e 2fcb 493f 252b b63e
000001d0: 4c2a 2bbf f388 37bf b31c 22bf 2ea3 02bf
000001e0: 1639 ffbe 62d9 ec3d a4f0 463f 37d8 cb3e
000001f0: 9779 07bf fe95 cebe 5a25 a53e c173 c43e
00000200: 0134 c9be 9cd9 f63e 588f d5bd e492 a3bd
00000210: b133 1abf d06f 703e 40ec 2ebd 59bb 5a3e
00000220: 763f 223f 0511 643e d207 c5be 563a a1bd
00000230: 5230 c6be a065 c1bc bd97 403f 3c3b fc3e
00000240: e928 04bf a41c b7be 55e2 79be 016b 86bd
00000250: cb35 dfbb 46bd 023f 961e fa3d 82f4 503b
00000260: 9ad0 97be 0f0e e3be ae68 0fbf 630b e83d
00000270: 168f 743e 4b61 dbbe 4ca6 253f 21bf bd3e
00000280: 7e1e 303e 10f0 3b3e 1d89 123f 4077 c63e
00000290: cd10 473e 6925 c93d 5fdb 1b3e 359b 8f3e
000002a0: 2b9d 69bd a85b 6ebe 5aa7 aabe 1eba 3cbe
000002b0: 5bd0 a2bd 7ebb 13be 840b 25bd 3551 933d
000002c0: 2a12 f5bc 5244 b63e 908c 933e 8401 93bd
000002d0: fdac 25bf c6e3 41be 409f fc3e cd3c 97bd
000002e0: 0d26 0bbf cd91 a73d 8dd7 633e f34d bcbe
000002f0: 3069 183c aa9e f7be 21a3 acbf a4b6 cbbe
00000300: 789f c6bd 48b3 a0be 316b 01bf f9d4 7b3e
00000310: 7d0a 0dbd fef4 ca3d 8aac b4bd 0a97 483e
00000320: 4000 9a3d 9ecd f23e bcb3 3c3f d88b e43e
00000330: 6492 a1be 78e0 f2be 416a 123e 304f e63e
00000340: 3108 7cbe 3b08 19bd 7f17 d8bc 3c15 ad3e
00000350: d341 dd3d 28ee 49bf 6c84 aabf 7fe2 11bf
00000360: 17de 55be 3adc 4b3d cac9 9cbe dd3e 1b3e
00000370: 91a8 b63e dc52 fdbe 3914 2fbe 3fa0 3fbe
00000380: e3fb ee3e 937f 223e 6adc b03e e683 673e
00000390: deb4 98be a772 903e 9f1f 263f 45f0 983e
000003a0: 2e2e 223e 0ac4 ce3e ab75 ff3e 2177 a2be
000003b0: e4e4 923e b3e4 b6be a09a d9be edd2 c4be
000003c0: 4aab 5c3e 7bcc 88be d3b6 70be 9ada eabe
000003d0: 96a2 07bf e053 10bf e017 a23b f108 ebbd
000003e0: e0f9 c93e 5c22 36be 43c6 3f3e b7f9 08be
000003f0: e6c7 0a3f 730b f53e 47ff 00be b48f 8abd

layer1.bias f4 [128]
-0.019734316 0.22356597 0.5873014 0.27722532 -0.25077733 0.39250058 0.55604863 0.5550048
0.27662238 -0.1335659 -0.123111896 -0.04319918 0.30036962 0.059749432 0.531548 -0.12981021
0.2624333 0.21783566 0.3286044 -0.533617 0.3650762 -0.37748963 -0.04785539 -0.20588374
-0.36899275 -0.38312018 -0.13483785 0.6218639 -0.42897004 -0.016432876 -0.38165805 -0.4350377
0.66695714 0.3768472 -0.43762448 -0.52753747 0.5448478 0.3744487 0.46949777 -0.44443762
-0.43097425 0.700727 0.70135385 0.62876177 0.49386397 0.31689483 0.43367222 -0.11413252
0.48004428 0.36901054 -0.034767102 0.36856687 -0.46264902 -0.03864656 0.6465038 0.55094755
0.6721333 0.6009887 0.6487024 0.7119604 0.5202712 0.030160759 -0.41115525 -0.27660874
0.3764725 0.29967308 0.51075697 -0.27816257 0.38441807 0.6845769 0.4541566 0.56729484
0.16947962 0.6081875 -0.059591863 0.26725337 0.51958364 0.16491017 -0.33129308 -0.26299146
-0.34997094 0.33063895 -0.50757456 -0.054328352 -0.11925425 -0.33278194 0.5210344 0.28127566
0.46787003 -0.03898896 0.35700378 -0.47791216 -0.47653562 0.68965405 0.03398285 0.6503877
0.63791084 0.23728704 -0.16032714 0.20580566 -0.55044854 -0.049475968 -0.044397272 0.30990568
0.3317323 -0.017777799 0.50644314 -0.4359155 -0.18111597 0.29557672 -0.35328653 0.41990572
0.18425469 0.36086795 0.38930467 -0.33136496 0.43473262 0.06725713 -0.37038007 -0.49669415
0.588296 0.11569113 -0.2170511 -0.40720308 0.20801784 -0.017842462 -0.1291975 0.02663342
00000000: dca9 a1bc 7aee 643e 6259 163f 7af0 8d3e
00000010: e365 80be d6f5 c83e 3459 0e3f cb14 0e3f
00000020: 73a1 8d3e 80c5 08be 1722 fcbd a0f1 30bd
00000030: 0cca 993e d2bb 743d 8813 083f f8ec 04be
00000040: a85d 863e 5010 5f3e d63e a83e 209b 08bf
00000050: 45eb ba3e 5246 c1be 0304 44bd 30d3 52be
00000060: 9eec bcbe 5428 c4be ef12 0abe 7932 1f3f
00000070: f6a1 dbbe 3d9e 86bc af68 c3be 43bd debe
00000080: b4bd 2a3f 1ef2 c03e 5110 e0be b20c 07bf
00000090: 257b 0b3f bdb7 bf3e 0362 f03e 548d e3be
000000a0: a8a8 dcbe d862 333f ed8b 333f 88f6 203f
000000b0: bddb fc3e 0a40 a23e 490a de3e 50be e9bd
000000c0: 5dc8 f53e f3ee bc3e f367 0ebd ccb4 bc3e
000000d0: 55e0 ecbe db4b 1ebd 4681 253f e60a 0d3f
000000e0: ee10 2c3f 65da 193f 5c11 263f 0943 363f
000000f0: 7e30 053f b213 f73c f182 d2be a99f 8dbe
00000100: 01c1 c03e c06e 993e f8c0 023f 536b 8ebe
00000110: 72d2 c43e 6f40 2f3f 3787 e83e 3c3a 113f
00000120: 118c 2d3e 2db2 1b3f 9916 74bd 6fd5 883e
00000130: 6f03 053f 36de 283e 3f9f a9be d1a6 86be
00000140: 642f b3be 8249 a93e 68f0 01bf 6887 5ebd
00000150: 923b f4bd 6562 aabe 8362 053f 5d03 903e
00000160: a98c ef3e e3b2 1fbd 33c9 b63e e7b0 f4be
00000170: 7afc f3be 2b8d 303f 9a31 0b3d cf7f 263f
00000180: 204e 233f 60fb 723e cc2c 24be b8be 523e
00000190: 32ea 0cbf 50a7 4abd ead9 35bd f5ab 9e3e
000001a0: d1d8 a93e bfa2 91bc 42a6 013f 5130 dfbe
000001b0: 7776 39be d555 973e f9e1 b4be e2fd d63e
000001c0: 43ad 3c3e afc3 b83e f152 c73e aba8 a9be
000001d0: 4695 de3e 1bbe 893d 75a2 bdbe b24e febe
000001e0: 919a 163f 79ef ec3d a542 5ebe ec7c d0be
000001f0: a102 553e 5b2a 92bc 594c 04be 542e da3c

layer2.weight f4 [128, 128]
-0.61733854 0.09352991 0.01247968 -0.0024791544 0.0067093177 0.06502253 0.09417892 -0.06735107
0.12009251 -0.19839595 -0.2276289 -0.36451903 0.1900936 0.0051439386 0.097378686 -0.14000294
-0.022540608 0.11403082 -0.025551798 -0.22291861 0.16313645 0.019472918 -0.21609132 -0.39341173
-0.10017553 -0.10831209 -0.42384663 0.14027712 -0.4401295 -0.44975314 -0.06444398 -0.10067364
0.021629171 0.11311459 -0.24118343 -0.038404137 0.029879361 0.048342783 0.087921105 0.009605971
-0.39333305 0.10816847 0.120334566 0.1038246 0.04491206 0.12515058 -0.022800429 -0.6204552
-0.015209077 0.013823122 -0.30811888 -0.017617172 -0.18938895 -0.8213148 0.08499958 0.18462798
0.037114047 0.014186408 0.0490568 0.16001917 0.0073665804 -0.121870406 -0.074625 -0.12663898
0.12243122 -0.048462383 -0.052465595 -0.18170746 0.06495582 0.0064282175 -0.07738879 0.02829211
0.080034085 -0.0371447 -0.4419273 -0.07193818 0.029590819 0.34791505 -0.4703931 -0.09689015
0.0817758 0.054177023 -0.3617189 -0.25426778 -0.10586971 -0.35069457 -0.00277938 0.07232123
0.0062840376 -0.2963482 -0.03272834 -0.13388275 -0.19974743 -0.010467968 -0.10106684 0.06590997
0.11445038 0.19925396 -0.20390534 0.016336424 -0.16758563 -0.47458896 -0.24766804 -0.027975349
0.053724837 -0.28513625 0.023309782 -0.014742929 -0.09133162 0.04511715 -0.04844255 0.0007526957
0.004398799 -0.09367544 0.10244688 -0.49148157 0.0493677 -0.095308796 -0.2782693 -0.49735793
0.12747118 -0.2139763 -0.921981 -0.11033085 -0.11083264 -0.31265703 -0.8426892 -0.53957194
-0.038059924 0.04053227 0.066097625 0.007341405 -0.034288626 0.04014899 -0.012497111 0.021769175
-0.03916797 -0.08286485 -0.064359225 0.015886346 0.030894814 -0.009652843 0.008697735 -0.037643727
0.033066936 -0.009339095 -0.065766156 0.033153594 0.020846855 0.018011201 0.038616378 -0.06861811
0.07053652 -0.023855824 0.03849852 -0.017868116 -0.026581598 -0.07312905 0.037720777 0.01493559
0.048499 -0.073658764 -0.0577169 0.022611585 -0.07831188 0.05836964 0.036918435 -0.07512801
0.05699432 -0.038318433 -0.039314993 -0.0076929615 -0.04156056 -0.016343484 -0.00971875 0.0017905157
-0.0151597485 0.051336706 -0.08320819 0.022173211 -0.055169247 -0.05166762 -0.0625866 0.0008497891
0.01740672 0.042769574 -0.03894692 -0.0187871 0.044885423 0.0047638556 -0.0035715278 -0.07694978
-0.017551625 -0.05923367 -0.08836249 -0.0124274595 -0.08922482 0.067261726 0.0729326 -0.029574199
-0.056461163 -0.027089937 0.005702419 0.061818283 0.065041326 -0.040180083 -0.025438651 0.034392543
0.05872788 0.071204156 -0.06988076 -0.016521193 0.066844866 0.05290778 0.041627303 -0.08188089
-0.0079396255 -0.07328592 -0.08746867 -0.049408086 0.07315765 0.06978864 -0.059036095 -0.07162894
0.06358726 0.07279066 0.0038227334 -0.0651572 -0.012555961 0.00038819847 -0.065857925 0.07247954
-0.01675384 -0.077140555 0.00017417318 -0.0503625 0.008168627 -0.068059824 -0.034122918 0.023285212
-0.030136509 -0.03621431 -0.03648347 -0.057724647 -0.061152566 -0.021993358 -0.0075849365 -0.02491957
0.039272275 0.05301041 -0.0101527795 -0.02699608 -0.03549237 0.047914665 -0.039280213 0.013143598
00000000: e609 1ebf 9c8c bf3d 9277 4c3c 4f79 22bb
00000010: d6d9 db3b 882a 853d e1e0 c03d 5cef 89bd
00000020: 10f3 f53d 4f28 4bbe 8d17 69be 3da2 babe
00000030: e6a7 423e 7c8e a83b 7a6e c73d ee5c 0fbe
00000040: 15a7 b8bc fe88 e93d 0152 d1bc c744 64be
00000050: 3e0d 273e ab85 9f3c 0b47 5dbe 436d c9be
00000060: d428 cdbd bbd2 ddbd 6d02 d9be cea4 0f3e
00000070: a758 e1be 0b46 e6be 35fb 83bd fb2d cebd
00000080: a92f b13c 9fa8 e73d caf8 76be a84d 1dbd
00000090: 90c5 f43c 1503 463d fb0f b43d 5d62 1d3c
000000a0: f362 c9be 6e87 dd3d f871 f63d fea1 d43d
000000b0: b5f5 373d 7927 003e f7c7 babc 27d6 1ebf
000000c0: 7e2f 79bc 607a 623c c2c1 9dbe e351 90bc
000000d0: 2def 41be b041 52bf 4314 ae3d 1e0f 3d3e
000000e0: e604 183d 1c6e 683c c8ef 483d 11dc 233e
000000f0: 5b63 f13b 3197 f9bd fed4 98bd a6ad 01be
00000100: 38bd fa3d 7e80 46bd 2ae6 56bd 8511 3abe
00000110: 8f07 853d cca3 d23b 047e 9ebd dbc4 e73c
00000120: e9e8 a33d 0a25 18bd 4c44 e2be 5354 93bd
00000130: 7268 f23c ec21 b23e 5dd7 f0be 586e c6bd
00000140: 127a a73d bae8 5d3d 3833 b9be 632f 82be
00000150: 38d2 d8bd 3d8e b3be 4226 36bb 271d 943d
00000160: 54ea cd3b f4ba 97be 270e 06bd 8f18 09be
00000170: 978a 4cbe d781 2bbc 22fc cebd cefb 863d
00000180: f664 ea3d 3b09 4c3e 90cc 50be f7d3 853c
00000190: 919b 2bbe 53fd f2be b19c 7dbe 8f2c e5bc
000001a0: 930e 5c3d 61fd 91be 28f4 be3c 538c 71bc
000001b0: 130c bbbd c3cc 383d b26b 46bd 8e50 453a
000001c0: cd23 903b e9d8 bfbd abcf d13d 79a3 fbbe
000001d0: c935 4a3d 4231 c3bd 5079 8ebe b3a5 febe
000001e0: ce87 023e 9a1c 5bbe f206 6cbf 24f5 e1bd
000001f0: 39fc e2bd 9514 a0be 7bba 57bf 6321 0abf
00000200: b9e4 1bbd 2a05 263d 315e 873d 2b90 f03b
00000210: 3b72 0cbd 4473 243d afc0 4cbc 4555 b23c
00000220: 986e 20bd 0cb5 a9bd c5ce 83bd 1524 823c
00000230: 1f17 fd3c f526 1ebc f280 0e3c 4f30 1abd
00000240: 3271 073d 0103 19bc 68b0 86bd 10cc 073d
00000250: 06c7 aa3c 3a8c 933c 352c 1e3d a787 8cbd
00000260: 7375 903d 4a6d c3bc a0b0 1d3d 2860 92bc
00000270: a7c1 d9bc afc4 95bd 1a81 1a3d 68b4 743c
00000280: e3a6 463d 68da 96bd 8e68 6cbd ee3b b93c
00000290: fb61 a0bd 0115 6f3d c937 173d b7dc 99bd
000002a0: e072 693d caf3 1cbd c208 21bd 3d15 fcbb
000002b0: 683b 2abd c5e2 85bc 643b 1fbc bdaf ea3a
000002c0: 9860 78bc 7046 523d 0e69 aabd 98a4 b53c
000002d0: 26f9 61bd 6da1 53bd 672d 80bd 62c4 5e3a
000002e0: 8a98 8e3c 262f 2f3d ce86 1fbd 68e7 99bc
000002f0: c7d9 373d 1e1a 9c3b 4b10 6abb d997 9dbd
00000300: 6dc8 8fbc 019f 72bd 65f7 b4bd 8b9c 4bbc
00000310: 81bb b6bd 84c0 893d b05d 953d 9745 f2bc
00000320: d243 67bd b7eb ddbc 5cdb ba3b 2b35 7d3d
00000330: 6334 853d df93 24bd b864 d0bc 32df 0c3d
00000340: a58c 703d 7cd3 913d a51d 8fbd 7457 87bc
00000350: f6e5 883d d4b5 583d 6481 2a3d 2bb1 a7bd
00000360: 3415 02bc ee16 96bd c622 b3bd 2260 4abd
00000370: aed3 953d 59ed 8e3d d5cf 71bd 32b2 92bd
00000380: 0a3a 823d 4513 953d d386 7a3b 2371 85bd
00000390: 84b7 4dbc 1e87 cb39 85e0 86bd 2770 943d
000003a0: 593f 89bc defb 9dbd 42a2 3639 e948 4ebd
000003b0: b4d5 053c f362 8bbd 79c4 0bbd a1c0 be3c
000003c0: d7e0 f6bc 7555 14bd b16f 15bd ae70 6cbd
000003d0: 1d7b 7abd 6a2b b4bc 0f8b f8bb 2024 ccbc
000003e0: f7db 203d 7221 593d d857 26bc e226 ddbc
000003f0: 7360 11bd 2b42 443d 4ae4 20bd 3f58 573c

layer2.bias f4 [128]
0.044590008 -0.010920648 0.06696004 0.23949304 -0.01682189 -0.029992152 0.011929212 -0.018186668
0.04055345 0.032846007 0.004000631 0.29947057 0.24038136 -0.080429524 0.15107921 0.2646741
0.17573808 0.3022409 0.13998012 -0.024601568 0.33907133 -0.19551001 0.20828177 0.05192328
0.07577128 0.14066742 0.21638021 0.2580146 -0.1826499 0.2555836 -0.014515378 -0.011089025
0.056705914 0.0278569 0.015899733 0.24914251 -0.029037101 -0.022619238 0.14047869 0.09713682
0.23779996 0.007655748 0.2513069 -0.03972085 -0.087957814 0.06228046 -0.061860714 0.21916556
0.27947515 0.324831 0.058640007 0.074553385 0.39298448 0.25877112 -0.019086806 0.14792989
-0.07283583 -0.039982785 0.010565753 0.12400263 0.02031754 0.09233128 -0.023230013 -0.070702456
0.1081596 0.28236264 -0.039534595 0.084313564 -0.0019586626 -0.081112295 0.15280443 0.13454153
-0.0037253427 0.118169546 0.23098883 0.062086444 -0.0042488375 0.095335044 0.14873105 -0.15993035
0.21715793 0.08181027 0.31185395 0.05256711 0.12639421 -0.008561973 0.03780369 -0.125582
0.21746327 -0.07100002 0.053809468 -0.16274583 -0.004548502 0.067977734 0.22138304 0.3345605
0.3358963 0.23861374 0.09392794 -0.022849916 -0.081537694 0.22938399 -0.016856216 -0.23246138
0.009080132 -0.06890642 0.07878206 -0.15341568 0.29097492 0.0066137975 0.016962433 -0.008962037
0.2605584 0.08975375 0.014429364 0.049363855 0.26957792 -0.015283386 -0.06666485 0.00022926832
0.018782962 0.055443205 0.0077774078 0.06369543 0.2737123 -0.044980656 0.12649398 0.12901038
00000000: 03a4 363d 85ec 32bc 5822 893d aa3d 753e
00000010: 0fce 89bc 1ab2 f5bc be72 433c 35fc 94bc
00000020: 601b 263d 8989 063d ba17 833b 3554 993e
00000030: 8826 763e 3cb8 a4bd 82b4 1a3e 5d83 873e
00000040: aff4 333e 52bf 9a3e f356 0f3e 3a89 c9bc
00000050: c29a ad3e c733 48be d147 553e 81ad 543d
00000060: f92d 9b3d 1f0b 103e c692 5d3e 7d1a 843e
00000070: 9308 3bbe dbdb 823e e8d1 6dbc beae 35bc
00000080: 7644 683d 2734 e43c 2840 823c 371f 7f3e
00000090: 37df edbc fb4b b9bc a5d9 0f3e abef c63d
000000a0: d581 733e 12dd fa3b 4cab 803e 54b2 22bd
000000b0: 3a23 b4bd cc19 7f3d a961 7dbd f06c 603e
000000c0: 5e17 8f3e 4050 a63e 8130 703d 72af 983d
000000d0: 4335 c93e a67d 843e ef5b 9cbc ef7a 173e
000000e0: f42a 95bd fdc4 23bd fb1b 2d3c 17f5 fd3d
000000f0: f870 a63c 2f18 bd3d de4c bebc 73cc 90bd
00000100: c882 dd3d d691 903e 07ef 21bd 97ac ac3d
00000110: e85c 00bb 341e a6bd c478 1c3e 41c5 093e
00000120: e124 74bb e002 f23d 5688 6c3e 5b4e 7e3d
00000130: d539 8bbb 053f c33d f44c 183e c8c4 23be
00000140: a65e 5e3e 258c a73d 52ab 9f3e 9c50 573d
00000150: 7c6d 013e 8547 0cbc 0bd8 1a3d 9198 00be
00000160: b1ae 5e3e 7568 91bd 5167 5c3d d8a6 26be
00000170: 9a0b 95bb e937 8b3d 3cb2 623e 844b ab3e
00000180: 9afa ab3e 2957 743e 4b5d c03d bf2f bbbc
00000190: 3cfd a6bd a3e3 6a3e 0c16 8abc 5b0a 6ebe
000001a0: d5c4 143c cf1e 8dbd 7d58 a13d 0019 1dbe
000001b0: aafa 943e 8eb8 d83b cdf4 8a3c 82d5 12bc
000001c0: e967 853e d0d0 b73d 2469 6c3c c131 4a3d
000001d0: 1e06 8a3e 2b67 7abc 9587 88bd bf67 7039
000001e0: bade 993c 6a18 633d a0d9 fe3b c072 823d
000001f0: 0524 8c3e a33d 38bd a387 013e 4c1b 043e

layer3.weight f4 [2, 128]
0.328679 -0.04475808 -0.2659212 0.41234842 0.2677912 0.076568246 -0.14388582 9.511142e-05
-0.30329186 0.390116 -0.26100656 0.26240823 0.28586248 -0.021080574 0.28551146 0.3849568
0.31392592 0.21802431 0.4254153 -0.2807976 0.29775292 -0.5739546 0.2135502 0.24728301
-0.23750943 0.3735251 0.31884438 0.2831491 -0.3052509 0.35526577 -0.32703802 -0.34693584
0.27712643 0.037144993 0.34251413 0.22937596 -0.0025817743 0.31963438 0.39018393 0.39701614
0.37564063 -0.0626645 0.36691597 -0.28096136 -0.3099042 0.16766629 0.04630026 0.34994894
0.32693172 0.45331433 0.40174758 0.3813145 0.4214534 0.24929574 0.35283086 0.3570869
0.19510381 -0.24781938 -0.0762786 0.37292045 0.38420576 0.27383578 -0.16742058 -0.05444087
0.27556318 0.4325063 0.30941877 0.3939978 0.09791799 0.028323043 0.364291 0.049225472
-0.22706729 0.45529875 0.32794854 0.36764255 -0.1250187 0.18697964 0.36235765 -0.25801042
0.31505123 0.16852623 0.41895768 0.06976803 0.36368424 0.41884285 0.3317597 -0.4037016
0.41664302 -0.25900918 -0.23109907 -0.6336614 -0.18814814 -0.0572986 0.3966631 0.33962318
0.24643329 0.28369996 0.42794964 0.02088835 0.07002139 0.34209833 0.39927962 -0.19692788
0.18608826 -0.01819482 0.2980328 -0.29145244 0.42851192 -0.05601597 -0.008534463 -0.12623441
0.45004618 0.14720722 -0.31404144 0.45244303 0.40199792 -0.0117080035 0.010767759 -0.05610713
-0.16700971 0.20446663 -0.29627508 -0.019570148 0.30459303 0.45051152 -0.0067877565 0.36923563
0.36372912 0.002067506 -0.32987377 0.4580217 -0.095120534 0.078957036 -0.1590928 -0.040729575
-0.53856903 0.30017298 -0.16004126 0.29082325 0.3341783 -0.0105212005 0.3333127 0.3546141
0.39865226 0.30802563 0.3064642 -0.32092482 0.42842713 -0.15438281 0.36534235 0.35044017
-0.066775404 0.19219825 0.3701659 0.25848117 -0.6814223 0.34523097 -0.0864703 -0.14598787
0.31586102 -0.067293294 0.3701171 0.3380841 0.038884882 -0.26102403 0.3357764 0.3333103
0.26440728 0.036103822 0.21034646 -0.23195635 -0.3006114 -0.05251563 -0.020487994 0.31759083
0.39951 0.2982693 0.30188286 0.38101897 0.33703074 0.318278 0.41801134 0.2949159
-0.26713738 -0.112874925 -0.27448714 0.26791516 0.34414837 0.31215888 0.095503576 -0.022417158
0.34693718 0.28714177 0.42300674 0.38836437 0.4711771 -0.023199286 0.27195498 0.18173312
-0.27340943 0.46059135 0.32663357 0.40627304 0.17173256 0.25129876 0.4551665 -0.5415978
0.40670738 -0.11338852 0.2636404 0.04872913 0.38353658 0.34764612 0.31529003 -0.2756674
0.39345512 -0.17156832 0.0061418517 -0.2727177 -0.4435052 0.07852351 0.32514545 0.34581605
0.30138507 0.3660288 0.45278525 0.6887728 -0.081858665 0.35544363 0.4226372 -0.4712422
-0.32828003 -0.024158813 0.2914596 -0.33732772 0.31033468 -0.040283084 -0.50820655 -0.11775976
0.29965907 0.2638787 0.0308727 0.38937953 0.31024167 -0.042708017 -0.008821214 0.008206226
0.22075446 0.053459454 -0.14605883 -0.059312858 0.29490378 0.40484828 0.26341775 0.2691884
00000000: 9d48 a83e 4054 37bd d326 88be 551f d33e
00000010: ee1b 893e d0cf 9c3d ce56 13be 8e76 c738
00000020: 1249 9bbe 49bd c73e a7a2 85be 5f5a 863e
00000030: 915c 923e 2bb1 acbc 8f2e 923e 0f19 c53e
00000040: e6ba a03e c441 5f3e 09d0 d93e b4c4 8fbe
00000050: 1273 983e b0ee 12bf e7ac 5a3e c237 7d3e
00000060: ac35 73be af3e bf3e 923f a33e ebf8 903e
00000070: d949 9cbe 65e5 b53e 8771 a7be 93a1 b1be
00000080: 84e3 8d3e 5925 183d 035e af3e 88e1 6a3e
00000090: fc32 29bb 1ea7 a33e 30c6 c73e b345 cb3e
000000a0: f853 c03e 3f56 80bd 69dc bb3e 2bda 8fbe
000000b0: c3ab 9ebe b6b0 2b3e 57a5 3d3d 822c b33e
000000c0: 9863 a73e d118 e83e dcb1 cd3e a73b c33e
000000d0: bdc8 d73e 6247 7f3e 3fa6 b43e 18d4 b63e
000000e0: 4bc9 473e 5dc4 7dbe f437 9cbd 6eef be3e
000000f0: 9eb6 c43e 3434 8c3e 4d70 2bbe 64fd 5ebd
00000100: 9e16 8d3e 7771 dd3e 236c 9e3e 14ba c93e
00000110: 3a89 c83d ba05 e83c 5a84 ba3e a6a0 493d
00000120: 5484 68be eb1c e93e dfe8 a73e a53b bc3e
00000130: e704 00be 9777 3f3e f186 b93e f119 84be
00000140: 654e a13e 2492 2c3e 9f81 d63e 8ae2 8e3d
00000150: d234 ba3e 9272 d63e 68dc a93e fab1 cebe
00000160: 3c52 d53e da9c 84be 3ca5 6cbe a237 22bf
00000170: e8a9 40be f0b1 6abd 6d17 cb3e 17e3 ad3e
00000180: 0259 7c3e 1f41 913e 371c db3e 0c1e ab3c
00000190: 6067 8f3d 8327 af3e 616e cc3e 76a7 49be
000001a0: ec8d 3e3e 4e0d 95bc c197 983e 4139 95be
000001b0: ea65 db3e 0071 65bd 22d4 0bbc 9843 01be
000001c0: 746c e63e 7dbd 163e 0aca a0be 9da6 e73e
000001d0: acd2 cd3e edd2 3fbc 416b 303c 97d0 65bd
000001e0: 9804 2bbe b35f 513e 5eb1 97be 9351 a0bc
000001f0: 9ef3 9b3e 72a9 e63e d46b debb 740c bd3e
00000200: b43a ba3e ff7e 073b 37e5 a8be d281 ea3e
00000210: 8ece c2bd 3ab4 a13d 39e9 22be 0ed4 26bd
00000220: a9df 09bf 46b0 993e dbe1 23be c9e6 943e
00000230: 6b19 ab3e 1d61 2cbc f6a7 aa3e fb8f b53e
00000240: 261c cc3e 89b5 9d3e e0e8 9c3e 4250 a4be
00000250: cd5a db3e 8716 1ebe 270e bb3e e56c b33e
00000260: 8bc1 88bd 9ecf 443e 6386 bd3e a557 843e
00000270: b171 2ebf 1dc2 b03e 5717 b1bd d87d 15be
00000280: 89b8 a13e 11d1 89bd fd7f bd3e 5c19 ad3e
00000290: c145 1f3d f1a4 85be e2ea ab3e a6a7 aa3e
000002a0: 6460 873e 9ae1 133d 1065 573e f785 6dbe
000002b0: bde9 99be a11a 57bd 70d6 a7bc 449b a23e
000002c0: 938c cc3e c1b6 983e 6490 9a3e eb14 c33e
000002d0: 4b8f ac3e 56f5 a23e 9505 d63e 38ff 963e
000002e0: 3bc6 88be f82a e7bd 9489 8cbe 2d2c 893e
000002f0: 3734 b03e 4ad3 9f3e 6197 c33d 30a4 b7bc
00000300: c0a1 b13e 3f04 933e 5794 d83e b2d7 c63e
00000310: 203e f13e 6e0c bebc af3d 8b3e 3f18 3a3e
00000320: 52fc 8bbe a1d2 eb3e 843c a73e 0503 d03e
00000330: a9da 2f3e 3baa 803e 950b e93e 27a6 0abf
00000340: f33b d03e 3e38 e8bd e0fb 863e 3298 473d
00000350: e85e c43e acfe b13e b26d a13e 4724 8dbe
00000360: f372 c93e 9baf 2fbe 9641 c93b a8a1 8bbe
00000370: 1d13 e3be efd0 a03d 7779 a63e cd0e b13e
00000380: 254f 9a3e 2068 bb3e 78d3 e73e 6a53 303f
00000390: 84a5 a7bd b5fc b53e e763 d83e a846 f1be
000003a0: 5214 a8be b4e8 c5bc 313a 953e 38b6 acbe
000003b0: 30e4 9e3e e0ff 24bd d319 02bf 072c f1bd
000003c0: ea6c 993e 1c1b 873e bfe8 fc3c c15c c73e
000003d0: ffd7 9e3e 9aee 2ebd da86 10bc 6873 063c
000003e0: 750d 623e 4df8 5a3d 7290 15be 0af2 72bd
000003f0: a1fd 963e 4648 cf3e b1de 863e 10d3 893e

layer3.bias f4 [2]
0.1421116 0.11357165
00000000: b485 113e 4198 e83d
